proj/mode/Relu_neuro_net_v1.pt (torch, 289103 bytes, 6 tensors)

linear.0.weight f4 [256, 16]
0	0xbda0a06d	-0.07843099
1	0x37e952a4	2.7814247e-05
2	0x3e4b8e82	0.19878581
3	0xbd6e53cf	-0.058185395
4	0xbb1668e7	-0.002295071
5	0x3e35a846	0.17739972
6	0x3e1e2331	0.15443112
7	0xbe9e3f84	-0.30907834
8	0x3e7d8871	0.2475908
9	0x3e4e59cb	0.20151441
10	0x3ddf7beb	0.10912307
11	0xbe1072aa	-0.14106241
12	0xbdccfc2f	-0.10009038
13	0xbd0aa359	-0.033847187
14	0x3d82dcd0	0.06389773
15	0x3e2acb5a	0.16679135
16	0xbe18f8c5	-0.14938648
17	0x3d86bd09	0.06579024
18	0xbc540339	-0.0129402215
19	0xbe328258	-0.17432535
20	0x3e6a733c	0.22895521
21	0x3e32777d	0.17428394
22	0x3e2b1ab0	0.16709399
23	0xbe29dc0f	-0.16587852
24	0x3dadd03c	0.08486983
25	0x3cb7da48	0.022442952
26	0x3df597ba	0.1199183
27	0xbdd8077d	-0.10548303
28	0xbd8eb8b4	-0.06968823
29	0xbe222cf4	-0.15837461
30	0x3e6e9775	0.23299964
31	0x3d4ed2cf	0.05049401
32	0x3c6f709d	0.014614251
33	0x3d938b13	0.07204261
34	0x3e78c1f4	0.24292737
35	0xbde59dba	-0.112117246
36	0xbe00aa12	-0.12564877
37	0xbe424017	-0.18969761
38	0xbdf51584	-0.119669944
39	0x3e12a464	0.14320523
40	0x3d34f82a	0.04418198
41	0x3e7312c4	0.23737627
42	0x3e1bb359	0.15205134
43	0x3a59332a	0.0008285517
44	0xbde68a8a	-0.11256893
45	0xbd9ff3ec	-0.07810196
46	0xbe54a370	-0.20765471
47	0xbde7e3a2	-0.113227144
48	0xbe5b03bf	-0.21388148
49	0x3db10b30	0.08644712
50	0xbddd9a84	-0.10820487
51	0x3e819479	0.25308588
52	0x37ab3930	2.0411419e-05
53	0x3cf96e37	0.030448062
54	0xbe6b7652	-0.22994354
55	0x3e3e24ab	0.18568675
56	0x3e66377e	0.22482106
57	0xbe5d1034	-0.21588212
58	0xbd8b8c55	-0.068138756
59	0x3dd56060	0.10418773
60	0x3e3b09d2	0.18265465
61	0xbdba4787	-0.09095674
62	0x3d5bd7e1	0.053672675
63	0x3e39f9d2	0.18161705
64	0xbd8f313c	-0.069918126
65	0xbe7804b9	-0.24220552
66	0x3d9f2e37	0.07772487
67	0x3e58bdc7	0.21166144
68	0x3e4a0494	0.19728309
69	0xbdfb932c	-0.1228393
70	0x3dc00156	0.09375255
71	0xbc73a495	-0.014870782
72	0x3e4c7bf8	0.19969165
73	0xbd135b23	-0.035975587
74	0x3e1393b9	0.1441182
75	0xbd8764c4	-0.066110164
76	0x3e3a97f3	0.18222027
77	0xbc76c51d	-0.015061644
78	0xbe2d2c76	-0.16911492
79	0x3d77a242	0.060457475
80	0x3dd11d7a	0.102107
81	0x3e2b2bc7	0.16715918
82	0x3dd1419f	0.10217594
83	0xbdf51755	-0.11967341
84	0x3da39da8	0.07989055
85	0xbe474855	-0.19461186
86	0xbe3f8d88	-0.18706334
87	0x3e18f46b	0.14936988
88	0xbcf03ce4	-0.02932591
89	0x3d2552b9	0.040362094
90	0xbe400bc7	-0.18754493
91	0xbe6e0cdf	-0.23247097
92	0x3dd3421a	0.10315342
93	0x3e086e5c	0.13323349
94	0x3e69c619	0.22829475
95	0xbc04940b	-0.008091937
96	0x3df6fdbc	0.12060115
97	0x3ded4791	0.11585916
98	0x3e490282	0.19629863
99	0x3d455c43	0.04818369
100	0xbd8494a7	-0.06473666
101	0xbd8cae4e	-0.068691835
102	0x3cc17749	0.02361645
103	0xbe29cd97	-0.16582333
104	0xbc808d98	-0.015692517
105	0x3e397f21	0.18114902
106	0xbe350ca3	-0.17680602
107	0x3cd58c4a	0.026067872
108	0xbe1244d2	-0.14284065
109	0xbe3d1a7e	-0.18467137
110	0x3dca8026	0.098877236
111	0x3dff079e	0.12452625
112	0xbe319152	-0.17340592
113	0x3d79d2ba	0.06099198
114	0xbe16b576	-0.1471766
115	0xbe20db2d	-0.15708609
116	0x3d8f98a2	0.07011534
117	0xbe12a1d2	-0.14319542
118	0xbe6ec881	-0.23318674
119	0x3d9445e6	0.072398946
120	0xbe48ac78	-0.19597042
121	0x3e5207a2	0.20510724
122	0xbdecd085	-0.115632094
123	0xbdfcfa9a	-0.12352486
124	0xbd36ec41	-0.044658903
125	0xbe28837d	-0.16456409
126	0x3e4fd623	0.2029653
127	0x3c678262	0.014130207
128	0x3df7cee1	0.12100006
129	0x3e765f2a	0.2405974
130	0xbc6ef5b7	-0.01458495
131	0xbe1b8ec7	-0.15191184
132	0xbd4d61f8	-0.05014226
133	0xbe7caab7	-0.24674498
134	0xbda02e44	-0.078213245
135	0x3d89f42f	0.067360274
136	0xbd53944f	-0.05165511
137	0xbe22c211	-0.15894343
138	0xbe242c9b	-0.1603264
139	0xbca8d0d1	-0.020607384
140	0xbe001305	-0.12507255
141	0x3d87af18	0.06625193
142	0xbda192f2	-0.07889356
143	0x3d99a097	0.07501333
144	0x3e4d344e	0.20039484
145	0xbdd2045c	-0.10254738
146	0xbd8c5acb	-0.06853255
147	0xbafe666a	-0.0019409184
148	0xbd8e0069	-0.06933672
149	0x3e287790	0.1645186
150	0x3e745fd7	0.23864685
151	0xbc5e03d7	-0.01355072
152	0xbdddb447	-0.10825401
153	0xbd81dded	-0.06341157
154	0xbe03f379	-0.12885846
155	0x3df68e14	0.12038818
156	0xbd9af90a	-0.07567032
157	0x3dd349aa	0.10316785
158	0x3dbc33c2	0.091895595
159	0x3d29fcd9	0.0415009
160	0xbe10c86b	-0.14138953
161	0xbe643dbd	-0.22289176
162	0x3de4107b	0.11135956
163	0x3e005ea1	0.12536098
164	0x3e076e5a	0.1322569
165	0x3e383162	0.17987588
166	0x3ca22306	0.019792091
167	0x3e830329	0.25588349
168	0xbe498193	-0.19678335
169	0xbd58faec	-0.052973673
170	0x3a87d9e0	0.0010364614
171	0xbe030d90	-0.12798142
172	0xbe7f135c	-0.24909729
173	0x3d327eba	0.043577887
174	0xbe813109	-0.25232723
175	0x3e22c449	0.1589519
176	0x3e392ff9	0.18084706
177	0xbe38ba4d	-0.18039818
178	0xbe045ddd	-0.12926431
179	0xbe20bee0	-0.15697813
180	0xbdfddcdb	-0.123956405
181	0x3e8324bf	0.25613973
182	0x3e1adb5c	0.15122741
183	0x3dfcb855	0.12339846
184	0x3e5b443a	0.21412745
185	0xbd343f65	-0.04400577
186	0xbe55c2d3	-0.20875101
187	0xbdfe0a45	-0.124043025
188	0xbe4328e3	-0.19058566
189	0xbd1ddf2d	-0.038542915
190	0x3df1a3fc	0.11798856
191	0xb89b5b32	-7.4079624e-05
192	0x3dfcb931	0.1234001
193	0x3dd1d7ae	0.10246216
194	0xbe09d03b	-0.1345834
195	0xbe0d928d	-0.13825436
196	0x3d26a11c	0.04068099
197	0xbdf7c7db	-0.12098666
198	0x3e333609	0.17501082
199	0xbe0eaac8	-0.13932335
200	0xbdb9f5b2	-0.09080066
201	0x3d921005	0.07131962
202	0xbe79e627	-0.24404202
203	0x3e7f861a	0.249535
204	0x3e1a1c57	0.15049873
205	0x3e1575e8	0.14595759
206	0xbdd0756d	-0.10178647
207	0x3da81562	0.082072034
208	0x3cb4bd10	0.022062808
209	0x3e857676	0.2606694
210	0xbe75bccf	-0.23997806
211	0xbe2a9493	-0.16658239
212	0x3d882efa	0.06649585
213	0x3e0ebbf9	0.13938893
214	0xbc910e81	-0.017707111
215	0xbdfacd3d	-0.12246177
216	0xbe05db1c	-0.13071865
217	0x3d75398d	0.059869338
218	0x3d825208	0.063633025
219	0x3d756124	0.059907094
220	0xbdf308d5	-0.11866919
221	0x3c030b20	0.007998258
222	0x3e31307a	0.17303649
223	0x3e3b2ac3	0.18278031
224	0x3e4ab562	0.19795755
225	0xbe6d660d	-0.2318346
226	0xbd62960e	-0.055318885
227	0x3de1b06f	0.1101998
228	0x3e4799c6	0.19492254
229	0x3dd94462	0.10608746
230	0xbd831ae7	-0.064016156
231	0x3e233262	0.15937188
232	0x3d968795	0.07350079
233	0x3da270bb	0.07931658
234	0xbda5df85	-0.080992736
235	0x3e618687	0.22023974
236	0x3ce82d0f	0.028341798
237	0xbd60716e	-0.054795675
238	0xbe63f759	-0.22262324
239	0x3db80245	0.08984808
240	0xbe2d7dd3	-0.1694253
241	0x3db7bdb5	0.089717306
242	0xbe467860	-0.19381857
243	0xbc379a5e	-0.011206238
244	0xbd862f04	-0.06551936
245	0x3e07fd75	0.1328028
246	0x3d87008a	0.065919
247	0xbb378301	-0.0028001668
248	0xbc9bc3d7	-0.019014282
249	0x3e56e6dc	0.20986503
250	0xbe53f965	-0.20700605
251	0xbe0d469f	-0.13796471
252	0x3e68d292	0.22736576
253	0x3db588ce	0.08863984
254	0x3e5a6d0b	0.21330659
255	0xbd40f7ab	-0.047111195

linear.0.bias f4 [256]
0	0xbe27b79a	-0.16378632
1	0x3e910d42	0.28330427
2	0x3dff6076	0.1246957
3	0xbda06df6	-0.078334734
4	0xbdb47f3e	-0.08813332
5	0x3e516bff	0.20451353
6	0x3dc7a657	0.09748524
7	0x3e1e20a3	0.15442137
8	0x3e5505e7	0.20803033
9	0x3d455fcb	0.04818706
10	0xbe14dcfd	-0.14537425
11	0x3bfe620e	0.007763154
12	0xbe603188	-0.21893895
13	0xbdb47811	-0.08811963
14	0x3e4a51d9	0.19757785
15	0xbe5172e2	-0.2045398
16	0xbe485a25	-0.19565637
17	0x3d91768d	0.0710269
18	0xbc41e19a	-0.011833573
19	0xbd5631fe	-0.05229377
20	0xbe747b8b	-0.23875253
21	0x3e750f69	0.2393166
22	0xbd80d9f9	-0.06291575
23	0xbda1fb19	-0.07909221
24	0xbd96a668	-0.07355958
25	0x3d30c4af	0.043156322
26	0xbe288cea	-0.16460004
27	0xbe859081	-0.2608681
28	0x3e8cbfbb	0.2749003
29	0xbe431b71	-0.19053437
30	0xbe22ab7f	-0.15885733
31	0x3e301cd5	0.17198499
32	0x3e23e256	0.16004309
33	0xbe3ef8b5	-0.18649562
34	0x3df7c776	0.12098591
35	0xbe5df7db	-0.2167658
36	0xbe1a3d36	-0.15062413
37	0xbe4ae9cd	-0.1981575
38	0xbe434b51	-0.190717
39	0xbd25d383	-0.040484916
40	0x3e6263ed	0.22108431
41	0x3d861383	0.0654669
42	0x3dcb15c2	0.09916259
43	0xbd85ef81	-0.06539822
44	0x3dd946fc	0.10609242
45	0xbdcacabe	-0.09901951
46	0x3d3b73d4	0.04576476
47	0xbe33b793	-0.17550497
48	0xbe2bc645	-0.16774853
49	0xbe3382cd	-0.17530365
50	0xbdf63195	-0.12021176
51	0x3d20fc4b	0.039303105
52	0xbe35fdce	-0.177726
53	0x3d9c3239	0.07626767
54	0x3e72150d	0.23640843
55	0xbd901944	-0.07036069
56	0x3dca04ec	0.0986422
57	0xbe32c0cb	-0.17456357
58	0xbe7625b1	-0.24037816
59	0xbe3759a4	-0.17905289
60	0x3df5660a	0.11982353
61	0x3e76b4bc	0.24092382
62	0xbd80e795	-0.06294171
63	0x3e4d54d4	0.2005189
64	0x3dbea480	0.0930872
65	0xbe263766	-0.1623207
66	0x3dc1bb30	0.09459531
67	0xbe06e448	-0.1317302
68	0x3e0dfc22	0.13865712
69	0xbda58c7d	-0.08083437
70	0xbd64b31f	-0.055834886
71	0xbc929f7a	-0.01789831
72	0x3e4e9fdb	0.20178168
73	0x3d229e22	0.03970159
74	0xbd87ba73	-0.06627359
75	0x3c43b6eb	0.0119454665
76	0x3dc29fe8	0.09503156
77	0x3c532b66	0.012888765
78	0xbdced6b4	-0.10099545
79	0x3e294e79	0.16533841
80	0xbe33dd65	-0.17564924
81	0x3e66d769	0.2254311
82	0x3bfdb5f7	0.007742639
83	0xbe094edd	-0.1340899
84	0xbd557531	-0.052113716
85	0xbe2b627d	-0.16736789
86	0x3d62acea	0.055340685
87	0x3e3faaad	0.18717451
88	0x3d2f14fd	0.042744625
89	0x3d874e67	0.06606751
90	0x3debbdcf	0.115108125
91	0x3e587996	0.21140131
92	0x3cc1d24b	0.023659846
93	0xbe72b372	-0.23701265
94	0xbe6ba35d	-0.23011537
95	0xbe154a54	-0.14579135
96	0x3e26a7c4	0.16274935
97	0xbc3d4c18	-0.011553787
98	0xbe5ee59f	-0.21767281
99	0x3dd9d9e3	0.10637262
100	0xbbefc590	-0.0073172525
101	0xbd1cdffb	-0.038299542
102	0xbd61c557	-0.05511984
103	0xbddacf47	-0.10684066
104	0x3e1abdda	0.15111485
105	0x3e3a0a95	0.18168099
106	0xbe1669d6	-0.1468881
107	0x3db0015c	0.08594009
108	0xbe641284	-0.22272688
109	0x3c3e0423	0.011597666
110	0x3e33471e	0.17507598
111	0xbdeeb16d	-0.11654935
112	0xbe123a4d	-0.14280052
113	0xbe424117	-0.18970142
114	0x3d5323f9	0.051547978
115	0x3e599c8c	0.21251124
116	0xbc8e71d8	-0.01738827
117	0xbe6440c3	-0.2229033
118	0xbd82c336	-0.0638489
119	0x3d82c4fc	0.06385228
120	0x3d099be7	0.033595946
121	0xbe40ac50	-0.18815732
122	0x3e3c734b	0.18403356
123	0xbd7e47e4	-0.06208028
124	0xbe51939e	-0.20466468
125	0xbd3687aa	-0.044562973
126	0x3e026f2c	0.12737721
127	0xbe6d1307	-0.2315179
128	0x3e7333fd	0.237503
129	0x3e35b2db	0.17744009
130	0x3bb0b3ff	0.005392551
131	0xbe7186c7	-0.2358657
132	0xbe76fe3d	-0.24120422
133	0x3e92c2e8	0.28664327
134	0xbe00d363	-0.12580638
135	0x3e4f6a57	0.20255409
136	0xbe09d8f1	-0.13461663
137	0xbca6911e	-0.02033287
138	0x3dd1a209	0.10235984
139	0xbddd4e71	-0.10805977
140	0xbcf13d5e	-0.029448207
141	0x3d8fd676	0.07023327
142	0x3d58e2f1	0.052950803
143	0x3dbc5864	0.09196547
144	0xbe2369de	-0.15958354
145	0x3e5f794a	0.21823612
146	0xbd33e934	-0.04392357
147	0xbe2b16be	-0.16707894
148	0x3d29cb44	0.041453615
149	0xbb451283	-0.0030070848
150	0x3db1b5cc	0.08677253
151	0xbe1d1501	-0.15340044
152	0x3e23d3c1	0.15998746
153	0xbd08e513	-0.033421587
154	0x3dadb4d6	0.08481757
155	0xbddf0ef3	-0.10891523
156	0x3e31990a	0.17343536
157	0xbddbadd5	-0.10726515
158	0x3e74d12b	0.23907916
159	0xbc807582	-0.015681032
160	0x3e6c5700	0.23080063
161	0xbd353941	-0.044244055
162	0xbd1c625e	-0.038179748
163	0xbd662f58	-0.056197494
164	0x3b53b1f8	0.0032302123
165	0x3d1bdb59	0.038050983
166	0x3e6aee0d	0.22942372
167	0xbdab02d0	-0.08350146
168	0x3cd9c54d	0.026583338
169	0x3d9c54bf	0.076333515
170	0x3de3b720	0.11118913
171	0xbdb98d96	-0.090602085
172	0xbe47a7b0	-0.19497561
173	0x3e8411c7	0.25794813
174	0x3c9fa7ee	0.019489255
175	0x3d7fefdc	0.062484607
176	0x3e43519f	0.19074105
177	0x3db956e7	0.090497784
178	0xbe61a6cc	-0.22036284
179	0x3caed1a1	0.021340193
180	0xbdf5fbee	-0.120109424
181	0xbe29bcba	-0.165759
182	0xbe5ff2e5	-0.2187
183	0x3e1743db	0.14771979
184	0x3d166cec	0.03672497
185	0xbd477866	-0.048698805
186	0x3e1c0ae8	0.15238535
187	0xbdfdd1e1	-0.12393547
188	0x3ca69c85	0.020338306
189	0x3dc6932d	0.0969604
190	0x3e28582f	0.1643989
191	0xbe7ca9b2	-0.24674109
192	0x3db36b23	0.08760669
193	0xbe1c20f9	-0.15246953
194	0x3e6f75d8	0.23384798
195	0xbe3248ba	-0.17410555
196	0x3e39db52	0.1815007
197	0x3db8be19	0.09020633
198	0xbe6497f6	-0.22323593
199	0x3e1c5417	0.15266453
200	0x3e4feea0	0.20305872
201	0xbcc18658	-0.02362363
202	0x3e256613	0.1615222
203	0xbe56be69	-0.20971073
204	0x3b827098	0.0039807074
205	0xbc6e8e12	-0.014560239
206	0x3d82ee6e	0.06393133
207	0x3de7ee56	0.11324756
208	0xbe8203e9	-0.25393608
209	0x3db273c3	0.08713486
210	0x3dbf297c	0.093340844
211	0xbe1f1acd	-0.15537567
212	0x3e4fc3da	0.20289555
213	0x3cd0fa18	0.025509879
214	0xbe631236	-0.22174916
215	0x3dabc619	0.083873935
216	0x3e0a0d5e	0.13481662
217	0x3e361eb7	0.17785154
218	0xbe3d4511	-0.18483378
219	0x3e304e5f	0.17217396
220	0xbe5cb7da	-0.21554509
221	0xbe8098d7	-0.25116608
222	0x3e23144e	0.15925714
223	0x3d0d87cc	0.034553334
224	0xbe2b37ef	-0.16720556
225	0xbdf70a71	-0.120625384
226	0x3d99b4e2	0.07505204
227	0xbe1f8757	-0.15578972
228	0x3e43fa5b	0.19138472
229	0x3c47dd3b	0.012198742
230	0xbe0be4a0	-0.13661432
231	0x3e67721a	0.2260212
232	0x3d6d861c	0.057989225
233	0x3dd866e4	0.105665
234	0xbde04198	-0.10950011
235	0xbe4709fe	-0.19437405
236	0xbd7ea72a	-0.06217114
237	0x3e622a07	0.22086345
238	0x3e38ace4	0.18034703
239	0x3e56fe69	0.20995487
240	0xbdc3fac6	-0.095693156
241	0x3d8d8233	0.06909599
242	0x3e82daff	0.25557706
243	0xbe6fc661	-0.2341552
244	0xbc3a4c15	-0.011370678
245	0xbe2e6cdb	-0.17033713
246	0x3e09fa9b	0.13474505
247	0xbe622409	-0.22084059
248	0x3e3edabf	0.18638133
249	0x3e81ac06	0.25326556
250	0x3e35104e	0.17682001
251	0x3e283db8	0.16429794
252	0x3df4baf2	0.119497195
253	0x3db430cb	0.08798369
254	0x3e309cfa	0.17247382
255	0xbd98c08f	-0.07458603

linear.2.weight f4 [256, 256]
0	0xbcd52d9e	-0.026022729
1	0xbd644426	-0.055729054
2	0x3d2d458d	0.042302657
3	0xbcad9d87	-0.021193279
4	0x3c926cdc	0.017874174
5	0x3cf4a420	0.029863417
6	0xbd186db2	-0.03721399
7	0xbd726e07	-0.05918696
8	0xbd450409	-0.04809955
9	0xba411b92	-0.0007366474
10	0xbd38238c	-0.044955775
11	0xbcba56ab	-0.022746405
12	0xbc65d8c1	-0.014028729
13	0xbd539afc	-0.051661476
14	0x3d18f279	0.037340615
15	0xbd7122b8	-0.058871
16	0x3d74a710	0.059729636
17	0xbd5ae6eb	-0.053442877
18	0x3adf65fe	0.0017043946
19	0xbd109f1e	-0.035307996
20	0x3d376d2a	0.04478184
21	0x3d813004	0.063079864
22	0xba59915f	-0.0008299555
23	0x3d24dc78	0.040249318
24	0xbbaba38f	-0.0052380036
25	0xbd1b826b	-0.037966173
26	0xbca51b21	-0.020154538
27	0x3d4c1eaa	0.04983393
28	0x3d31c132	0.043397136
29	0x3df6e305	0.12055019
30	0x3d6cdf54	0.05783017
31	0xbd295206	-0.04133799
32	0x3d5ec09c	0.054382905
33	0xbd6ee033	-0.05831928
34	0xbcd40640	-0.025881886
35	0xbd61e41e	-0.05514919
36	0xbdc71376	-0.09720509
37	0xbd464c93	-0.04841287
38	0x3d1ffc62	0.03905905
39	0x3c398a4c	0.011324476
40	0xbd6cf818	-0.05785379
41	0x3d0fb1fc	0.03508185
42	0x3d103404	0.035205856
43	0xbd856950	-0.065142274
44	0xbd1f69fa	-0.038919427
45	0xbc1424f3	-0.0090420125
46	0x3d12df37	0.035857406
47	0x3d023e86	0.03179791
48	0x3c36eed2	0.011165338
49	0xbd46a3c7	-0.048496034
50	0xbcb30f73	-0.021857953
51	0xbd35bddf	-0.04437053
52	0xbca328b1	-0.019916864
53	0xbc9f24f2	-0.019426797
54	0x3d2810fa	0.041031815
55	0xbc12da1a	-0.008963132
56	0xbcce1939	-0.025158511
57	0x3c00e6f1	0.007867561
58	0x3da95b82	0.08269407
59	0x3cd6f0bb	0.026237836
60	0x3be474e2	0.0069719413
61	0xbd84a6c3	-0.0647712
62	0x3c8125a0	0.015765011
63	0x3bcc2e9e	0.006231143
64	0xbc123aa9	-0.0089251185
65	0xbd092e6a	-0.03349153
66	0xbd7e68bc	-0.0621116
67	0x3cc785d9	0.024355816
68	0xbbec3a54	-0.0072091017
69	0xbd7a56f7	-0.061118092
70	0xbd2d095c	-0.042245254
71	0x3cd8705d	0.026420766
72	0x3d383658	0.0449737
73	0xbc1d19d0	-0.009588674
74	0xbce7950e	-0.028269317
75	0xbc0f5854	-0.008749086
76	0xbc3989f4	-0.0113243945
77	0x3af6dfc9	0.0018835004
78	0x3be1017f	0.0068666334
79	0x3c4392c7	0.01193685
80	0x3ca48729	0.02008398
81	0x3a4202df	0.00074009405
82	0xbaee0839	-0.001816041
83	0x3a404fe7	0.0007336125
84	0x3d5224f3	0.05130477
85	0xbc8ee1fc	-0.017441742
86	0x3cff2fd7	0.031150742
87	0x3d0b5c92	0.03402383
88	0x3b08ac9f	0.0020854843
89	0xbd54ebd6	-0.051982723
90	0xbc97e2e3	-0.018540805
91	0xbd09702d	-0.033554245
92	0xbc3fec4a	-0.011714051
93	0xbd684df6	-0.056714974
94	0x3bbefd4c	0.005828535
95	0x3ce763b4	0.028245784
96	0x3acff0e5	0.0015864639
97	0x3d01f54c	0.031728074
98	0xbd2a6595	-0.041600782
99	0x3d390ba9	0.045177136
100	0xbb961ef5	-0.004581327
101	0x3ac43352	0.0014968908
102	0xbcf5da14	-0.030011214
103	0xbcc4b8fb	-0.024013987
104	0x39e80524	0.00044254318
105	0x3d3fa39a	0.046786882
106	0xbb47cd72	-0.0030487445
107	0xbd25edc9	-0.040509973
108	0xbd2d6640	-0.04233384
109	0x3c4a0d18	0.012332223
110	0xbba8f0ba	-0.00515565
111	0x3ccf8540	0.025332093
112	0xbc9ecd23	-0.019384926
113	0x3d1eec23	0.038799416
114	0xbd5691ae	-0.052385025
115	0x3d60838f	0.054812964
116	0x3c30725b	0.010769452
117	0x3d31d051	0.043411557
118	0x3d61976c	0.055076048
119	0x3d20d411	0.039264742
120	0x3d6c6522	0.057713635
121	0xbd17fa14	-0.037103727
122	0xbd5bd140	-0.053666353
123	0x3d343bb0	0.044002235
124	0xbdd8df1b	-0.10589429
125	0xbd872896	-0.06599538
126	0x3cb5379b	0.022121241
127	0x3d28e153	0.04123051
128	0xbd048609	-0.03235439
129	0x3d004198	0.031312555
130	0x3d26b6e7	0.040701773
131	0x3d461809	0.048362765
132	0x3cbe2676	0.023211699
133	0xbcb3bcb0	-0.02194056
134	0x3d0e42e2	0.034731753
135	0xbc7b9cc3	-0.015357199
136	0xbd4bdff8	-0.04977414
137	0xbcd5cfe1	-0.026100101
138	0x3cde21ec	0.027115785
139	0xbd407290	-0.046984255
140	0x3d480035	0.048828322
141	0xbcf750b5	-0.030189851
142	0xbd75ac8c	-0.059979007
143	0x3ab85e29	0.0014066148
144	0xbcb73b7a	-0.022367228
145	0x3d18f860	0.037346244
146	0x3d2575ef	0.040395673
147	0xbcf870cb	-0.030327221
148	0xbd6bc40b	-0.057560008
149	0x3c971a58	0.018445179
150	0xbd86b77f	-0.06577968
151	0xbcc798b3	-0.024364805
152	0x3c1ef1fa	0.009701246
153	0xbc981c7e	-0.018568274
154	0x3bf1db23	0.0073808595
155	0xbdaa51b0	-0.08316362
156	0xbce2f9b8	-0.027706966
157	0xbbcc5862	-0.006236122
158	0xbd80e17c	-0.06293008
159	0x3d845cc8	0.06463009
160	0xbd101442	-0.03517557
161	0xb98c7804	-0.000267923
162	0xbce81a9b	-0.028332999
163	0x3d18f16d	0.037339617
164	0xbda34260	-0.079716444
165	0xbd430a42	-0.047617204
166	0xbd17529d	-0.03694402
167	0x3d650ac5	0.055918474
168	0x3b67fe8b	0.0035399522
169	0x3cc291e9	0.023751216
170	0xbca99c8c	-0.02070453
171	0x3cd1c8e4	0.025608487
172	0x3ba5c7c1	0.005059213
173	0xbd1ed504	-0.038777366
174	0x3cc123b4	0.023576595
175	0xbc7018ba	-0.014654333
176	0x3d209784	0.039206997
177	0x3d354540	0.044255495
178	0x3d70594b	0.058678906
179	0xbce1d328	-0.027566507
180	0xbd0957cb	-0.03353099
181	0x3d679348	0.056536943
182	0x3cc29641	0.023753287
183	0xbc7aff33	-0.015319633
184	0x3ced4081	0.028961422
185	0x3d4e3812	0.05034644
186	0xbd2b7902	-0.04186345
187	0xbcc3b408	-0.023889557
188	0xb7d54415	-2.5423282e-05
189	0xbda3cb22	-0.07997729
190	0x3d01e1d8	0.031709522
191	0xbdcf10d2	-0.1011063
192	0xbd5fb8a4	-0.054619446
193	0x3a1682b3	0.00057415216
194	0x3cfb3a9b	0.030667594
195	0xbc9f4fec	-0.01944729
196	0xbcb04960	-0.021519363
197	0x3d5a37f8	0.053276032
198	0xbd304e05	-0.043043155
199	0xbc602970	-0.0136817545
200	0x3acdc017	0.0015697506
201	0x3d3e089b	0.046394926
202	0x3d0b8a24	0.034067288
203	0xbd1b0240	-0.037843943
204	0xbceb073d	-0.028689975
205	0x3d49bc6b	0.049251955
206	0xbd9a9770	-0.07548416
207	0x3c2fd13c	0.010731038
208	0x3c99a106	0.01875354
209	0x3d4f4ac6	0.05060842
210	0xbb140b0b	-0.002258959
211	0x3d11b122	0.035569318
212	0xbd7aa395	-0.06119116
213	0xbbed75fd	-0.0072467313
214	0x3cae4fba	0.021278251
215	0x3c0e572b	0.008687775
216	0xbcd54d91	-0.026037963
217	0xbd22b4cc	-0.039723203
218	0x3c3dd0e2	0.011585446
219	0xbd85c662	-0.06531979
220	0xbd875eb7	-0.06609862
221	0xbcbeb5fa	-0.023280133
222	0xbc5c8f1e	-0.013461856
223	0xbd651677	-0.055929627
224	0x3ca2720a	0.019829769
225	0xbd78f70c	-0.060782477
226	0xbcac19c3	-0.021008378
227	0x3d567809	0.05236057
228	0xbccbabc5	-0.02486218
229	0xbc93fac0	-0.018063903
230	0x3cb6df7f	0.022323368
231	0x3d325910	0.043541968
232	0xbbb49726	-0.0055111824
233	0x3ce3057e	0.02771258
234	0x3d60fd11	0.054928843
235	0x3ce57eac	0.028014503
236	0x3bf6eb34	0.0075353626
237	0x3d1cd574	0.038289502
238	0x3caf7640	0.02141869
239	0xbd062892	-0.032753535
240	0xbd17f532	-0.03709907
241	0xbd3180ca	-0.043335713
242	0x3d293418	0.041309446
243	0xbdc282ca	-0.09497602
244	0x3cb0e2c0	0.021592498
245	0xbd2510b9	-0.04029915
246	0xbd2e3e40	-0.042539835
247	0x3d33c593	0.043889593
248	0x3c80540b	0.015665075
249	0x3b902883	0.0043993606
250	0xbd369378	-0.04457423
251	0x3af2db16	0.0018528427
252	0x3c239e14	0.009986419
253	0xbd7b1603	-0.06130029
254	0xbd3c4f8a	-0.04597429
255	0x3ce337c6	0.027736556

linear.2.bias f4 [256]
0	0xbd5ac724	-0.05341257
1	0x3d494024	0.049133435
2	0x3d5b5159	0.053544376
3	0xbbbe184f	-0.0058012377
4	0xbd2a6faf	-0.041610416
5	0x3d3bda85	0.045862693
6	0xbcde8e62	-0.027167503
7	0x3d451ec1	0.048125032
8	0xbd2c207a	-0.04202316
9	0xbd7d4561	-0.061833743
10	0x3c5705e9	0.013123968
11	0x3b86fb90	0.004119344
12	0x3d383cc6	0.044979833
13	0x3d426409	0.047458682
14	0x3d915662	0.07096554
15	0xbc87a9f0	-0.016560525
16	0x3d5d0f37	0.053969588
17	0x3d239bec	0.03994362
18	0xbd4ab5cd	-0.049489785
19	0x3d5af13b	0.05345271
20	0xbd47e481	-0.048801903
21	0x3ce19fbd	0.02754199
22	0xbd986348	-0.074408114
23	0xbd369ed4	-0.044585064
24	0xbc808112	-0.015686546
25	0x3d3f25cf	0.046666916
26	0x3d5ef710	0.054434836
27	0xbd69a7ea	-0.0570449
28	0xbc9ff860	-0.019527614
29	0x3d070f5f	0.032973643
30	0xbb8ee54a	-0.0043608295
31	0xbcedd8d0	-0.029034048
32	0xbd4aa680	-0.049475193
33	0x3d652123	0.055939805
34	0x3c034c2c	0.008013766
35	0x3cb2b9c7	0.021817101
36	0x3d7bac20	0.061443448
37	0x3d441b26	0.047877453
38	0xbca253c0	-0.019815326
39	0xbaaa1fb0	-0.0012979414
40	0x3ba7f8bc	0.005126087
41	0xbc806851	-0.015674742
42	0x3d0a8e46	0.03382709
43	0x3d3e578b	0.046470206
44	0x3c0f32eb	0.008740167
45	0x3d2fbdcc	0.042905614
46	0x3b369c67	0.002786422
47	0x3d2a8658	0.041632026
48	0x3bee13ee	0.0072655594
49	0x3d6b907a	0.05751083
50	0x3bc2bf05	0.0059431815
51	0xbd58d917	-0.052941408
52	0xbb91c5f6	-0.0044486476
53	0x3d8892aa	0.06668599
54	0x3d4c54ea	0.049885668
55	0x3d6a9642	0.057272203
56	0xbbe55e1b	-0.0069997436
57	0x3c92b0d5	0.017906586
58	0x3d6d8add	0.05799376
59	0xbdbf69e2	-0.093463674
60	0x3ca8e53a	0.020617116
61	0xbd70f74c	-0.05882959
62	0xbdfa5d24	-0.122247964
63	0x3c9373b6	0.017999511
64	0xbd60b913	-0.054864
65	0xbcdf5646	-0.027262818
66	0x3c5c30eb	0.013439397
67	0xbcdfbc5c	-0.027311496
68	0xbcab0b4a	-0.020879406
69	0xbd39fbeb	-0.045406263
70	0x3d4827da	0.04886613
71	0x3d3b8c26	0.045787953
72	0xbc30d821	-0.010793717
73	0x3c98e754	0.018664993
74	0x3cddabfe	0.027059551
75	0xbd2b2431	-0.04178256
76	0xbd460389	-0.048343215
77	0x3cb7aa80	0.022420168
78	0x3c534870	0.012895688
79	0xbd8a1621	-0.06742502
80	0x3bb48088	0.005508486
81	0x3d1f0329	0.038821373
82	0x3d70f6e7	0.058829214
83	0xbd63c618	-0.05560884
84	0x3cf500ae	0.02990755
85	0x3d59d1e3	0.05317868
86	0xbd3b1fe6	-0.045684718
87	0xbcd64139	-0.026154147
88	0xbcaa02cb	-0.020753285
89	0xbd6c2515	-0.05765255
90	0xbcfa8605	-0.030581484
91	0x3d140dbb	0.036145907
92	0x3d467dfa	0.048459984
93	0x3d5e87be	0.054328673
94	0xbbf2b592	-0.007406899
95	0x3d2e13a8	0.042499214
96	0x3b1ce8be	0.0023942436
97	0xbd64318d	-0.055711318
98	0x3ca44d1e	0.020056304
99	0x3c0c9302	0.008579971
100	0xbc8dff7d	-0.01733374
101	0x3d763df7	0.060117688
102	0x3b362db1	0.002779823
103	0xbe10c95f	-0.14139317
104	0xbb35999f	-0.0027709974
105	0xbd5c7e71	-0.05383152
106	0xbc0c2df7	-0.008555881
107	0x3bfc00d9	0.0076905307
108	0xbd05d2d8	-0.03267178
109	0x3d7c6312	0.06161792
110	0xbc286cae	-0.0102798175
111	0xbe1c5dbe	-0.15270135
112	0x3cc5d10c	0.024147533
113	0x3d0c621c	0.034273252
114	0x3d88a0de	0.06671308
115	0x3c548372	0.012970792
116	0x3c629d11	0.013831393
117	0x3d7de830	0.06198901
118	0xbbd99361	-0.0066398834
119	0x3c510404	0.012757305
120	0x3d34fb3c	0.04418491
121	0x3c86d968	0.01646109
122	0x3d505723	0.05086435
123	0x3a826d9e	0.0009950881
124	0xbd0a15e7	-0.033712294
125	0x3d38c5c6	0.045110486
126	0xbd16a0c8	-0.036774427
127	0xbd28809b	-0.041138273
128	0x3ce710ce	0.028206255
129	0xbbacc05d	-0.005271955
130	0x3ccbca00	0.024876595
131	0x3d89243f	0.066963665
132	0xbd8afaf8	-0.0678615
133	0x3ca6e98c	0.020375036
134	0x3ca33a12	0.019925151
135	0xbcfb5549	-0.030680316
136	0x3d4f02e4	0.050539866
137	0xbc3ee040	-0.011650145
138	0xbd367e11	-0.04455382
139	0xbd0bdf46	-0.034148477
140	0xbcfcd2ee	-0.030862298
141	0x3d907e38	0.07055324
142	0x3d496a88	0.04917386
143	0x3d892ff8	0.066986024
144	0xbc685a13	-0.014181632
145	0x3d7a20f1	0.06106657
146	0xbc4a87ec	-0.012361508
147	0xbce17602	-0.02752209
148	0x3cd0c210	0.025483161
149	0xbb598f03	-0.0033196814
150	0x3c120196	0.008911511
151	0xba960d9d	-0.0011448149
152	0x3d1b7eb3	0.037962627
153	0xbd847817	-0.06468218
154	0xbd313f50	-0.04327327
155	0x3d4f50e2	0.050614245
156	0xbced7fba	-0.028991569
157	0x3d80e991	0.06294549
158	0xbc0903f1	-0.008362756
159	0x3c636e73	0.013881314
160	0x3d261636	0.040548526
161	0x3b612e1b	0.0034359756
162	0x3d5da6ce	0.054114155
163	0xbc31e6a3	-0.010858211
164	0xbd482337	-0.04886171
165	0x3c46223b	0.012093122
166	0x3d873669	0.06602175
167	0xbd22bd38	-0.039731234
168	0xbd8d6087	-0.06903177
169	0xbc4d89ae	-0.012545032
170	0xbc39533d	-0.011311349
171	0xbceff909	-0.029293554
172	0xbd0b4f1b	-0.034010988
173	0xbc9c9556	-0.019114178
174	0x3d606723	0.05478586
175	0xbcefff47	-0.02929653
176	0x3cd82d7c	0.026388876
177	0x3d14ae32	0.036298938
178	0xbbb1af50	-0.00542251
179	0x3d53935e	0.051654212
180	0xbbd89f97	-0.0066108215
181	0x3cbd16b3	0.023082113
182	0xbd1d9e19	-0.03848085
183	0xbac8e560	-0.0015327148
184	0x3ce74812	0.028232608
185	0xbd349fd4	-0.044097736
186	0xbcbdfa04	-0.023190506
187	0x3beed953	0.0072890907
188	0x3d3ca61c	0.04605685
189	0xbd3ca59d	-0.04605638
190	0x3d11c278	0.03558585
191	0x3d15afb3	0.036544513
192	0xbc2995a3	-0.010350618
193	0xbc9e9ce7	-0.019361926
194	0x3cbb9e53	0.022902643
195	0x3c550d8d	0.013003719
196	0x3cc0a07b	0.023514023
197	0x3d6c4879	0.057686303
198	0x3c21b095	0.009868761
199	0x3d746322	0.059664853
200	0xbcc2eb69	-0.023793893
201	0xb938c236	-0.00017619957
202	0xbcff0c47	-0.031133784
203	0xbd46b1ad	-0.04850929
204	0x3d01b24d	0.03166418
205	0x3d3e9fa4	0.046538964
206	0xbd942b6e	-0.07234846
207	0xbcec68da	-0.02885859
208	0x3d8c9721	0.06864763
209	0xbcccabbf	-0.024984239
210	0x3d897393	0.06711497
211	0x3c9de2ad	0.019273126
212	0xbc391676	-0.011296859
213	0x3c31cbec	0.010851841
214	0x3d0379c9	0.032098565
215	0xbc8f92b1	-0.017526003
216	0x3c61ed87	0.013789541
217	0xbd06ee7e	-0.032942288
218	0xbdfdf655	-0.124005
219	0xbd4259c8	-0.047448903
220	0x3c95c885	0.018284092
221	0x3d046765	0.032325167
222	0x3d83fdda	0.06444903
223	0x3c2a4e2a	0.010394612
224	0x3caeb758	0.02132766
225	0x3c8792e9	0.016549544
226	0x3d2218be	0.039574377
227	0x3c63ddd3	0.0139078675
228	0xbc248b32	-0.010042952
229	0x3c324d09	0.010882624
230	0x3c9082c1	0.017640473
231	0xbd65b58c	-0.05608134
232	0x3c769b0a	0.015051613
233	0xbd31ffd3	-0.043456864
234	0x3d05b885	0.032646675
235	0xbd0b7c32	-0.03405399
236	0x3d352de7	0.04423323
237	0x3d38d212	0.045122214
238	0xbc4e9c38	-0.012610488
239	0xbd528e4a	-0.05140523
240	0xbd6f3b4a	-0.05840615
241	0x3c2b10dc	0.010441031
242	0xbc01ae99	-0.0079151625
243	0xbc8ebee4	-0.017425008
244	0x3d856ec1	0.06515265
245	0x3c9b7a36	0.018979173
246	0x3d06e448	0.03293255
247	0xbd69753c	-0.05699657
248	0xbb030b42	-0.0019995724
249	0xbd504d63	-0.05085505
250	0xbbc014f6	-0.0058618737
251	0x3d66d0c6	0.056351446
252	0xbc2edb4a	-0.0106724
253	0xbd01da07	-0.031702068
254	0x3d1a7197	0.037705984
255	0x3c783836	0.0151501205

linear.4.weight f4 [6, 256]
0	0xbd837811	-0.06419385
1	0xbd282b6c	-0.041057035
2	0x3d70fca9	0.058834706
3	0x3c8e10f7	0.017342074
4	0xbd12f4eb	-0.035878103
5	0xbd20e795	-0.039283354
6	0x3bfeb826	0.007773417
7	0x3d8babdb	0.06819888
8	0xbc291271	-0.010319338
9	0x3da9e58e	0.08295737
10	0xbc5565f3	-0.013024795
11	0xbd2ba993	-0.041909765
12	0xbd5a16c3	-0.053244364
13	0x3ce847b4	0.028354503
14	0xbb1b7a39	-0.0023723973
15	0x3d1f57bf	0.03890204
16	0xbd43575d	-0.047690738
17	0x3d8aad1d	0.067713
18	0x3cbb9c22	0.022901598
19	0x3b953d82	0.0045544514
20	0x3d88101a	0.06643696
21	0x3ce64230	0.028107733
22	0xbc651460	-0.013981909
23	0xbd4e3b33	-0.050349426
24	0xbc361079	-0.011112326
25	0xbd13047f	-0.03589296
26	0x3c345133	0.0110056875
27	0x3d731c7b	0.059353333
28	0x3c802894	0.01564435
29	0x3bfd5202	0.0077307234
30	0x3d8ed766	0.06974678
31	0xbc9f7d2b	-0.019468864
32	0x3d4c2c92	0.049847193
33	0x3d32fb13	0.043696474
34	0xbd09dfff	-0.033660885
35	0xbb187eeb	-0.0023269008
36	0x3bfba448	0.007679496
37	0xbdbc43a6	-0.091925904
38	0xbd2aadc5	-0.041669626
39	0x3d2f0e53	0.04273827
40	0xbcdd83ca	-0.027040381
41	0x3d70ee9e	0.058821313
42	0xbd1bf045	-0.038070936
43	0x3ca30ebb	0.019904485
44	0x3ba5020c	0.0050356444
45	0xbc88fc6d	-0.016721928
46	0x3c7cc6f2	0.015428292
47	0xbd0e682e	-0.034767322
48	0xbd23cc14	-0.039989546
49	0x3b56a6b5	0.0032753174
50	0x3cab8d73	0.020941472
51	0xbbfd696d	-0.007733515
52	0x3cef4618	0.029208228
53	0x3d38fad7	0.045161095
54	0x3bbfdcd2	0.0058551813
55	0x3d7bb4e3	0.061451804
56	0xbbd8f5c3	-0.006621094
57	0x3c932484	0.017961748
58	0xbcc51818	-0.02405934
59	0xbc4d863b	-0.01254421
60	0x3cb48fe0	0.022041261
61	0xbd3a4963	-0.045480143
62	0xbd0520f1	-0.03250212
63	0xbd13c2e1	-0.036074523
64	0xbdd82f9e	-0.10555957
65	0x3ca1972d	0.019725407
66	0x3d1793eb	0.0370063
67	0x3a4f92cd	0.00079182984
68	0xbd5fa6d5	-0.054602463
69	0xbad5257b	-0.001626178
70	0xbd544afe	-0.05182933
71	0x3d67d74b	0.056601804
72	0xbd55aa61	-0.05216444
73	0x3d8849ca	0.06654699
74	0x3c5d53d8	0.013508759
75	0x3d52e990	0.051492274
76	0x3d088e83	0.033339035
77	0xbc62cb39	-0.013842397
78	0xbd446483	-0.047947418
79	0xbc634b6e	-0.013872964
80	0x3ca93c7e	0.020658728
81	0x3ca764ea	0.020433862
82	0xbc9098cc	-0.017650984
83	0xbcfefc9e	-0.031126317
84	0xbd018fa8	-0.031631142
85	0x3d3ad8e3	0.045616996
86	0x3d0a1690	0.033712924
87	0x3c9c7960	0.019100845
88	0xbd2ff08b	-0.04295401
89	0x3cc89c28	0.024488524
90	0xb9327a6b	-0.00017021007
91	0xba13a6b5	-0.0005632446
92	0x3d17c226	0.03705039
93	0x3d8be27f	0.0683031
94	0xbc0fe802	-0.008783342
95	0xbb59a165	-0.003320777
96	0x3d0c2137	0.034211364
97	0xbb9b6f85	-0.004743519
98	0x3ceef87f	0.029171227
99	0x3c8a14a9	0.016855555
100	0x3d826aba	0.06368013
101	0x3bc17cbd	0.0059047625
102	0x3b2f780a	0.002677443
103	0xbd755ac9	-0.059901033
104	0x3d73cd34	0.05952187
105	0x3aa21c30	0.001236802
106	0xbd5204ef	-0.051274236
107	0x3d196a9f	0.037455197
108	0xbc038713	-0.00802781
109	0x3b456367	0.0030119063
110	0x3c641303	0.013920548
111	0xbd0748c6	-0.033028387
112	0x3ce2cf65	0.027686784
113	0xbd0b0e66	-0.03394928
114	0x3d03ac73	0.032146882
115	0x3d5192a5	0.05116524
116	0xbb8ac17f	-0.0042344923
117	0x3d1c0cc6	0.03809812
118	0x3d1ac226	0.03778281
119	0xbd3c91b5	-0.046037395
120	0xbd27eb3e	-0.04099583
121	0xbcf48177	-0.02984689
122	0x3c086b00	0.008326292
123	0x3d055f8b	0.03256182
124	0xbcc2f8ce	-0.02380028
125	0x3cf46b69	0.029836373
126	0x3d4445f1	0.047918264
127	0x3d3641eb	0.044496458
128	0xbd0f9e34	-0.035062984
129	0xbd12005f	-0.035644885
130	0x3c4296a6	0.011876738
131	0xbb7a5066	-0.0038194894
132	0x3d3e8a8a	0.04651884
133	0x3d74ca88	0.05976346
134	0xbd2ac473	-0.041691255
135	0xbcbe8ddb	-0.023261001
136	0x3cb6ee09	0.0223303
137	0xb9b6d3e6	-0.00034871622
138	0x3d71a8f4	0.058999017
139	0xbd37ea5b	-0.044901233
140	0xbcfb3913	-0.030666864
141	0x3d04952b	0.03236882
142	0x3c9b7ee1	0.018981399
143	0xbc58e1ba	-0.013237411
144	0xbd609ce4	-0.054837123
145	0x3d8b5284	0.06802848
146	0xbd3449a4	-0.04401554
147	0xbd7267b5	-0.059180934
148	0xbb38ce7c	-0.0028199246
149	0x3cf7d29b	0.030251792
150	0x3d400a42	0.046884783
151	0xbcdacd97	-0.026709361
152	0xbbd08f02	-0.006364704
153	0x3d3e478c	0.04645495
154	0x3d1b8685	0.037970085
155	0x3ce5f6cc	0.028071783
156	0x3d287f5c	0.041137084
157	0x3c70cd0f	0.014697327
158	0xbcb4f098	-0.02208738
159	0x3b95ccdf	0.0045715417
160	0xbd64b83d	-0.055839766
161	0x3d5f4f6d	0.054519106
162	0x3c099085	0.008396273
163	0xbd70608b	-0.05868582
164	0xbd0e085e	-0.03467595
165	0x3c04d78c	0.008108031
166	0x3d8a4f0f	0.067533605
167	0x3b3dcfb1	0.0028962905
168	0xbc1eb1dc	-0.00968596
169	0x3b048e09	0.002022626
170	0x3ceaaaf3	0.028645968
171	0xbd01d5eb	-0.03169815
172	0x3d75778e	0.05992847
173	0xbc08450c	-0.008317243
174	0xbcd3e4e0	-0.025865972
175	0xbd12db26	-0.035853527
176	0x3d93607c	0.07196137
177	0x3d5d6c63	0.054058444
178	0xbd52a6aa	-0.051428474
179	0x3d14eb63	0.036357295
180	0xbcf5ab67	-0.029988958
181	0xbde4d770	-0.11173904
182	0xbd514543	-0.051091444
183	0xbc0a338b	-0.00843514
184	0xbbd2330b	-0.006414776
185	0xbd007ef6	-0.03137108
186	0x3d089f0f	0.033354815
187	0xbd315229	-0.043291245
188	0x3b7b331d	0.0038330026
189	0xbc867f77	-0.016418202
190	0xbcca5bc1	-0.024701955
191	0xbcf09253	-0.029366648
192	0xbc59acc7	-0.013285822
193	0x3d060125	0.032715935
194	0xbd1fe4c9	-0.039036546
195	0x3cf4c300	0.02987814
196	0xbcb98f5e	-0.02265137
197	0xbb94fbc7	-0.0045466158
198	0xbd1bf7f5	-0.038078267
199	0x3cdfd522	0.02732331
200	0xbcf6e9a6	-0.03014071
201	0x3c449d53	0.0120004
202	0x3d1c9f2e	0.038237743
203	0x3b37fc2b	0.0028073888
204	0xbb07d44c	-0.0020725904
205	0x3b7f1499	0.003892219
206	0xbdb99fb2	-0.090636626
207	0xbdacd0d2	-0.08438267
208	0x3d5fbd5c	0.054623947
209	0x3d2e7aba	0.04259751
210	0xbd4eccfc	-0.050488457
211	0x3d8643bf	0.0655589
212	0xbce4d5fa	-0.027934063
213	0x3c20e8c8	0.009821124
214	0x3b90037d	0.004394947
215	0x3d1d7d80	0.038449764
216	0x3b5aab59	0.0033366291
217	0x3c41a337	0.011818699
218	0xbc781ece	-0.015144063
219	0x3d6cd4a0	0.057819963
220	0x3d449c05	0.048000354
221	0xbc9de2b0	-0.019273132
222	0xbce65de5	-0.028120944
223	0xbcaf34f3	-0.021387553
224	0x3cb7544c	0.022379063
225	0x3d2e55e2	0.042562373
226	0x3d220b22	0.0395614
227	0xbd2d8937	-0.042367186
228	0xbcf08628	-0.029360846
229	0x3d82f068	0.0639351
230	0xbd57586c	-0.05257456
231	0x3d973d2f	0.07384717
232	0xbcffa3e3	-0.031206077
233	0xbd450e04	-0.04810907
234	0x3c2ac1c3	0.010422173
235	0xbb8537c5	-0.004065486
236	0x3cba17f5	0.022716502
237	0x3d00ce75	0.031446893
238	0xbd0547a0	-0.03253901
239	0x3d3d0cf5	0.046154935
240	0xbbf4d140	-0.0074712336
241	0xbce2a2cf	-0.027665524
242	0xbd0e0605	-0.03467371
243	0x3c9ace19	0.018897103
244	0xbd4bc6f7	-0.049750295
245	0x3d67a25c	0.056551322
246	0x3d5e3fcf	0.05426007
247	0xbc55ccfb	-0.013049359
248	0xbd474716	-0.048651777
249	0x3d80c68a	0.06287868
250	0x3d8d134d	0.06888447
251	0x3b29086a	0.0025792369
252	0xbe316ddb	-0.17327063
253	0xbd035340	-0.032061815
254	0x3d6338ee	0.055474214
255	0xbc568a75	-0.013094534

linear.4.bias f4 [6]
0	0x3d783cf0	0.06060499
1	0x3b0aa8bd	0.0021157705
2	0x3ca6fc57	0.020383997
3	0x3ca67467	0.020319177
4	0xbd043945	-0.03228118
5	0xbb9df6bc	-0.004820673
