proj/mode/Relu_neuro_net_v2.pt (torch, 289103 bytes, 6 tensors)

linear.0.weight f4 [256, 16]
-0.0013836642 -0.0007422864 -0.0054659997 0.026785642 0.016203364 0.0018715973 0.014544676 0.014279995
0.01432364 0.0144278575 0.014628748 0.0142786475 0.014222897 0.014259487 0.0142786475 0.014259487
-0.0013668193 -0.00087391865 -0.006198591 0.02851764 0.016850581 0.002086246 0.015070941 0.014789753
0.014869045 0.014982031 0.015153662 0.014783046 0.014707572 0.014777927 0.014783046 0.014777927
-0.0016072363 -0.0012226544 -0.0061320397 0.029678032 0.017993076 0.002179607 0.016082982 0.015788745
0.015880493 0.015961014 0.01619001 0.015780197 0.015689507 0.015762182 0.015780197 0.015762182
-0.0013838861 -0.0008898044 -0.0055159284 0.025493361 0.015397864 0.0018974313 0.013778953 0.013527498
0.013558049 0.013673087 0.013850208 0.013513525 0.0134755615 0.013502829 0.013513525 0.013502829
-0.001170528 -0.0012594895 -0.005606446 0.027778093 0.01661041 0.001968595 0.01490828 0.0146418
0.014688839 0.014777131 0.015000433 0.014626609 0.0145589765 0.014631491 0.014626609 0.014631491
-0.0015763006 -0.0007255017 -0.0054861335 0.028981816 0.017408662 0.0020988549 0.0156177655 0.015328001
0.015383408 0.0154758105 0.015651727 0.015335069 0.015248943 0.015308067 0.015335069 0.015308067
-0.0018054271 -0.0013957112 -0.0048387186 0.025226979 0.01494201 0.0019212195 0.013382013 0.013133844
0.013207708 0.013295925 0.013446487 0.013139623 0.013070872 0.01310514 0.013139623 0.01310514
-0.0013035774 -0.00013517568 -0.0046748477 0.025617315 0.01541815 0.0018107333 0.013852519 0.013597867
0.013643941 0.013716893 0.01387289 0.0136120375 0.013537216 0.013571623 0.0136120375 0.013571623
-0.00010756105 -0.0009098762 -0.0042906743 0.023566198 0.01409692 0.0016151129 0.012625066 0.012391857
0.012423632 0.012542119 0.012703234 0.0123878205 0.012340171 0.012373439 0.0123878205 0.012373439
-0.00046397344 -0.001064422 -0.0046435567 0.025321057 0.015214827 0.001941289 0.013644978 0.013402542
0.013446783 0.013554571 0.013701016 0.013394902 0.0133285355 0.013388143 0.013394902 0.013388143
-0.0005810659 -0.001175109 -0.004767022 0.024192832 0.014598824 0.0018483349 0.013093436 0.012854867
0.012883596 0.012964386 0.013119159 0.01284548 0.012794205 0.012837415 0.01284548 0.012837415
-0.0011175105 -0.000694246 -0.004962684 0.0265752 0.015794784 0.0019155755 0.0141427135 0.013875666
0.0139714135 0.014012946 0.014219966 0.0138712125 0.013821891 0.013869739 0.0138712125 0.013869739
-0.0006695966 -0.00093848276 -0.004734145 0.024093354 0.014367067 0.0017189354 0.012861373 0.012625236
0.012640412 0.012753552 0.012940544 0.01262468 0.012557123 0.012611553 0.01262468 0.012611553
-0.0016582211 -0.00034864296 -0.0054694107 0.027447486 0.016538398 0.0016934755 0.014829765 0.014556811
0.014618264 0.014695429 0.014868279 0.014549513 0.014475221 0.01455574 0.014549513 0.01455574
-0.0010652111 -0.0011057773 -0.0055329273 0.02657821 0.015802525 0.0017866124 0.014146224 0.01388694
0.013921391 0.014026704 0.014221197 0.013879468 0.013827659 0.013869695 0.013879468 0.013869695
-0.0011959816 -0.00071640353 -0.0043418226 0.026800113 0.016278284 0.0018788202 0.0145911435 0.014326342
0.014403813 0.0144908 0.014706222 0.014326439 0.014263105 0.014313374 0.014326439 0.014313374
00000000: 115c b5ba ff95 42ba 211c b3bb 906d db3c
00000010: ebbc 843c 6250 f53a cb4c 6e3c a4f6 693c
00000020: b3ad 6a3c d262 6c3c 6bad 6f3c fdf0 693c
00000030: 2707 693c a0a0 693c fdf0 693c a0a0 693c
00000040: d826 b3ba b017 65ba 8d1d cbbb d39d e93c
00000050: 3b0a 8a3c 66b9 083b 1cec 763c b850 723c
00000060: 4b9d 733c 3177 753c 1147 783c 9734 723c
00000070: 07f8 703c 1e1f 723c 9734 723c 1e1f 723c
00000080: e7a9 d2ba 7941 a0ba 47ef c8bb 581f f33c
00000090: 3766 933c bdd7 0e3b 75c0 833c 6657 813c
000000a0: cf17 823c acc0 823c e9a0 843c 7945 813c
000000b0: 4887 803c b11f 813c 7945 813c b11f 813c
000000c0: 8363 b5ba c341 69ba f6be b4bb 74d7 d03c
000000d0: 5347 7c3c 3bb3 f83a 1ec1 613c 70a2 5d3c
000000e0: 9422 5e3c 1505 603c fceb 623c d567 5d3c
000000f0: 9ac8 5c3c f83a 5d3c d567 5d3c f83a 5d3c
00000100: 676c 99ba 7415 a5ba 47b6 b7bb e28e e33c
00000110: 8e12 883c 8b03 013b dc41 743c 29e4 6f3c
00000120: 75a9 703c c81b 723c 60c4 753c 72a4 6f3c
00000130: c688 6e3c ecb8 6f3c 72a4 6f3c ecb8 6f3c
00000140: df9b ceba 982f 3eba 06c5 b3bb 466b ed3c
00000150: 9c9c 8e3c f18c 093b a8e1 7f3c 4c22 7b3c
00000160: b10a 7c3c 418e 7d3c 0d38 803c f13f 7b3c
00000170: b4d6 793c b0ce 7a3c f13f 7b3c b0ce 7a3c
00000180: 15a4 ecba 4cf0 b6ba 1d8e 9ebb cfa8 ce3c
00000190: 55cf 743c 6ed1 fb3a 3b40 5b3c 562f 573c
000001a0: 2465 583c 27d7 593c a74e 5c3c 9347 573c
000001b0: 3627 563c f1b6 563c 9347 573c f1b6 563c
000001c0: cddc aaba f2bd 0db9 772f 99bb 67db d13c
000001d0: 699c 7c3c 2156 ed3a adf5 623c 97c9 5e3c
000001e0: d68a 5f3c d2bc 603c 1e4b 633c 0605 5f3c
000001f0: 33cb 5d3c 835b 5e3c 0605 5f3c 835b 5e3c
00000200: 6692 e1b8 c284 6eba c998 8cbb e60d c13c
00000210: c5f6 663c 32b2 d33a 5dd9 4e3c 3707 4b3c
00000220: 7d8c 4b3c 767d 4d3c 3a21 503c 49f6 4a3c
00000230: 6e2e 4a3c f7b9 4a3c 49f6 4a3c f7b9 4a3c
00000240: 7641 f3b9 1384 8bba fa28 98bb 1b6e cf3c
00000250: 9c47 793c da72 fe3a 308f 5f3c 5696 5b3c
00000260: e54f 5c3c fe13 5e3c 3a7a 603c 4b76 5b3c
00000270: ee5f 5a3c f159 5b3c 4b76 5b3c f159 5b3c
00000280: ac52 18ba 1d06 9aba ae34 9cbb 0c30 c63c
00000290: e82f 6f3c d443 f23a da85 563c 389d 523c
000002a0: b815 533c 9368 543c bef1 563c d975 523c
000002b0: c99e 513c 0554 523c d975 523c 0554 523c
000002c0: 6e79 92ba 0ffe 35ba 039e a2bb 3cb4 d93c
000002d0: 1064 813c 0c14 fb3a d7b6 673c c356 633c
000002e0: 5be8 643c 8e96 653c dcfa 683c 1544 633c
000002f0: 3675 623c e73d 633c 1544 633c e73d 633c
00000300: de87 2fba 8304 76ba e320 9bbb 6d5f c53c
00000310: d963 6b3c e74d e13a 82b8 523c 14da 4e3c
00000320: bb19 4f3c 46f4 503c 9304 543c bfd7 4e3c
00000330: 64bc 4d3c b0a0 4e3c bfd7 4e3c b0a0 4e3c
00000340: ab58 d9ba 11ca b6b9 be38 b3bb 8dd9 e03c
00000350: 897b 873c 9cf7 dd3a 8bf8 723c b17f 6e3c
00000360: 7181 6f3c 19c5 703c 159a 733c 1561 6e3c
00000370: 7a29 6d3c 337b 6e3c 1561 6e3c 337b 6e3c
00000380: 8e9e 8bba bbef 90ba 8f4d b5bb 8cba d93c
00000390: 4c74 813c c42c ea3a 90c5 673c 0c86 633c
000003a0: 8c16 643c 43d0 653c 0600 693c b566 633c
000003b0: 688d 623c b83d 633c b566 633c b83d 633c
000003c0: 7cc2 9cba 07cd 3bba d945 8ebb e98b db3c
000003d0: 095a 853c bf42 f63a b10f 6f3c 09b9 6a3c
000003e0: f8fd 6b3c d26a 6d3c 5ef2 703c 71b9 6a3c
000003f0: ccaf 693c a482 6a3c 71b9 6a3c a482 6a3c

linear.0.bias f4 [256]
0.028261214 0.030044008 0.031274665 0.02682335 0.029244905 0.030501874 0.026607063 0.027010312
0.02481019 0.02664621 0.025474038 0.027966918 0.025400218 0.028938781 0.028005693 0.028182551
0.027174482 0.029902656 0.02993138 0.027533475 0.029775903 0.027840318 0.024660459 0.026826119
0.029890366 0.027949385 0.027529348 0.025671918 0.028555585 0.02677184 0.026515609 0.025281591
0.0259021 0.0283925 0.02632014 0.027051296 0.025275925 0.029860066 0.029485114 0.022067742
0.030217728 0.02744726 0.026133247 0.027644677 0.026277931 0.027734675 0.027848948 0.024663804
0.027218133 0.028022714 0.026700381 0.025825806 0.028291568 0.027917853 0.027014906 0.028258383
0.02826726 0.027738824 0.028412646 0.028080903 0.027915787 0.027633136 0.026182929 0.029224625
0.028540574 0.02879483 0.030441193 0.025932271 0.027295237 0.02750211 0.027054636 0.028618602
0.028780885 0.026481032 0.022465862 0.028635839 0.03131085 0.026491528 0.02789545 0.02721058
0.031164734 0.028698774 0.026228119 0.027766583 0.026127715 0.026834786 0.027578102 0.026448695
0.02764272 0.025049027 0.02922973 0.027703343 0.028451996 0.026586255 0.028750408 0.027459884
0.027216677 0.027615579 0.030320898 0.028711064 0.026668651 0.029710261 0.028356306 0.027812066
0.02766656 0.030464629 0.028286869 0.029398471 0.02594508 0.027086034 0.028912673 0.029085442
0.024830604 0.024887443 0.03049609 0.026132647 0.02498783 0.02376353 0.026979271 0.026179912
0.02576165 0.025418492 0.02621281 0.029486477 0.029111672 0.025906064 0.02522491 0.02633452
0.02876149 0.026992248 0.026139852 0.026493495 0.025278494 0.024288328 0.025230391 0.029618118
0.02857883 0.027585063 0.028554142 0.028061584 0.028547246 0.02772323 0.027592001 0.027334537
0.027792066 0.027420618 0.024762914 0.02459588 0.031061195 0.026904454 0.028189505 0.028367445
0.029131608 0.025950013 0.026535911 0.027677245 0.02503532 0.02560535 0.030268855 0.027356545
0.027850691 0.02588411 0.026682835 0.02588644 0.027260713 0.026613478 0.026756212 0.025380492
0.028536515 0.02939853 0.028031744 0.026429186 0.02829501 0.026882121 0.027942607 0.027432958
0.030063257 0.028849866 0.028591216 0.02274256 0.027899543 0.026105529 0.025731336 0.028280469
0.02548368 0.026768006 0.026539112 0.024350876 0.027147466 0.025163168 0.030871492 0.027541036
0.024891194 0.026450586 0.027772905 0.028322604 0.031609576 0.025420032 0.0264324 0.026494745
0.026617346 0.03070995 0.031268895 0.029623456 0.027701084 0.027877813 0.028597422 0.02695432
0.028521996 0.024783794 0.029371856 0.024898151 0.026934113 0.025829943 0.025691798 0.024011072
0.024615832 0.026295062 0.028159661 0.025546575 0.026298713 0.03043013 0.028917294 0.02530587
0.027775463 0.027706493 0.029770944 0.02804145 0.026442932 0.028639676 0.028866768 0.02820738
0.028233252 0.02744878 0.02775394 0.028572453 0.025812568 0.025029404 0.027433613 0.025744917
0.03013896 0.027311299 0.025915407 0.026654052 0.026345933 0.028395146 0.028003018 0.026914144
0.025388472 0.024497544 0.030856613 0.026489954 0.02740066 0.029591037 0.025990749 0.027398359
00000000: 1084 e73c da1e f63c dd19 003d a4bc db3c
00000010: 0393 ef3c 11df f93c 0ef7 d93c bb44 dd3c
00000020: bd3e cb3c 2749 da3c eeae d03c e11a e53c
00000030: 1e14 d03c 0611 ed3c 326c e53c 18df e63c
00000040: 059d de3c 6af6 f43c a732 f53c e28d e13c
00000050: 98ec f33c 6111 e43c bb04 ca3c 73c2 db3c
00000060: a4dc f43c 1cf6 e43c 3a85 e13c ea4d d23c
00000070: 67ed e93c 9e50 db3c 4337 d93c 571b cf3c
00000080: a430 d43c 6397 e83c 569d d73c ae9a dd3c
00000090: 750f cf3c 199d f43c c48a f13c 69c7 b43c
000000a0: 2b8b f73c 14d9 e03c 6415 d63c 1777 e23c
000000b0: d144 d73c d433 e33c 7a23 e43c bf0b ca3c
000000c0: 90f8 de3c e48f e53c c2ba da3c a490 d33c
000000d0: b8c3 e73c fbb3 e43c 5d4e dd3c 207e e73c
000000e0: be90 e73c 883c e33c a3c1 e83c ec09 e63c
000000f0: a6af e43c e35e e23c 957d d63c 7b68 ef3c
00000100: eccd e93c 23e3 eb3c cf5f f93c ea6f d43c
00000110: 439a df3c 1b4c e13c afa1 dd3c 8f71 ea3c
00000120: e4c5 eb3c c0ee d83c 540a b83c b595 ea3c
00000130: ce3f 003d c304 d93c 0085 e43c b9e8 de3c
00000140: 2f4d ff3c b119 eb3c 5adc d63c bf76 e33c
00000150: ca09 d63c a0d4 db3c 79eb e13c efaa d83c
00000160: fc72 e23c 9e33 cd3c 3073 ef3c 1ff2 e23c
00000170: 2914 e93c 6bcb d93c fa85 eb3c 8df3 e03c
00000180: 82f5 de3c 113a e23c 8863 f83c 7733 eb3c
00000190: 3778 da3c ef62 f33c 7c4b e83c 21d6 e33c
000001a0: fba4 e23c f590 f93c ddb9 e73c 10d5 f03c
000001b0: c78a d43c 88e3 dd3c 45da ec3c 9844 ee3c
000001c0: 8d69 cb3c c0e0 cb3c f0d2 f93c 2214 d63c
000001d0: 47b3 cc3c bcab c23c a203 dd3c 4177 d63c
000001e0: 190a d33c 713a d03c 3fbc d63c a08d f13c
000001f0: 9a7b ee3c f438 d43c 78a4 ce3c 7ebb d73c
00000200: 379d eb3c d91e dd3c 3e23 d63c e308 d93c
00000210: d814 cf3c 51f8 c63c f7af ce3c b2a1 f23c
00000220: 271e ea3c 12fa e13c 60ea e93c 68e1 e53c
00000230: eadb e93c d41b e33c 9f08 e23c aeec df3c
00000240: 30ac e33c 34a1 e03c 98db ca3c 4d7d c93c
00000250: 0c74 fe3c bb66 dc3c aded e63c d862 e83c
00000260: 69a5 ee3c 1f95 d43c d761 d93c 64bb e23c
00000270: df16 cd3c 50c2 d13c 64f6 f73c d51a e03c
00000280: 2227 e43c ea0a d43c f695 da3c cd0f d43c
00000290: dc51 df3c 8204 da3c d82f db3c c0ea cf3c
000002a0: 69c5 e93c 30d5 f03c d4a2 e53c 0582 d83c
000002b0: f0ca e73c e537 dc3c e5e7 e43c 15bb e03c
000002c0: 3847 f63c 8e56 ec3c 2038 ea3c 9b4e ba3c
000002d0: 958d e43c 43db d53c 86ca d23c 71ac e73c
000002e0: 27c3 d03c 9448 db3c 8d68 d93c 7d7b c73c
000002f0: 5d64 de3c fd22 ce3c 36e6 fc3c bd9d e13c
00000300: 9ee8 cb3c e6ae d83c 0184 e33c ce04 e83c
00000310: 0b79 013d ac3d d03c c388 d83c 820b d93c
00000320: 9f0c da3c 6f93 fb3c d013 003d e4ac f23c
00000330: 62ed e23c 0360 e43c 2445 ea3c 4ecf dc3c
00000340: f6a6 e93c 6207 cb3c 3f9d f03c 35f7 cb3c
00000350: eea4 dc3c 5199 d33c 9b77 d23c deb2 c43c
00000360: 24a7 c93c be68 d73c 17af e63c 0d47 d13c
00000370: 6670 d73c 9c48 f93c f6e3 ec3c 424e cf3c
00000380: 5e89 e33c baf8 e23c 32e2 f33c 2fb7 e53c
00000390: d99e d83c c19d ea3c 007a ec3c 2a13 e73c
000003a0: 6c49 e73c 44dc e03c 3b5c e33c c710 ea3c
000003b0: e174 d33c 770a cd3c 75bc e03c 01e7 d23c
000003c0: fbe5 f63c f2bb df3c 8c4c d43c 9959 da3c
000003d0: 6dd3 d73c f09c e83c 9666 e53c 0d7b dc3c
000003e0: 7cfb cf3c 13af c83c 02c7 fc3c 7601 d93c
000003f0: 5977 e03c e768 f23c 8dea d43c 8672 e03c

linear.3.weight f4 [256, 256]
0.0038565656 0.004133104 0.004035093 0.003588969 0.0038937547 0.004041402 0.003557757 0.0036438962
0.0034230219 0.0034910068 0.0033231962 0.0038539225 0.0033805321 0.0038666902 0.0038876561 0.003704149
0.0036630528 0.003890324 0.0038352588 0.0035553453 0.0038663307 0.0035736335 0.0033336836 0.0035052656
0.004083898 0.0037280342 0.0037085009 0.0035229772 0.0038137687 0.0035063492 0.0035534557 0.0033742457
0.0035771672 0.0037378382 0.003522126 0.0037603707 0.0034059125 0.0039314963 0.003984551 0.0028914814
0.003939198 0.0037810404 0.0036667932 0.0035372304 0.003410234 0.0036674323 0.0037348007 0.0034671293
0.0034523779 0.0037781077 0.003623413 0.003374077 0.0038403745 0.0037481089 0.0036286477 0.0037064806
0.003600737 0.0037349854 0.0037643698 0.0036653527 0.0035860904 0.003677836 0.0035837034 0.0036890027
0.0037922927 0.0038678995 0.004034943 0.0034407203 0.003641781 0.0036341674 0.0035442812 0.0038144756
0.0037222884 0.0034550424 0.0030896587 0.003891389 0.003982305 0.003450558 0.0037653642 0.0035883558
0.004160707 0.003923315 0.003608917 0.0036327627 0.0032493365 0.0037340808 0.0036257934 0.003529847
0.0035456945 0.0032679962 0.0037566125 0.003702601 0.0036947133 0.0035425732 0.0038951952 0.0035034015
0.003602489 0.0037399195 0.0039399415 0.003843284 0.003479421 0.0037744702 0.0037654862 0.003714831
0.0036917534 0.0039218673 0.003739391 0.0038432754 0.0034904361 0.0034366006 0.003915279 0.003998041
0.0031885752 0.0033030673 0.0038787539 0.0035046656 0.0031680083 0.003228518 0.003566361 0.0035642455
0.0032680004 0.0033250493 0.0033851909 0.004017033 0.0037322103 0.00340986 0.0034230296 0.0033995665
0.0037770607 0.003596504 0.003489192 0.0034002562 0.0033086995 0.0033176735 0.0035112598 0.0038503597
0.0038769294 0.0036922223 0.00364759 0.0038695224 0.0037771089 0.0035653254 0.0036760734 0.003660855
0.0036101514 0.0035918988 0.0034080935 0.0032022493 0.0041308724 0.003665254 0.0037102262 0.0037568219
0.0037932906 0.0034522666 0.0034837725 0.003811165 0.0034723256 0.0034294326 0.003955828 0.0036865359
0.003616409 0.0033527133 0.0034614361 0.0034019642 0.0034227609 0.0034609246 0.003636649 0.003359423
0.0036776634 0.0039856485 0.003654486 0.0034241085 0.003787258 0.0035655017 0.0038411699 0.0036636156
0.0040974147 0.0039851638 0.0038547318 0.0030998983 0.0037832484 0.0036437 0.0032429183 0.0037364643
0.00344944 0.0034535865 0.003482927 0.0032065106 0.003531761 0.0032742282 0.0040242476 0.003672809
0.0034762584 0.0035025803 0.003634021 0.0038093159 0.0042451415 0.0032940623 0.0034446516 0.0035106614
0.003456311 0.003937697 0.004302824 0.003907498 0.003624341 0.0039876997 0.0038189 0.0035287566
0.0038542105 0.0033120958 0.003998998 0.0031170999 0.0036187805 0.0034363184 0.0034197937 0.0030601278
0.0032499935 0.0035549272 0.0037123603 0.0033174646 0.0034935204 0.0040528593 0.0038810093 0.0035352407
0.0037225657 0.0037081968 0.0040063406 0.0038050388 0.0035683815 0.0037615416 0.0039320337 0.003692328
0.003836347 0.0036726901 0.003550745 0.0036815437 0.0033411162 0.0034502733 0.0035410693 0.0034169767
0.004073576 0.0035225693 0.003420441 0.0034585383 0.0035047699 0.0037840703 0.0038772626 0.0035331969
0.003465215 0.00327208 0.0039325496 0.0034569858 0.0036458555 0.003891786 0.0034556484 0.0037495662
00000000: 6fbe 7c3b fd6e 873b d038 843b e834 6b3b
00000010: 5d2e 7f3b bd6d 843b 4229 693b 6fce 6e3b
00000020: c754 603b 60c9 643b fbc9 593b 1792 7c3b
00000030: eb8b 5d3b 4c68 7d3b 0cc8 7e3b 4fc1 723b
00000040: d40f 703b cef4 7e3b f758 7b3b cc00 693b
00000050: 4462 7d3b 9f33 6a3b ee79 5a3b 99b8 653b
00000060: 38d2 853b 0952 743b 520a 733b c0e1 663b
00000070: 6cf0 793b c7ca 653b 18e1 683b 7322 5d3b
00000080: e86e 6a3b 85f6 743b 78d3 663b 8d70 763b
00000090: bb35 5f3b c8d3 803b d690 823b 027f 3d3b
000000a0: 6314 813b 55cb 773b 954e 703b e1d0 673b
000000b0: 3c7e 5f3b 4e59 703b 8fc3 743b c738 633b
000000c0: 4a41 623b 219a 773b c876 6d3b 9e1f 5d3b
000000d0: cbae 7b3b d5a2 753b 9bce 6d3b 6de8 723b
000000e0: 58fa 6b3b a8c6 743b a5b3 763b 6a36 703b
000000f0: 9d04 6b3b d907 713b 91dc 6a3b 32c3 713b
00000100: 1d88 783b 967c 7d3b 8e37 843b b57d 613b
00000110: f2aa 6e3b 362b 6e3b 2c47 683b 48fc 793b
00000120: a3f1 733b fe6d 623b df7b 4a3b ac06 7f3b
00000130: ff7d 823b c222 623b 54c4 763b 9f2a 6b3b
00000140: 8a56 883b 278f 803b 9483 6c3b a513 6e3b
00000150: d2f2 543b 7bb7 743b b89e 6d3b 0155 673b
00000160: e25e 683b e12b 563b 8031 763b 56a7 723b
00000170: 0123 723b 842a 683b 8846 7f3b 5399 653b
00000180: bc17 6c3b 7019 753b a01a 813b 9bdf 7b3b
00000190: ff06 643b 1a5d 773b 60c6 763b 8674 733b
000001a0: 58f1 713b 0283 803b 9210 753b 76df 7b3b
000001b0: cdbf 643b 9738 613b be4b 803b 0002 833b
000001c0: 6af7 503b 4678 583b b132 7e3b 88ae 653b
000001d0: 5c9e 4f3b 8b95 533b 9cb9 693b 1e96 693b
000001e0: f32b 563b 12e9 593b 14da 5d3b 51a1 833b
000001f0: 1998 743b f577 5f3b e854 603b 43cb 5e3b
00000200: 9088 773b 53b3 6b3b eeaa 643b d5d6 5e3b
00000210: c4d6 583b 536d 593b 2a1d 663b 5156 7c3b
00000220: 1514 7e3b 36f9 713b 680c 6f3b d097 7d3b
00000230: 5f89 773b 3ca8 693b 47ea 703b f5ea 6f3b
00000240: 4a98 6c3b 1066 6b3b 525a 5f3b d4dc 513b
00000250: 455c 873b c234 703b 4427 733b 0335 763b
00000260: db98 783b 6c3f 623b 0150 643b bdc4 793b
00000270: f58f 633b 55c0 603b e49f 813b cf99 713b
00000280: 4601 6d3b 32b9 5b3b 43d9 623b 7df3 5e3b
00000290: 6650 603b aed0 623b d954 6e3b c429 5c3b
000002a0: f404 713b 0b9a 823b 1a80 6f3b 0267 603b
000002b0: a533 783b 31ab 693b 23bc 7b3b 4519 703b
000002c0: 9b43 863b fa95 823b ab9f 7c3b aa27 4b3b
000002d0: 60f0 773b 24cb 6e3b 2487 543b 78df 743b
000002e0: 0010 623b 9155 623b d241 643b 5224 523b
000002f0: 1e75 673b 6f94 563b d6dd 833b 83b3 703b
00000300: f0d1 633b 8c8b 653b c128 6e3b b7a5 793b
00000310: d41a 8b3b 32e1 573b aabf 613b 2013 663b
00000320: 4783 623b cc07 813b b4fe 8c3b 780a 803b
00000330: 5a86 6d3b 40ab 823b 8346 7a3b b642 673b
00000340: ec96 7c3b bf0f 593b 070a 833b 4248 4c3b
00000350: 1029 6d3b db33 613b 9e1e 603b 6d8c 483b
00000360: d8fd 543b c8f9 683b 124b 733b d269 593b
00000370: 8cf3 643b d9cd 843b 8858 7e3b 7faf 673b
00000380: 4af6 733b 3805 733b 9f47 833b f55d 793b
00000390: 82db 693b 3284 763b 4ad8 803b fcfa 713b
000003a0: 396b 7b3b 84b1 703b 9eb3 683b 0e46 713b
000003b0: a1f6 5a3b fb1d 623b 4911 683b 5bef 5f3b
000003c0: a27b 853b e8da 663b 7a29 603b a5a8 623b
000003d0: 48b0 653b 2afe 773b ac19 7e3b 358d 673b
000003e0: a918 633b 6570 563b 9edc 803b 998e 623b
000003f0: 4eef 6e3b 560d 7f3b 2978 623b 48bb 753b

linear.3.bias f4 [256]
0.02818856 0.029034682 0.02906575 0.029357426 0.028459461 0.02913446 0.02907623 0.028998042
0.029952677 0.028402599 0.02859687 0.030810943 0.030313686 0.029846335 0.029794749 0.027473547
0.029973399 0.028519925 0.028027633 0.02914422 0.029107824 0.029578531 0.030942826 0.029229755
0.028991105 0.028485263 0.030139716 0.029720971 0.029368585 0.028380753 0.029087827 0.029537108
0.027916092 0.029264852 0.028253304 0.029643707 0.028554732 0.030218005 0.029490221 0.032264024
0.031176258 0.028617242 0.028662803 0.029770821 0.030751932 0.028797694 0.02890248 0.028759228
0.0297484 0.028919358 0.02988596 0.028562266 0.029100643 0.028264567 0.0307767 0.029059766
0.02770198 0.029270811 0.030176353 0.030438503 0.030402733 0.027528027 0.030290231 0.03239394
0.028566148 0.028623115 0.029797148 0.029611899 0.028703118 0.0289205 0.028016707 0.028920729
0.028759046 0.028673302 0.02988801 0.030291812 0.029191762 0.029307256 0.029994356 0.028358802
0.028020356 0.031378176 0.029546063 0.030511182 0.028663917 0.02947338 0.029651482 0.02918619
0.030228874 0.030259011 0.029213114 0.029531987 0.03020812 0.027644929 0.029711828 0.02861273
0.028309157 0.02928352 0.02838412 0.028705522 0.028540801 0.029512594 0.029216228 0.029840253
0.02829269 0.030006561 0.029950602 0.030384842 0.030702202 0.030398523 0.029918117 0.028288964
0.030667014 0.030484242 0.027477639 0.031601474 0.029961986 0.029162724 0.030247238 0.029199118
0.031030808 0.029031478 0.030664468 0.029471004 0.0296852 0.028088141 0.028644253 0.029252678
0.030335518 0.029981814 0.029781943 0.030493816 0.030420657 0.028798517 0.03122305 0.030871432
0.028955368 0.030428343 0.02908047 0.029746072 0.03043596 0.030382216 0.029066293 0.028168218
0.03080303 0.029428704 0.029043915 0.02856048 0.030707505 0.029784266 0.029907051 0.027353916
0.03067971 0.028793283 0.028476529 0.02939918 0.03050336 0.028189555 0.030121079 0.029541701
0.02885746 0.03164779 0.028786013 0.028911851 0.029470483 0.029304175 0.030700555 0.029654643
0.02916952 0.030517183 0.030971728 0.028742252 0.029875338 0.030410929 0.029709125 0.030366441
0.029451156 0.029746076 0.028968371 0.029578624 0.03000757 0.028663134 0.02909245 0.032076087
0.02872163 0.030474262 0.03039514 0.029946446 0.030770987 0.029892838 0.027987925 0.029567089
0.02784679 0.030636404 0.029424239 0.028572256 0.027789153 0.030214021 0.03074769 0.030823685
0.02848125 0.029243048 0.028568788 0.027955517 0.029766487 0.029843334 0.02990748 0.030077599
0.028114265 0.029215699 0.03119743 0.031000894 0.029403467 0.028970005 0.028934091 0.029535025
0.030433228 0.029305182 0.02960527 0.029164674 0.029508837 0.029119832 0.031119121 0.029293938
0.027881728 0.030201402 0.029372634 0.030714223 0.03149324 0.029970484 0.029689515 0.028605217
0.027503522 0.029176194 0.031225486 0.02922084 0.03044729 0.02873459 0.02949227 0.030339079
0.029574303 0.028848222 0.02909849 0.029401636 0.03025691 0.02981433 0.029777344 0.030124089
0.029832052 0.030138498 0.030736696 0.029925954 0.029127546 0.029087774 0.030287337 0.028424688
00000000: b2eb e63c 24da ed3c 4c1b ee3c fc7e f03c
00000010: d123 e93c 64ab ee3c 4631 ee3c 4d8d ed3c
00000020: 515f f53c 91ac e83c fc43 ea3c 3b67 fc3c
00000030: 6854 f83c 4d80 f43c 1e14 f43c 3410 e13c
00000040: c68a f53c 9ea2 e93c 359a e53c dcbf ee3c
00000050: 8873 ee3c ad4e f23c cf7b fd3c 3d73 ef3c
00000060: c17e ed3c ed59 e93c 91e7 f63c 6579 f33c
00000070: 6396 f03c c17e e83c 9849 ee3c cef7 f13c
00000080: 4ab0 e43c d8bc ef3c 7973 e73c 5cd7 f23c
00000090: 9deb e93c c08b f73c 7a95 f13c 4827 043d
000000a0: 5a65 ff3c b56e ea3c 41ce ea3c f0e1 f33c
000000b0: 7aeb fb3c 24e9 eb3c e5c4 ec3c 7998 eb3c
000000c0: ebb2 f33c 4ae8 ec3c 67d3 f43c 6afb e93c
000000d0: 7964 ee3c 188b e73c 6b1f fc3c bf0e ee3c
000000e0: 43ef e23c 57c9 ef3c 6634 f73c 2b5a f93c
000000f0: 270f f93c 7582 e13c 3823 f83c 82af 043d
00000100: 8e03 ea3c 067b ea3c 2619 f43c a794 f23c
00000110: cd22 eb3c afea ec3c 4b83 e53c 2aeb ec3c
00000120: 1798 eb3c 46e4 ea3c b3d7 f43c 8926 f83c
00000130: 9023 ef3c c515 f03c b9b6 f53c b850 e83c
00000140: f28a e53c 6786 003d 960a f23c 96f2 f93c
00000150: 97d0 ea3c 2872 f13c aae7 f23c e017 ef3c
00000160: 8ba2 f73c bfe1 f73c 5750 ef3c 11ed f13c
00000170: 0577 f73c 9e77 e23c 3866 f33c 3e65 ea3c
00000180: 9be8 e73c fee3 ef3c d085 e83c d827 eb3c
00000190: 66ce e93c 65c4 f13c df56 ef3c 8c73 f43c
000001a0: 12c6 e73c 52d0 f53c f75a f53c a2e9 f83c
000001b0: 2f83 fb3c 5306 f93c d716 f53c 42be e73c
000001c0: 6439 fb3c 17ba f93c c918 e13c 8c70 013d
000001d0: d772 f53c aae6 ee3c 0ec9 f73c fd32 ef3c
000001e0: 5234 fe3c 6cd3 ed3c 0d34 fb3c 2d6d f13c
000001f0: 602e f33c 1a19 e63c 5aa7 ea3c 50a3 ef3c
00000200: 3182 f83c 6c9c f53c 43f9 f33c 2bce f93c
00000210: be34 f93c deea eb3c 7bc7 ff3c 16e6 fc3c
00000220: cf33 ed3c dc44 f93c 2a3a ee3c 09ae f33c
00000230: d654 f93c 20e4 f83c 6f1c ee3c 09c1 e63c
00000240: a356 fc3c 7714 f13c 81ed ed3c abf7 e93c
00000250: 4e8e fb3c 22fe f33c a2ff f43c 5215 e03c
00000260: 0454 fb3c e4df eb3c 9c47 e93c 8dd6 f03c
00000270: 2fe2 f93c c8ed e63c 7bc0 f63c 7001 f23c
00000280: 7b66 ec3c 1da1 013d a5d0 eb3c 8cd8 ec3c
00000290: 156c f13c 4f0f f03c bb7f fb3c 4bee f23c
000002a0: ebf4 ee3c 2cff f93c 6cb8 fd3c df74 eb3c
000002b0: 20bd f43c 5720 f93c 8d60 f33c 0bc3 f83c
000002c0: 8d43 f13c 0bae f33c 144f ed3c df4e f23c
000002d0: 6fd2 f53c f3ce ea3c 4a53 ee3c 3762 033d
000002e0: a049 eb3c 29a5 f93c 3bff f83c 4052 f53c
000002f0: 7013 fc3c d3e1 f43c ef46 e53c ae36 f23c
00000300: f41e e43c 32f9 fa3c 1a0b f13c 5d10 ea3c
00000310: 14a6 e33c 6583 f73c 94e2 fb3c f481 fc3c
00000320: 8351 e93c 1e8f ef3c 1709 ea3c f802 e53c
00000330: d9d8 f33c 027a f43c 8800 f53c 4c65 f63c
00000340: e34f e63c c355 ef3c c191 ff3c 96f5 fd3c
00000350: 8adf f03c 8152 ed3c 3007 ed3c 70f3 f13c
00000360: 1b4f f93c 6c11 f03c c086 f23c c1ea ee3c
00000370: 84bc f13c b78c ee3c 87ed fe3c d7f9 ef3c
00000380: 3968 e43c ee68 f73c e19e f03c 659c fb3c
00000390: 0eff 003d a984 f53c 6d37 f33c 7d55 ea3c
000003a0: 114f e13c ea02 ef3c 97cc ff3c 8b60 ef3c
000003b0: 986c f93c ce64 eb3c c699 f13c a989 f83c
000003c0: cf45 f23c 1b53 ec3c f55f ee3c b3db f03c
000003d0: 57dd f73c 2f3d f43c 9eef f33c cbc6 f63c
000003e0: 5962 f43c 03e5 f63c 86cb fb3c 4627 f53c
000003f0: e49c ee3c 7c49 ee3c 261d f83c e4da e83c

linear.6.weight f4 [6, 256]
3.718298e-05 -4.3793265e-05 -6.849611e-05 0.0002572636 -0.00025437857 2.9881186e-05 0.00023303706 9.099773e-05
0.00021700008 -2.6906662e-05 0.00085411995 0.00016673429 0.00019857875 0.00018714626 -0.00019083235 0.00030047566
-0.00023837833 -0.00055548514 0.00036206748 0.0001387179 0.000244288 0.0002982156 0.0001881332 0.00042366039
-0.000552539 0.00018848597 1.6638285e-05 0.00039075516 -0.000502585 0.0003997934 0.000113571725 0.00025716666
0.0003965312 -0.00024314341 4.78112e-05 -0.00048801795 -0.00037408873 0.00024834138 -0.00011612997 -0.00027949954
0.0002608999 0.00018625235 -0.00056036183 -1.3396553e-05 -3.0127758e-05 0.00047660962 -0.00025190949 -0.0003828922
0.00013978523 0.00063148286 6.7548186e-05 0.00046027888 9.149165e-06 -8.384992e-05 0.00067169365 3.064256e-05
-0.0007505731 0.00017299323 7.302195e-05 -0.00064096256 -7.773888e-05 0.0005537102 0.00040049176 0.0002208778
-0.000625668 -0.0003109967 7.360299e-05 0.00053846935 0.00031761633 -0.0001979859 -0.0008540239 0.00029573016
-0.00031134643 0.00026864087 0.00060334837 0.00021749325 -9.274213e-05 0.00016974045 0.0003762799 -0.0001257515
-0.00033049594 0.0003500134 0.00048448393 -0.00046579397 0.00026395184 -0.00041433526 9.216374e-05 0.00011189944
-0.00045806344 0.00013420089 0.000310863 0.00034225624 -0.0001501759 9.2432114e-05 0.00029828324 0.0002779709
0.0003733546 0.00010528685 0.00028363016 0.00033304677 -0.0002006143 0.00025945922 -0.00025041957 8.5787244e-05
0.0003171457 -0.000178528 0.0004890657 6.406329e-05 0.0005931385 0.00043245126 -0.00023496113 0.0004087624
-0.0008213169 0.00019017403 0.00049244834 0.00039261597 0.0002582294 0.0008288589 -0.0004236392 -0.0008196757
0.00042374062 0.00018067882 0.0005017419 0.00040257286 -0.00037249993 -0.00015155971 -0.0003344404 -0.0004605969
-0.0003276586 -0.00065489556 0.0005155638 -0.00013362948 0.00034622924 0.00035429336 -0.00039128348 0.00030670306
-0.0002095261 -0.00013287069 0.0006253478 -0.00049175124 -0.0002452296 0.00068950135 -0.0005091228 9.321311e-06
7.5780365e-05 -0.00094032043 0.0003477848 0.0005402344 0.00025515922 -1.6872062e-05 -0.00037619448 0.00026696702
-0.00044036726 0.0005135247 -0.000354294 0.0001011263 -8.817992e-05 0.000708057 -0.00091857865 0.00026954437
-6.8242254e-05 -0.00010817724 0.00014219712 0.0006924129 3.135967e-05 0.00010199849 0.0006514219 0.0009977161
0.00019934341 0.00045851027 0.0006497788 0.00037017322 6.19667e-05 -0.00028812306 -0.00038493986 0.00019295978
-0.00032318133 0.00094805914 0.00012923781 -0.00021171852 0.00024210424 0.00046387038 0.0002494647 0.0008721861
0.00011025378 0.00012238283 0.00084018806 0.00025177374 -5.508423e-05 0.00045745732 -0.000656714 0.00016846927
4.3644366e-05 0.0006269345 0.0002909703 -0.00022053567 -0.0005728549 0.00042087765 -0.0002578886 0.0007408978
0.00037153292 -3.378623e-05 0.0009074282 0.00055425 7.254387e-05 -0.00021365093 0.0003078319 -0.00021587398
0.0012442813 0.00035796626 -0.000277295 0.00034285654 -0.00021353975 -0.0002660064 0.0007999874 6.0902195e-05
-5.1125764e-05 0.00012057002 0.00048860384 -0.00035407892 -0.00018602167 0.000781844 0.0005287512 0.00037954858
-0.00085290585 0.00036040085 0.00019286008 -6.6801025e-05 0.00014733766 -0.0005198849 0.00021429191 0.00018434094
-0.00011354431 -8.5697226e-05 0.00023162681 -0.00012184916 -4.533541e-05 0.0003019506 0.00012587658 0.0002473901
0.00056741026 0.00036297334 0.00016345069 -0.00040128754 0.00021181951 -0.0005082936 7.5279866e-05 0.0012915725
-0.0005762561 0.0003231543 -9.434098e-05 0.0012064604 0.00026249973 7.490418e-05 0.00042802832 7.472692e-05
00000000: ecf4 1b38 a9ae 37b8 92a5 8fb8 56e1 8639
00000010: 1d5e 85b9 5ca9 fa37 695b 7439 09d6 be38
00000020: 848a 6339 9eb5 e1b7 05e7 5f3a 65d5 2e39
00000030: 9439 5039 b13c 4439 2b1a 48b9 2989 9d39
00000040: 32f5 79b9 fa9d 11ba e0d3 bd39 ce74 1139
00000050: c813 8039 d259 9c39 9f45 4539 bc1e de39
00000060: 44d8 10ba 51a4 4539 7292 8b37 45de cc39
00000070: e9bf 03ba 5d9b d139 5b2d ee38 53d4 8639
00000080: 84e5 cf39 50f4 7eb9 e388 4838 a9dc ffb9
00000090: 5721 c4b9 d133 8239 ce8a f3b8 cb89 92b9
000000a0: 64c9 8839 bc4c 4339 3fe5 12ba c2c1 60b7
000000b0: deba fcb7 76e1 f939 b812 84b9 ecbe c8b9
000000c0: 5093 1239 198a 253a a8a8 8d38 9651 f139
000000d0: 5d7f 1937 95d8 afb8 9914 303a 3386 0038
000000e0: 1cc2 44ba 8465 3539 5c23 9938 4506 28ba
000000f0: be07 a3b8 dd26 113a 18f9 d139 6f9b 6739
00000100: de03 24ba 450d a3b9 4e5b 9a38 1128 0d3a
00000110: be85 a639 6f9a 4fb9 93e0 5fba 3b0c 9b39
00000120: 363c a3b9 5ed8 8c39 062a 1e3a e60e 6439
00000130: 8d7e c2b8 5bfc 3139 6f47 c539 29dc 03b9
00000140: 6a46 adb9 0182 b739 5502 fe39 cf35 f4b9
00000150: 0463 8a39 233b d9b9 0848 c138 8eab ea38
00000160: 3c28 f0b9 47b8 0c39 53fb a239 db70 b339
00000170: 8978 1db9 1dd8 c138 e662 9c39 9fbc 9139
00000180: cebe c339 72cd dc38 32b4 9439 c89c ae39
00000190: fe5b 52b9 0708 8839 bf4a 83b9 ade8 b338
000001a0: 9346 a639 3f33 3bb9 a534 003a b859 8638
000001b0: da7c 1b3a a0ba e239 e65f 76b9 294f d639
000001c0: a54d 57ba 7469 4739 a617 013a 06d8 cd39
000001d0: f762 8739 c747 593a e41b deb9 81df 56ba
000001e0: 8129 de39 9a74 3d39 5487 033a 6a10 d339
000001f0: 184c c3b9 00ec 1eb9 d557 afb9 457c f1b9
00000200: 98c9 abb9 4cad 2bba e726 073a e41e 0cb9
00000210: 1a86 b539 73c0 b939 2e25 cdb9 fdcc a039
00000220: 3cb4 5bb9 3453 0bb9 61ee 233a dee8 00ba
00000230: 2992 80b9 a7bf 343a a776 05ba ba62 1c37
00000240: 46ec 9e38 d67f 76ba e356 b639 849e 0d3a
00000250: e4c6 8539 7a88 8db7 f83b c5b9 b5f7 8b39
00000260: 18e1 e6b9 0f9e 063a 89c0 b9b9 c513 d438
00000270: 3ced b8b8 e79c 393a c5cc 70ba a251 8d39
00000280: 481d 8fb8 37dd e2b8 c01a 1539 0b83 353a
00000290: 3088 0338 06e8 d538 2fc4 2a3a ccc5 823a
000002a0: d706 5139 3564 f039 eb55 2a3a cf13 c239
000002b0: 1ef4 8138 390f 97b9 c1d1 c9b9 3f55 4a39
000002c0: aa70 a9b9 2c87 783a 0384 0739 c200 5eb9
000002d0: 5ddd 7d39 a133 f339 96ca 8239 6ba3 643a
000002e0: 0c38 e738 e453 0039 1140 5c3a 8000 8439
000002f0: 3e0a 67b8 e2d6 ef39 5527 2cba 20a7 3039
00000300: c80e 3738 dd58 243a 5f8d 9839 983f 67b9
00000310: a42b 16ba 3ea9 dc39 3935 87b9 cf38 423a
00000320: 4eca c239 b0b5 0db8 7ae0 6d3a 164b 113a
00000330: b222 9838 7c07 60b9 8064 a139 3b5c 62b9
00000340: 2717 a33a 6bad bb39 e861 91b9 6dc1 b339
00000350: a4e9 5fb9 c676 8bb9 3fb6 513a 3c71 7f38
00000360: df6f 56b8 89da fc38 a615 003a aba3 b9b9
00000370: d00e 43b9 aaf4 4c3a e49b 0a3a 26fe c639
00000380: 8b95 5fba 2ff4 bc39 7c3a 4a39 8717 8cb8
00000390: a77e 1a39 e348 08ba 8cb3 6039 a54b 4139
000003a0: a31e eeb8 59b8 b3b8 d9e0 7239 4589 ffb8
000003b0: 8726 3eb8 204f 9e39 bdfd 0339 23b4 8139
000003c0: 42be 143a 754d be39 f663 2b39 e763 d2b9
000003d0: de1b 5e39 023f 05ba 92df 9d38 fb49 a93a
000003e0: e40f 17ba 096d a939 eed8 c5b8 1822 9e3a
000003f0: 1ea0 8939 e015 9d38 fd68 e039 b6b6 9c38

linear.6.bias f4 [6]
0.002881431 0.0026584105 -0.4578829 -0.0013564323 0.016644962 0.015394077
00000000: 64d6 3c3b ba38 2e3b a16f eabe 51ca b1ba
00000010: 045b 883c 7037 7c3c
