RL/D3QN.pth (torch, 566919 bytes, 9 tensors)

weight f4 [256, 6]
000000 a8 72 b8 3e 63 c0 b7 3e af 3e 0c be d7 98 d8 3c
       0.36024976 0.35888967 -0.13695787 0.026440067
000010 8f 31 06 bd 48 d5 a9 be 08 1b 7a bd 76 b1 7d 3e
       -0.032762107 -0.33170533 -0.061060935 0.24774727
000020 90 9a 06 be 94 57 41 3e 6f 45 d6 3e 63 05 36 be
       -0.13144898 0.18881065 0.4184985 -0.17775492
000030 6f e7 b1 3e 46 88 b7 bd 0d 45 de be 42 3f 04 3e
       0.34746882 -0.08961539 -0.43412057 0.12914756
000040 03 0f cc 3e e7 da f9 3e bd d0 fe be d0 54 a0 be
       0.39855203 0.48799822 -0.4976863 -0.31314707
000050 39 c4 49 3e f7 4c f0 be d7 75 43 3e 7c de c7 3e
       0.19703759 -0.4693372 0.19087921 0.3903693
000060 ce 54 29 bc 37 c2 80 be 17 cc a7 3e e5 04 c7 be
       -0.01033516 -0.25148174 0.32772896 -0.38870922
000070 88 a8 68 3e b1 61 85 3e 13 bd 91 3e d2 62 0b be
       0.2272054 0.26051095 0.28464565 -0.13611916
000080 c8 d7 8c be 82 65 81 3e b9 8b 06 be cd c8 c3 3c
       -0.27508378 0.25272757 -0.13139237 0.02389946
000090 b0 a1 d9 3e 25 20 59 bd 4a df c7 bd 50 b8 c5 be
       0.4250617 -0.05300917 -0.09759386 -0.38617182
0000a0 8b a9 ad 3d 60 28 93 3e 76 cd ac 3e 73 68 91 be
       0.084796034 0.2874174 0.33750504 -0.284
0000b0 7e 21 09 3e fe 9f fa 3d a9 f9 bd 3c 70 41 09 be
       0.13391683 0.12237547 0.023190336 -0.13403869
0000c0 ca d0 24 3e 88 79 99 be e2 98 e9 3d 71 80 8f 3e
       0.16095272 -0.29975533 0.11406113 0.2802768
0000d0 1c 92 af 3e 3b cd 91 3e dc 08 c7 be bc f2 63 3e
       0.3429116 0.2847689 -0.38873947 0.22260565
0000e0 2d 9a ce 3e 2c fc c5 3c 36 2c d2 be a7 b6 fe 3d
       0.40352002 0.024168096 -0.41049355 0.12437182
0000f0 fa 54 00 3e 63 88 1c 3d 78 8f 00 bf a7 00 df bd
       0.12532416 0.038216006 -0.50218916 -0.10888796
000100 e8 73 fb bc 77 b8 eb 3e 82 c6 cd be 92 d9 b4 3e
       -0.030694917 0.46039173 -0.40190512 0.35322243
000110 1a 94 bc bd af c6 f7 be 26 99 81 be d9 af 10 3d
       -0.09207936 -0.4839377 -0.25312155 0.03532395
000120 89 f1 5d 3e c2 c1 a0 3e 76 4e d4 3d 76 e5 5a be
       0.2167417 0.31397825 0.10366528 -0.21376595
000130 f8 5c 87 be a2 bf 06 be 0d 03 d6 bd 2b 44 47 be
       -0.26438117 -0.1315904 -0.10449801 -0.19459598
000140 5f eb ae be c2 fc 7a be 20 02 88 be a9 b0 31 3a
       -0.3416395 -0.24510482 -0.2656412 0.00067783386
000150 47 dc 74 be d5 14 ac 3e fd 60 4c 3d 48 4e 2b bc
       -0.23912154 0.33609644 0.049897183 -0.010455675
000160 2c 9d b8 3e 51 f0 b7 3d af 0d 59 be 53 75 4b bd
       0.36057413 0.089813836 -0.21196626 -0.049672436
000170 90 77 ca 3d 33 2a a7 be 6c ee f3 bd f1 a3 f3 be
       0.09886086 -0.32649383 -0.1191071 -0.47586015
000180 a3 46 38 3d 10 07 0d bf 67 a1 bd bd 1f 59 95 be
       0.04498924 -0.550889 -0.09259301 -0.29169556
000190 be 33 a4 be 2f 16 70 3e d0 0f 95 bd d1 a7 3e 3e
       -0.32070726 0.23445962 -0.072784066 0.18618704
0001a0 18 79 cc 3e c6 76 88 3e 4d 5a 53 be f5 f4 56 3e
       0.39936137 0.26653117 -0.20639916 0.20991881
0001b0 2a 39 bc 3e 73 41 ac 3d ca 76 d4 be 03 56 67 3e
       0.36762363 0.08410921 -0.4149688 0.22591405
0001c0 7c d7 6c bb d1 8e d0 be 27 b8 be 3c 21 86 4b 3d
       -0.003613918 -0.4073396 0.02328117 0.049688462
0001d0 19 b6 cb be d4 02 89 bc 75 dd 31 bc c0 7d bc 3e
       -0.39787367 -0.016724981 -0.010856022 0.3681469
0001e0 5c 88 50 be fc fa 8e 3e 15 08 34 3e 04 3f e8 bd
       -0.20364517 0.2792586 0.17581208 -0.11340144
0001f0 e3 56 af 3e d5 49 8d be 99 d5 c9 be 24 15 8d be
       0.34245977 -0.27595392 -0.39420775 -0.27555192
000200 3f e9 83 bb be 70 50 3d b8 3c 2a be 3d 54 ac 3e
       -0.004025608 0.05088877 -0.16624725 0.3365802
000210 f8 8c b3 bd 50 3a 1f be 6c 42 b3 3e 94 85 ee 3d
       -0.08767122 -0.15549588 0.35011613 0.11646572
000220 26 23 29 3e 28 03 99 be 83 25 93 3e fe e9 d6 3d
       0.16517314 -0.2988522 0.28739557 0.10493849
000230 91 80 b8 3d 72 78 a7 3e 6a 57 9e be 95 97 d6 3d
       0.09008897 0.3270908 -0.30926067 0.10478131
000240 69 f9 4d be ee 54 4d be 91 c1 de 3d 4e 08 cc 3d
       -0.20114674 -0.2005193 0.108767636 0.099625215
000250 4c 1b c6 3e e3 2c 20 3e 42 80 a0 be 2d dc 8c be
       0.386927 0.15642123 -0.31347853 -0.2751173
000260 65 e0 ed be 32 f8 fc 3e 67 b4 45 be 34 47 e0 3d
       -0.46460262 0.49408108 -0.193071 0.10951081
000270 ac 16 7f 3e 0e 27 d4 3e f7 ee 8a 3e 5c df 71 be
       0.24910992 0.41436046 0.2713544 -0.23620361
000280 41 0e bc be 06 5d 8e 3d 15 2a 18 3e 48 d9 a2 be
       -0.36729625 0.069513366 0.14859803 -0.31806397
000290 e9 8b a3 be 02 fd e7 bd 2f cd a7 3e 4c 34 93 3e
       -0.3194268 -0.11327554 0.3277373 0.28750837
0002a0 58 78 e6 be a1 a1 41 3e 57 da da be cd 22 88 3e
       -0.4501369 0.18909313 -0.42744705 0.2658905
0002b0 21 37 c2 bd b5 d3 8b be f4 b1 d1 be 57 a2 e4 3d
       -0.09483171 -0.27309957 -0.4095608 0.11163776
0002c0 59 0d ea 3c c1 60 c6 3e a8 40 e3 bd 97 94 f6 bc
       0.028570818 0.38745692 -0.110963166 -0.03010015
0002d0 fe 7d cb 3e 35 bc dd 3e 09 19 5e bd 2b c5 ff bd
       0.39744562 0.43307653 -0.054223094 -0.12488779
0002e0 80 18 9f 3d 75 d6 88 bd aa c1 37 3e 29 00 bb be
       0.07768345 -0.066815294 0.1794497 -0.3652356
0002f0 ec 7d ae 3d 7a 91 a7 3e 71 3a e9 3e f0 94 28 bd
       0.085201114 0.32728177 0.455524 -0.041157663
000300 0c 42 8c be 0e c2 dc 3e 29 29 89 bd 9b 36 0a be
       -0.2739414 0.43116802 -0.06697304 -0.13497393
000310 6f be fa 3d 85 58 a8 3e 54 33 80 be 58 83 04 bd
       0.122433536 0.32880035 -0.2503916 -0.03235182
000320 0e 07 bb bc 6c 41 1b bb f8 04 87 be fc 92 d6 bd
       -0.022830512 -0.0023690118 -0.26370978 -0.10477254
000330 22 83 a2 3e f8 ab 8f 3e 2c 05 b6 3e 10 34 aa be
       0.3174067 0.2806089 0.3555082 -0.33242846
000340 2e 55 ce 3e 94 28 88 3e 34 23 8d be f2 4f 7f 3e
       0.40299362 0.2659346 -0.2756592 0.2493284
000350 e9 65 b2 be c9 15 df 3d 0d 0b 67 3e f8 64 8b bd
       -0.34843376 0.10892827 0.2256281 -0.06806368
000360 38 09 a1 be 9c 35 ac be 56 53 39 bb 98 36 74 3e
       -0.31452346 -0.3363465 -0.0028278432 0.23848951
000370 c8 43 87 be 50 ba d7 3e 37 e2 a6 3e b4 6c 95 3c
       -0.264189 0.42134333 0.32594463 0.01824031
000380 f0 0a 8e be 1c 80 2e be 89 84 06 bf c8 bc 0d bd
       -0.2774272 -0.17041057 -0.5254598 -0.034603864
000390 09 c1 aa 3e aa fe 8f 3e 7c 2f 56 be 79 b4 c9 3e
       0.333504 0.2812398 -0.20916551 0.39395502
0003a0 ac de b8 be ec 00 cb 3e 22 1a 12 bc b6 ba 82 3e
       -0.36107385 0.3964914 -0.008917363 0.25533074
0003b0 d1 4a cf 3e f7 11 48 3e b1 d8 a2 3e ee 4b b1 3e
       0.40486768 0.19538103 0.31805947 0.34628242
0003c0 9a 37 68 3e fd 18 37 3e b9 ac 75 3e f6 8e 98 3e
       0.2267746 0.17880626 0.2399167 0.2979657
0003d0 2d c2 85 be a4 0e c7 3e 83 75 3e 3d 96 a2 c2 be
       -0.26124707 0.38878357 0.046498787 -0.38014668
0003e0 1d 9f 47 3e eb ce 8b 3d 39 db bc be 00 4c 1d 3e
       0.1949429 0.06826576 -0.36886004 0.15361023
0003f0 28 72 c8 3d 06 5e b8 be 88 05 0e be 2c 92 83 be
       0.097873986 -0.36009234 -0.13869298 -0.25697458

bias f4 [256]
000000 ad 6f 2c bb dc b4 bf be f9 2d 01 3e 40 0f 82 3e
       -0.002631168 -0.37442672 0.12615193 0.2540226
000010 e6 20 bb 3e 09 89 e7 3e 2a 75 97 3e 71 42 08 bf
       0.36548537 0.45221737 0.29581577 -0.5322638
000020 68 17 b6 be 6e 07 e5 be 80 15 82 bd 3a 33 18 be
       -0.35564733 -0.4473223 -0.06351757 -0.14863291
000030 2f fa 96 bd f5 c4 7a be d4 da c9 3e a1 f6 c9 3e
       -0.073719375 -0.24489196 0.39424765 0.39445975
000040 53 fe 55 3e de bc f6 bd e2 ed e6 3e 5e ef a8 bd
       0.20897798 -0.12047742 0.45103365 -0.08248781
000050 9f 8a 11 3e 48 de fe 3b 40 15 68 3c 95 c1 2d 3e
       0.14213036 0.007777963 0.014165223 0.16968377
000060 04 32 f2 3e 89 2c 3c 3e 74 3c 09 be 45 50 7f 37
       0.47303784 0.18376364 -0.13401967 1.5217874e-05
000070 8b 10 ca bc 37 72 4a 3e 91 e3 da be 41 e5 bf be
       -0.024666091 0.19770132 -0.42751744 -0.37479594
000080 d7 56 ca 3e 65 c9 64 bd 02 fd 51 3e 8a 66 ca 3e
       0.3951938 -0.055856127 0.20506671 0.39531356
000090 02 99 1a 3e ff 9d 44 3d a1 58 f7 3e 43 ec d7 bd
       0.1509743 0.04800224 0.48309806 -0.1054311
0000a0 50 74 11 3e 1f 3f 88 be 25 3c ba bd ec b6 de 3e
       0.14204526 -0.26610658 -0.09093503 0.43498933
0000b0 77 83 79 be bc 3c 05 be 2d 5e 99 bc 76 00 52 3d
       -0.24366556 -0.1301145 -0.018721664 0.05126997
0000c0 fa d2 f2 3e a2 65 84 be d7 88 cf 3e 48 e9 08 3f
       0.47426587 -0.2585879 0.40534088 0.5348096
0000d0 a1 d4 11 3f a4 5a f1 3d a5 08 e5 3e 8c b0 99 3d
       0.5696507 0.117848665 0.44733158 0.07504377
0000e0 88 f1 af 3e 1f 34 3f bd f6 ca 8a 3e 59 37 d5 bb
       0.3436396 -0.046680566 0.27107972 -0.006506842
0000f0 2a 69 1c 3f 14 b6 c0 3d ab 1b 9c be 51 55 96 3d
       0.6109797 0.09409729 -0.3048986 0.073404916
000100 8d 4b 81 3d 7b 2f b4 3e ca 37 cf bd 0e 6e 40 bf
       0.06313238 0.35192475 -0.10118063 -0.7516793
000110 9d cf de 3e 3e b3 bc bd 36 e2 8d be 11 44 17 3f
       0.4351777 -0.09213875 -0.27711648 0.59088236
000120 77 98 bb 3d 2c 6c ac 3e e9 98 89 be 87 9f f5 3e
       0.0915994 0.3367628 -0.26874474 0.47973272
000130 7d a0 15 3f 50 b1 ab be 88 a5 36 3e f4 e8 80 be
       0.5844801 -0.33533716 0.17836583 -0.2517773
000140 2e 83 b9 3e 69 92 93 bc fa 3c 27 3e d5 08 95 3e
       0.36232895 -0.01801415 0.16331854 0.291083
000150 cc d1 07 3f 1b 54 69 3d e6 02 b4 3e 29 45 a8 bd
       0.530545 0.056964975 0.3515846 -0.08216316
000160 cc 6f 14 3f 91 f7 ed be 3f 48 98 3e 0a 33 26 bc
       0.5798309 -0.4647794 0.2974262 -0.010144005
000170 ff 0b 26 3f bb 13 0f 3f 0d 8f 8a 3e c3 46 6e 3e
       0.64862055 0.5588948 0.27062264 0.23269181
000180 1a fd 65 be 0d f8 04 bf bb 7b 74 be b6 9b c0 bd
       -0.22459832 -0.51940995 -0.23875324 -0.094046995
000190 b0 78 c2 be 7f e6 4d 3e 80 73 cf be ab 57 d5 be
       -0.37982702 0.20107459 -0.40517807 -0.41668448
0001a0 c3 78 1e 3f 51 28 eb 3d d3 62 b7 3e 29 70 e4 3e
       0.6190302 0.11482299 0.35817584 0.4461682
0001b0 87 a7 e4 3d 5b 5b 88 bd bd ef 0b 3f 2d bc 04 bf
       0.11164766 -0.0665805 0.54662687 -0.51849633
0001c0 f7 a4 e0 bd cd da cd bc 09 6e 5f 3e e8 d3 b9 3e
       -0.109689645 -0.025128746 0.21819319 0.36294484
0001d0 9f 2a 8f 3e b7 c7 a1 be 83 c8 c1 be d8 26 0b 3f
       0.27962205 -0.31597683 -0.3784829 0.54356146
0001e0 69 e5 8a bc 4b f0 ab 3e c8 06 fb 3e 2a c0 a5 3e
       -0.016955094 0.33581766 0.4902861 0.32373172
0001f0 79 12 65 bd 7a 72 55 be 0f ac a0 3e ec a1 ae 3d
       -0.05592582 -0.2084445 0.3138127 0.08526978
000200 33 6a da be b5 13 ba be 58 f0 30 3f 69 d5 17 bf
       -0.4265915 -0.3634316 0.69116735 -0.59310013
000210 e5 2c be be c6 a0 3f 3e ca 3f ec 3d 85 82 69 bd
       -0.37143627 0.18713674 0.11535604 -0.05700924
000220 24 61 e6 3e e0 be c2 3e 2a ba 2a be 6a 4e d9 3d
       0.44995987 0.3803625 -0.16672578 0.106106594
000230 b8 9c a0 3e d7 ad a5 3e f4 f9 e1 be 68 7f c9 bd
       0.31369567 0.32359192 -0.44136012 -0.09838754
000240 47 b7 b7 3e 6d 74 d3 bd 76 8f 65 be a3 0f e0 3d
       0.35882017 -0.10324941 -0.22418007 0.109404825
000250 0b d0 28 be c9 4b fe bc af db bf 3d fe 14 16 be
       -0.16485612 -0.031041997 0.09368073 -0.14656445
000260 12 36 2d be b0 1f b5 3e 5d b3 f0 3d 76 a4 48 bc
       -0.16915157 0.35375738 0.11752961 -0.012246242
000270 c2 6d 9e 3e d6 09 12 be b7 36 73 be aa de 70 3e
       0.30943114 -0.14261565 -0.23751341 0.2352244
000280 05 18 67 3e aa 43 f0 3e f4 f6 4f be dd ff 9e 3e
       0.22567756 0.46926624 -0.20309049 0.31054583
000290 85 40 63 3e 3e ec 4f 3e 64 54 9b be d7 bd 16 3f
       0.22192581 0.20304963 -0.30337822 0.5888342
0002a0 7f b1 54 be 91 41 03 3f 49 a3 cd 3e 07 4c b4 3e
       -0.20770834 0.5127192 0.4016364 0.35214254
0002b0 1d bd a2 3c 09 1c df 3e be 13 42 3e 6e 56 23 3e
       0.019865567 0.43576077 0.18952844 0.15950939
0002c0 be 73 e7 3e 84 5e f2 3e 12 89 ac be d6 93 14 3f
       0.45205492 0.47337735 -0.33698326 0.5803808
0002d0 b1 c0 27 be 57 66 bb 3e 13 7f 16 3f 12 6e 71 be
       -0.163821 0.36601517 0.5878765 -0.23577145
0002e0 c8 81 b0 3d e8 b1 cd be df 26 a2 3d 27 e5 dd 3d
       0.08618504 -0.40174794 0.0791757 0.10834723
0002f0 1f 0c be 3e e8 42 8e be 77 15 80 3d 7a dc bb 3e
       0.37118623 -0.2778542 0.06254094 0.36691648
000300 9c 87 67 3e a9 9e 8c 3e 19 2f 81 3d 09 c6 48 3e
       0.22610325 0.27464798 0.06307811 0.19606794
000310 ad 57 ca 3e 1c 51 1c be 95 48 e8 be b6 4b ca 3e
       0.39520016 -0.15265316 -0.45367876 0.39510888
000320 0e ce 2f bf 5a bc c3 3e 81 2e d8 be 93 c6 d6 3e
       -0.6867379 0.38229638 -0.4222298 0.41948375
000330 c7 16 61 3e f4 b8 f8 3e 01 c9 8d be cc 23 bc 3e
       0.21981345 0.48578608 -0.27692416 0.3674606
000340 e6 d1 14 3f c9 59 aa 3e d6 5b 5b 3e 12 72 20 be
       0.5813278 0.33271626 0.21421751 -0.15668514
000350 3c b7 87 be 97 4a e6 3e ff 22 b1 3e 04 7d 28 3f
       -0.26506984 0.44978783 0.34597012 0.6581576
000360 7c 97 42 3f ad a3 d5 3e 3a 47 c4 3d ca d9 59 be
       0.76012397 0.41726437 0.09583898 -0.21274486
000370 2b 1b 8e be 65 61 43 be ce 99 8a 3e 71 be 36 be
       -0.27755103 -0.19080122 0.2707047 -0.17846085
000380 87 bc cf be a3 00 0e 3f 63 cf 13 be 0d 14 10 3f
       -0.40573522 0.5546972 -0.1443458 0.56280595
000390 7c 29 93 bd 04 4a b2 3e c2 80 9c bc a7 41 2b be
       -0.07185647 0.34822094 -0.019104365 -0.16724263
0003a0 d6 32 15 3a 20 45 fc 3e 1c 37 26 be b8 98 4b be
       0.0005691474 0.49271488 -0.1623196 -0.19882476
0003b0 5d 1b ea be 66 0a 4e bc e0 74 ab be 29 c5 ca 3e
       -0.45724002 -0.012575721 -0.33487606 0.39603546
0003c0 db af 15 3f 93 9c a4 bc 54 ce e8 be ab 58 bb bd
       0.5847146 -0.020094192 -0.45469916 -0.091477714
0003d0 1d d1 93 3e a8 17 e9 3e 4a 5d 93 bc ae f4 ac 3e
       0.28870478 0.4552586 -0.01798882 0.33780426
0003e0 07 42 f2 3e 68 ad 6e 3e bf 9e 9d be e4 27 a4 be
       0.47316 0.23308337 -0.30785176 -0.32061684
0003f0 15 a4 8d 3e 88 b5 9f be 78 b2 42 3e ee 6a 00 3f
       0.27664247 -0.31193185 0.19013393 0.5016316

weight f4 [256, 256]
000000 d6 32 b1 3c ce 9b 87 bc 0c 6e 3f 3c 6d 05 e3 bc
       0.021630686 -0.016553786 0.011683952 -0.027712548
000010 a5 82 62 bd e4 e4 91 3d ba 0f ef 3c 53 a5 d6 bc
       -0.055300374 0.071237355 0.029182304 -0.02620188
000020 bd 3b 48 3d 9a 95 be bc 34 b4 9e bc 5b 8c 41 3e
       0.048885096 -0.023264695 -0.019373037 0.18901198
000030 5c d2 65 be 10 8e 26 bc f7 7f a8 bb d2 7f 02 3d
       -0.22443527 -0.010165706 -0.0051422077 0.03186018
000040 a0 0a a0 bd c1 89 ab 3d 48 97 a7 3b be 80 5b be
       -0.078145266 0.08375884 0.0051144697 -0.2143583
000050 59 36 44 3d 08 b1 8e 3d 80 81 e7 3c 68 9e 32 3d
       0.047903392 0.0696736 0.028259993 0.0436081
000060 76 86 ca 3d 0e aa 37 3d c8 d1 76 3d 1b 87 5d be
       0.09888928 0.04483991 0.060258657 -0.2163357
000070 28 4c 53 be 7f 3d 41 be 83 8c a9 3d d9 ec 75 ba
       -0.2063452 -0.18871115 0.082787536 -0.00093813014
000080 a1 30 e2 3c 40 e3 2c 3b f3 13 6e 3d 7d 18 92 3c
       0.027611079 0.0026380569 0.058124494 0.017833943
000090 62 5c 23 bc 13 69 f2 3d a6 09 6b 3d 6b f4 86 3d
       -0.009970756 0.118364476 0.05738225 0.06589588
0000a0 e2 b0 c2 3d 72 95 c3 bc b7 75 d2 bd 82 b0 93 3d
       0.09506394 -0.023874972 -0.102763586 0.072114006
0000b0 8f 21 bb 3b 05 45 e4 3c 2f 24 93 be 24 f4 b7 3c
       0.0057107876 0.027864942 -0.28738543 0.022455283
0000c0 63 5b 9d 3d 6b 52 57 bd 29 7a 45 3c 56 a7 4f 3d
       0.07683446 -0.052568834 0.012053051 0.050696693
0000d0 e8 81 4d 3e e6 fa d6 bc bf fc 98 3d 88 8c 8d 3d
       0.20069087 -0.026242685 0.074700825 0.0691157
0000e0 a2 b4 08 bd e6 fe bd 3c f6 30 24 bc 78 6d 84 bc
       -0.03337539 0.023192834 -0.010021439 -0.01616548
0000f0 1c 66 e3 3d cc c4 ff bd e0 6a 1e bc a4 0f f2 3c
       0.1110346 -0.12488708 -0.009669036 0.029548474
000100 f0 96 bb 3b 48 6a 26 3d 63 89 e9 bb ee 5c c1 3e
       0.0057247803 0.0406287 -0.0071269735 0.37766212
000110 a0 94 ba 3b 94 64 8b 3d 40 04 37 3d 63 fc b4 3c
       0.005693987 0.06806293 0.044681787 0.022093004
000120 e1 df 09 be 08 45 f1 3d 9d 85 06 bd 78 3e 1f 3e
       -0.1346431 0.11780745 -0.032842267 0.15551174
000130 a1 bb a2 3d ea 8a 38 bd 52 07 c6 bd 11 44 be 3d
       0.079459436 -0.045054354 -0.09669365 0.092903264
000140 0b d8 74 3d 63 cb 28 bc 90 e2 fd 3d ee 72 93 3d
       0.059776347 -0.010302397 0.12396729 0.071996555
000150 95 e9 81 3d c0 14 e1 bc 29 98 80 3d d8 42 44 bc
       0.0634338 -0.027475715 0.06279022 -0.011978827
000160 d6 7d 9c bb c9 0f 9e 3c 13 35 2d 3e d4 0c 19 3d
       -0.004775743 0.019294636 0.16914777 0.03736575
000170 14 24 c0 3d c7 24 69 3d 4b 66 d3 3c 7c 4f 44 bd
       0.09381881 0.05691984 0.025805613 -0.047927365
000180 53 7d 0f 3d 50 9d 7e 3e 6c b3 5f bd 8b a4 9c bc
       0.035031628 0.24864697 -0.05461447 -0.019121429
000190 91 5d 81 3e a0 06 23 bd 31 da 0b bd 87 6a a0 3e
       0.25266698 -0.03980124 -0.03414363 0.31331274
0001a0 8f 7e b1 3c e3 a8 71 bd 93 96 73 3c 3b d8 6d bd
       0.021666793 -0.058998954 0.014867443 -0.05806754
0001b0 de 94 cc 3d f2 b6 27 3d 79 fe 2e bc 35 2d 21 be
       0.09989332 0.040945955 -0.010680788 -0.15739901
0001c0 4a d4 63 be 72 4a 34 bc 0d 7b 1e bd 60 7c 37 3c
       -0.2224895 -0.011004077 -0.03869157 0.011199087
0001d0 0f 73 90 bc 69 33 36 bc 47 23 ed bd 20 f6 a1 3c
       -0.01763299 -0.011120656 -0.11578994 0.019770682
0001e0 b1 b4 81 bd c3 32 79 bc a3 1a 2f 3c 06 ac 39 3d
       -0.06333292 -0.015209856 0.010687503 0.04533007
0001f0 b0 bc 59 bd f6 d2 ad bd ba 78 6e bb b5 6a 2a 3c
       -0.053158462 -0.08487503 -0.0036387877 0.0104014175
000200 d8 d1 a1 bd 3b 97 16 be 6e 5a 98 3d 3b 3d 00 3d
       -0.07901353 -0.14706127 0.07439123 0.031308394
000210 6d 72 d4 3c 94 63 85 3d fe 5f 08 3d 16 69 30 bd
       0.025933469 0.06513134 0.03329467 -0.043068968
000220 cb a0 2d 3d cb 83 a3 3d 5b 4b 49 3d 53 4c 86 3c
       0.042389672 0.07984122 0.04914413 0.016393816
000230 9f 3c a7 3d 30 f2 8d 3d f9 b3 8d bd e7 0e 80 bc
       0.081658594 0.06930959 -0.06919093 -0.015632106
000240 40 9a 12 3b 0a 01 1d 3d 21 1b 7e 3d 1c 8d 37 3d
       0.0022369772 0.03833107 0.06203759 0.044812307
000250 9c 69 a9 3d d5 a0 91 3d bd 2d 67 3d 92 55 9f 3c
       0.082720965 0.071107544 0.056440104 0.019449983
000260 af ab 4a be fe 36 4a 3d 8f b2 9b 3b c0 fe 5c bd
       -0.19792055 0.04936885 0.0047515105 -0.053953886
000270 b4 cf f7 3d 3a 73 67 bc 0c 17 6c 3d 23 2b 1c 3d
       0.12100163 -0.014126593 0.057639167 0.038127076
000280 65 b5 7c 3d 7d 83 6b 3d 32 bd 89 bc 99 4b b5 3c
       0.06169643 0.057498444 -0.016813848 0.022130774
000290 7e ed b8 bc d8 06 47 3b 3c df 61 3d 96 bd e9 3d
       -0.022574183 0.003036907 0.055144534 0.11413114
0002a0 14 da 30 bb c3 6f c1 3d 7d d6 ad 3c 65 fa 91 bc
       -0.0026985453 0.09445145 0.02122044 -0.017819593
0002b0 29 c2 02 3d 7a bc 50 3d 1d c4 9b ba 31 cb 18 3d
       0.031923447 0.050960995 -0.0011884008 0.037303153
0002c0 1c 99 77 3d 82 33 ed bb c5 63 dc bb e2 5c eb bb
       0.06044875 -0.007238806 -0.0067257606 -0.0071827034
0002d0 76 80 28 3e bb e6 50 3d c6 e5 9f 3d a7 07 58 bc
       0.16455254 0.05100129 0.07807498 -0.013185418
0002e0 a9 16 d8 3b 28 3b 07 bd 19 c6 c2 3d 75 97 96 3d
       0.006594498 -0.0330154 0.095104404 0.07353107
0002f0 26 f5 7e 3d fe ae 06 bd a9 aa a3 3d d3 fc 55 3d
       0.06224551 -0.03288173 0.07991535 0.052243065
000300 9f 42 a6 3c 4e 50 6b 3d ea d5 99 bd ef 53 35 3e
       0.02029544 0.05744963 -0.07511504 0.177078
000310 ca 42 a3 3d 12 5f f9 bd 51 97 7a 3c e0 74 a0 3b
       0.079717234 -0.12176336 0.015294866 0.004896745
000320 54 9b 99 3e db 21 97 3c ad 0a 4f bd 4a f8 ba 3d
       0.30001318 0.01844876 -0.05054729 0.09129389
000330 84 66 ef bc 72 c6 bd 3d 0c 03 68 bd b4 a8 d2 bc
       -0.029223688 0.09266366 -0.05664353 -0.02571521
000340 bb 66 84 bc 07 4f c3 3d 5c fe 54 3d 1e 19 f0 bc
       -0.016162267 0.09536558 0.05200039 -0.029308852
000350 e6 22 5c 3d 6a f9 a0 3d 14 12 89 bc 11 3c 95 3c
       0.05374422 0.07860072 -0.016732253 0.018217118
000360 35 50 9d 3d a2 7b aa 3d 42 03 88 bd 52 64 6b ba
       0.07681314 0.08324362 -0.066412464 -0.00089794875
000370 2d 73 34 3b f4 31 f3 bd 4a fa 1b 3d 8e 3e db bd
       0.002753447 -0.11874762 0.03808049 -0.10705291
000380 a3 e6 13 3e 59 82 2d 3d c5 98 90 3c 5f 97 16 3e
       0.1444345 0.042360637 0.017650971 0.14706181
000390 5b 0d f0 bd da af a7 3d 82 10 26 bc 69 64 d5 3b
       -0.11721297 0.08187838 -0.010135772 0.006512214
0003a0 23 16 fa 3c 20 5d 04 3c a3 b4 aa 3d 62 c0 90 bd
       0.030528134 0.008078843 0.08335235 -0.07067944
0003b0 1e a5 69 bd ef 40 06 be 80 a3 a6 ba 7e 64 09 3b
       -0.057042234 -0.13110708 -0.0012713522 0.002096444
0003c0 cb 6a c9 3d 02 dd 0f 3d 0b 27 48 bc 31 22 c0 bd
       0.09834822 0.03512288 -0.01221634 -0.093815215
0003d0 40 db 40 bc d4 09 af 3c f0 cb 1c 3d f2 58 c0 3c
       -0.011771023 0.021366991 0.038280427 0.023479912
0003e0 95 a5 66 3d d1 0d 8b 3c 85 fa a9 bd 10 f7 06 b9
       0.056310255 0.016974362 -0.08299736 -0.00012871274
0003f0 50 a8 f0 3d 69 75 4e 3d fc b5 5e 3c ad d8 93 3d
       0.11750853 0.05040494 0.013593193 0.07219062

bias f4 [256]
000000 ba fc 15 3e 73 d8 7f 3c 1d 63 00 3e eb a4 cd 3d
       0.14647189 0.01561557 0.12537809 0.10041221
000010 98 40 0d 3e cb 31 cc 3b fd 61 0b 3e 3c 00 67 3d
       0.13794172 0.0062315217 0.13611598 0.056396708
000020 01 f3 51 bd c6 e2 b4 be 6a 15 d2 3d 71 a4 e6 3d
       -0.051257137 -0.35329264 0.10257991 0.112618335
000030 69 61 bf be 9b 2f ca be f2 24 5e bc 18 03 dc be
       -0.37379006 -0.39489445 -0.013558613 -0.4297111
000040 01 b3 80 3d 2c f9 10 3d e9 62 6a 3e dc 91 7a bd
       0.06284142 0.03539388 0.22889294 -0.06117426
000050 9b d9 f5 3c fc 97 aa bd a2 a9 80 3c 7c cf d9 3c
       0.030010989 -0.0832977 0.015705887 0.026588194
000060 96 01 7d 3c 80 65 7d 3d 31 e5 17 bd b1 70 45 3d
       0.015442273 0.061864376 -0.03708381 0.048203174
000070 05 01 76 3d be 4c d0 3d fc 5c 85 bd 1c 36 02 3e
       0.060059566 0.101708874 -0.06511876 0.12715954
000080 ce 42 29 3e f9 60 50 bb 89 6c 31 3e 37 d3 64 bd
       0.1652939 -0.0031796081 0.17326559 -0.055865493
000090 f4 4e 32 3d 9d 9e 0c 3e b3 5b cf 3d d7 7e 0d be
       0.043532327 0.13732381 0.10124912 -0.13817917
0000a0 dc 58 fa bb e3 7a b8 be 33 a0 b6 3d 57 3d fd be
       -0.0076399874 -0.36031255 0.08917274 -0.4946086
0000b0 49 db bd 3c b3 84 1e bc db fa c1 be cb 96 0a 3d
       0.023175852 -0.009675193 -0.378867 0.033835214
0000c0 0c fc ad be 0d 15 72 bd 73 88 23 3d db eb 00 bd
       -0.3398136 -0.059102107 0.03992505 -0.03147493
0000d0 cb ff 87 ba 14 e9 c1 3c 04 80 85 3d 59 67 e2 3d
       -0.0010375915 0.02367071 0.06518558 0.11054868
0000e0 00 0c db 3d 97 81 20 3e 25 a1 1c 3d 82 23 94 3d
       0.10695648 0.15674435 0.038239617 0.07233335
0000f0 39 08 34 3d 54 cd 04 3e 8d 8a 5b 3b 56 07 8e bd
       0.043953154 0.12968951 0.003349933 -0.06934993
000100 d6 ca 26 bc 60 39 88 3d 3f 37 08 3d c6 dd d7 bd
       -0.010180196 0.066515684 0.03325581 -0.10540347
000110 36 89 c6 3d d2 fa b7 bd 34 f8 02 bd d9 33 0a bd
       0.0969414 -0.08983387 -0.031974986 -0.033740852
000120 52 74 a5 bc ed 6f 1e 3c fe 0c 7d bd 62 9a 84 3e
       -0.020197067 0.00967024 -0.06177997 0.25899035
000130 3a 7b be 3c 60 4b 8c 3d 87 82 ec 3c 43 df b5 bc
       0.023252118 0.06850314 0.028870834 -0.022201186
000140 81 36 a8 be ba 4e 36 bd a1 a1 24 bd b8 46 ee 3c
       -0.32854083 -0.044508673 -0.040193204 0.029086456
000150 1c 16 be bc f6 33 28 3d 0d cb 46 3d 3a bc 53 3d
       -0.023203902 0.04106518 0.048533488 0.05169318
000160 c5 16 df 3b a4 98 1f bc 72 58 08 3e e8 2d ae bd
       0.0068081343 -0.009740982 0.13314989 -0.0850485
000170 7b 96 a9 3a 87 45 03 3d 24 36 13 3d 08 e5 0b 3e
       0.0012938523 0.03204873 0.035940304 0.13661587
000180 20 46 c6 ba 41 3d ea bc c6 f6 fe 3c c7 d1 fd 3c
       -0.00151271 -0.028593661 0.03112353 0.030983819
000190 29 e6 d9 3d 12 29 de 3c 5b 3a 0e 3e 03 1b 3e bc
       0.10639603 0.027119193 0.13889448 -0.01160312
0001a0 02 80 f6 3d 9c ea 4f 3d 8a 93 5d bd de 7e 98 39
       0.12036134 0.05076085 -0.054095782 0.00029086223
0001b0 c0 40 b2 bb 9d 66 95 3d b4 f2 83 3d ce 26 b7 3d
       -0.0054398477 0.072949626 0.06442776 0.08942948
0001c0 4e 77 30 ba c3 3f 6c 3c 81 b7 01 3e 73 df cf ba
       -0.0006731645 0.014419499 0.12667657 -0.001585944
0001d0 f5 84 03 3e 8b e3 58 3d 4f e5 1e bc 55 85 05 3e
       0.12843688 0.052951377 -0.009698226 0.13039143
0001e0 cf 43 a3 bd c7 fc 52 bc e1 b5 d9 3d 8c 0a 85 3d
       -0.07971918 -0.01287765 0.10630394 0.06496152
0001f0 76 3a 84 3a 40 2a 9f 3d 98 50 67 bd dd 4e 52 bd
       0.0010088223 0.077717304 -0.056473345 -0.05134474
000200 53 25 2e 3e 95 a3 0b 3d 59 c3 4d 3d 56 90 01 be
       0.17006426 0.03409155 0.050235126 -0.12652716
000210 a1 bf 35 3e ae d1 d4 3d 91 52 7c 3e 2b 25 12 bc
       0.17748882 0.10391556 0.24640872 -0.008919994
000220 fe e5 94 bd 36 66 f1 bb dc fb 98 bc 78 28 8d 3d
       -0.0727043 -0.007366921 -0.018674783 0.068924844
000230 df 5a 68 3d 6d 8d 0f 3d a7 45 ab be d5 42 a6 3d
       0.056727286 0.035046984 -0.33451578 0.08118216
000240 37 99 26 3e b9 9b e3 3d f8 32 1a 3d 9c 91 49 3d
       0.16269384 0.11113686 0.037646264 0.04921113
000250 ae ff 85 bd a6 15 20 3d 23 9f 19 bc 33 9e 1c 3e
       -0.06542908 0.039083146 -0.00937632 0.15294723
000260 28 c1 83 bd e4 d8 90 bc 4a cf 30 3d 5a 03 99 bd
       -0.06433326 -0.017681547 0.043166436 -0.074713424
000270 4c c2 28 bd 06 30 ad bd 8a c9 0c bf e3 d7 0e 3d
       -0.04120092 -0.08456425 -0.54995024 0.034873854
000280 06 d2 76 bc 4d 9e 4d 3e a5 f5 50 bd 91 e2 ab bd
       -0.015064722 0.20079918 -0.051015515 -0.083928235
000290 7f bc ca 3d 06 12 02 3e 1f c4 99 3d 4a 54 b0 3c
       0.09899234 0.12702188 0.0750811 0.021524567
0002a0 d6 8a 15 3d 37 ae f1 bc 5b 96 b2 3d a3 3e 6c bd
       0.036509357 -0.029502017 0.08720084 -0.057676923
0002b0 a9 40 c3 bc 2f 87 10 3e 81 dd f1 3d 76 61 96 3d
       -0.023834543 0.14114068 0.11809827 0.07342808
0002c0 d7 c5 77 bc 38 11 5e bc 32 0e 16 be 3c fb 90 3d
       -0.015122852 -0.01355391 -0.14653853 0.07079169
0002d0 78 d4 3e 3d d3 26 6a 3d 22 72 77 3c 0d fa 33 3d
       0.046589345 0.057165932 0.015102895 0.04393964
0002e0 28 20 8c 3e d5 4b 7e 3d f9 7c f4 3d 6b c6 9a 3d
       0.27368283 0.062084038 0.11937899 0.075573765
0002f0 ea fa 12 bb cb f7 89 3c a8 93 98 3d 59 64 8f 3e
       -0.0022427388 0.01684179 0.07450038 0.28006247
000300 55 df 4d bc b9 d6 39 3c 81 1f f4 3d 1e 51 b8 3d
       -0.012565454 0.011342698 0.119200714 0.08999847
000310 3b e4 aa be eb 41 8f bd 0a a2 30 3c fe fe 4a 3d
       -0.3337725 -0.06994995 0.010780821 0.049559586
000320 d7 44 4a 3d b7 00 5d 3d d0 41 14 bc 5f 4b 5c 3d
       0.049382057 0.05395576 -0.009048894 0.053782817
000330 b9 9b ce 3d e5 61 a0 3c 6c f2 5b 3d b7 9b 30 3c
       0.100882955 0.01957793 0.05369799 0.010779313
000340 69 ca a3 3d 8f c2 5c bd 71 b0 34 3c b4 4a 57 3e
       0.07997591 -0.053896483 0.011028395 0.2102459
000350 09 17 38 3e 00 8f 32 bd 8c 60 0f 3d 1c ff 8a bb
       0.17977537 -0.043593407 0.035004184 -0.004241837
000360 e7 f3 f0 be 24 41 89 3d 28 97 bf 3d a8 31 4b 3e
       -0.47061083 0.06701878 0.09355003 0.19843161
000370 f8 44 87 bd ab 0a 45 3c 38 1f 45 3d 79 fc 15 bd
       -0.066049516 0.012026469 0.048125476 -0.03661773
000380 66 e9 52 3e 15 ba d9 bc e3 49 aa be 76 97 84 3d
       0.20596847 -0.026577989 -0.33259496 0.064742014
000390 ff e0 9e 3c 42 e4 28 3d 19 13 17 bd 97 c7 9d bd
       0.019394396 0.04123331 -0.036883447 -0.07704084
0003a0 60 6c 8e 3d 32 28 97 3d c0 77 3a 3d 1d b9 ac 3d
       0.06954265 0.073807135 0.04552436 0.08433745
0003b0 b7 88 ce 3c 0c bd af 3a c3 a0 a3 3d 0c f4 b8 3d
       0.025211675 0.0013407781 0.07989647 0.09030923
0003c0 ab 96 db bc ca df a2 3c 67 81 f8 3d 90 e6 ee be
       -0.026805243 0.019882102 0.121340565 -0.4666028
0003d0 45 62 f2 3d f0 88 29 3d a9 00 6f bc e7 51 67 3d
       0.1183515 0.04139036 -0.01458756 0.056474593
0003e0 ff e3 7b 3c 20 c5 5f 3b 4a d3 4e bc 81 0b 56 bd
       0.015374183 0.0034144595 -0.012623617 -0.052257065
0003f0 23 6e e9 3d be 60 94 3d 69 81 e2 3b 8e 27 9d 3b
       0.1139796 0.072450146 0.0069123995 0.004795975

weight f4 [1, 256]
000000 db 82 97 3d 2f 19 c3 3d 29 7f a5 3d 1c 9f af 3d
       0.073980056 0.09526288 0.080808945 0.085752696
000010 60 a0 82 3e f5 74 bd 3c 26 df f3 3d 08 17 27 bd
       0.2551298 0.023127059 0.119077966 -0.04079345
000020 19 7b 3c be e1 09 e5 3e cb 86 c7 3d f1 3a c9 3d
       -0.18406333 0.447341 0.097425066 0.09825695
000030 c4 18 d9 3e 8e e7 ea 3e bf fc 37 be 26 30 00 3f
       0.42401707 0.45879787 -0.17967509 0.5007347
000040 d0 98 a0 3d 61 c3 42 be 19 24 8a 3e c8 25 b5 bd
       0.07841647 -0.19019844 0.26980665 -0.08845097
000050 1c d4 8a 3e 9b 8c 3f be 2a 68 70 be a7 2f 9a be
       0.27114952 -0.1870598 -0.23477235 -0.3011448
000060 20 db a8 be 04 94 cc 3d a4 be ec bd 34 75 6b bb
       -0.3297968 0.09989169 -0.11559799 -0.0035928013
000070 2c d9 5e be a1 0f d2 3d 36 25 31 be 89 2a 8f 3e
       -0.21762532 0.10256887 -0.17299351 0.2796214
000080 06 2d 83 3e bf cc 1d be 94 6c 94 3d 6e 1f 00 3d
       0.25620288 -0.15410136 0.07247272 0.031279974
000090 a0 b6 5b 3d 01 8c 95 3d 2b 62 f5 3d 97 17 50 be
       0.05364096 0.07302094 0.11981615 -0.20321499
0000a0 6c a6 15 be d1 46 c1 3e d6 48 69 be 23 e7 fd 3e
       -0.14614266 0.3774934 -0.22781691 0.49590406
0000b0 fa f7 5c be ea c3 30 be b1 ee e5 3e 9c 6f 81 be
       -0.2157897 -0.17262235 0.4490867 -0.25280464
0000c0 42 eb b4 3e aa 79 d3 3c 89 42 06 bc 71 2d 80 be
       0.35335737 0.02581485 -0.008194574 -0.2503467
0000d0 e3 f7 3d be 8e 59 ec 3d 02 bb b9 3d f2 d5 ef 3d
       -0.18551593 0.11540519 0.09068872 0.11710729
0000e0 d5 01 be 3d 12 a2 8e 3d 40 49 2d be 72 1f 2f be
       0.09277693 0.06964506 -0.16922474 -0.17101839
0000f0 5e f3 89 be d2 63 9e 3d 27 a1 92 bd b4 06 76 be
       -0.26943487 0.07733883 -0.071596436 -0.24025995
000100 29 9b 42 bd 97 1a a8 3d 66 e2 66 3d eb 5b 40 be
       -0.047511254 0.082081966 0.056368254 -0.18785064
000110 fe 06 d6 3d 12 14 82 be ca 65 97 be cb a3 9a be
       0.104505524 -0.25405937 -0.29569846 -0.3020309
000120 39 2e e1 bc 3d a8 dd 3d 56 18 67 be 42 0b b5 3e
       -0.027487861 0.108231045 -0.22567877 0.35360152
000130 81 22 af 3d 41 62 d2 3d 46 b2 98 be 11 eb 53 be
       0.08551503 0.10272647 -0.29823512 -0.2069514
000140 37 97 c0 3e b1 77 1b be c0 6b 15 be 5b dd 01 3e
       0.37615368 -0.15182377 -0.14591885 0.12682097
000150 50 49 04 3d 0a 74 4f be 75 77 e3 3d 43 fa ab 3d
       0.03229648 -0.20259109 0.11106769 0.08397343
000160 6e f7 af 3d 4f 7d b5 3b 4d 40 44 3e 20 c6 68 be
       0.08592115 0.0055386196 0.19165154 -0.22731829
000170 00 39 54 bd d7 e6 5d be 55 f0 50 be 1d 09 cd 3d
       -0.051812172 -0.2167009 -0.2040418 0.10011504
000180 73 42 18 be 51 28 40 be 4b a9 8a 3d 40 02 3c be
       -0.14869098 -0.1876538 0.06770571 -0.18360233
000190 06 22 5f be e6 a8 d3 3d 34 ac bb 3d 7e 93 44 be
       -0.21790323 0.10334949 0.091637045 -0.19196889
0001a0 db 09 ee 3d 85 c7 49 be 1f 03 f2 bd 72 16 86 be
       0.116229735 -0.19705017 -0.118170016 -0.26189
0001b0 f8 c1 6e be 72 9c 08 3e 27 ad 81 be 24 cf a2 3d
       -0.2331618 0.13340929 -0.25327417 0.07949665
0001c0 00 44 48 be c6 ce 37 3d 21 7d d8 3d b4 46 1c be
       -0.1955719 0.04487493 0.105707414 -0.15261346
0001d0 ef 0a f4 3d 43 3c ce bd 96 94 74 be 4b 78 9a 3d
       0.11916148 -0.10070088 -0.23884806 0.07542475
0001e0 1a 41 99 be 03 1e cd bd 23 d2 ac 3d 32 d5 48 be
       -0.2993248 -0.1001549 0.08438518 -0.19612578
0001f0 e3 b7 a6 be d5 84 dc 3d d7 c5 b7 bd 25 ee f8 bd
       -0.3256217 0.10767523 -0.08973282 -0.121547975
000200 88 5c 47 3e 2b da 39 be dd ca e9 3d f8 e1 97 be
       0.19468892 -0.1814963 0.11415646 -0.29664588
000210 ce d8 a1 3d 98 6d b6 3d 7b 80 75 3e 75 5b 41 be
       0.0790268 0.08907622 0.23974793 -0.18882544
000220 06 24 9b be e3 92 eb 3d 3c 20 03 be 31 4a 6c be
       -0.3030092 0.11502626 -0.12805265 -0.23075177
000230 d6 95 a3 3d c8 7c c0 3d 3d bb f6 3e ab be 20 be
       0.07987563 0.093988 0.48189726 -0.15697734
000240 e3 44 75 3e 17 fb fb 3d 5e e9 b0 3d 5b c2 5b be
       0.2395206 0.12303751 0.08638261 -0.2146086
000250 61 eb 55 be 14 8f 7c be 13 16 0b be a6 be 95 3d
       -0.20890571 -0.24663955 -0.1358264 0.07311754
000260 60 fe b2 39 fb 04 29 be e3 cf e5 3d f0 c2 99 be
       0.0003414033 -0.16505806 0.11221292 -0.30031538
000270 5c 4c 21 be 73 ae 91 be d7 29 01 3f 21 6e c5 3d
       -0.15751785 -0.28453407 0.5045447 0.09640146
000280 36 9c b1 bd 4d fa 72 3e d6 42 8e be d9 87 41 be
       -0.08672373 0.23728295 -0.27785367 -0.18899478
000290 37 f0 d4 3d c3 08 71 be 33 c8 11 be 72 19 33 be
       0.1039738 -0.23538499 -0.14236526 -0.17490175
0002a0 cf 1f e3 3b d4 8e 1e be c5 f5 98 3d 1b 42 b4 be
       0.006931282 -0.15484172 0.07468752 -0.35206684
0002b0 24 63 e3 bd 73 84 fc 3d ad 0d 68 3d d1 30 04 3e
       -0.11102894 0.1232995 0.056653667 0.12909247
0002c0 4b 15 f7 bd f5 3a 6c be 14 0a 15 be f6 da 3c be
       -0.12064608 -0.23069365 -0.14554626 -0.18442902
0002d0 38 84 84 be 0e 45 2e be b9 0d 78 be 87 47 27 bd
       -0.25882125 -0.1701853 -0.24223985 -0.0408397
0002e0 5a 0e 93 3e e2 56 50 be 2f 7b bc 3d 6f cd 69 be
       0.28721887 -0.20345643 0.09203183 -0.22832273
0002f0 44 c6 82 3d 13 92 eb bd 4b a8 46 be 2a 72 b6 3e
       0.063854724 -0.11502471 -0.19400136 0.35633975
000300 a6 f5 8f be 7e 3c 5d be 1f 73 02 3e 0c 84 73 be
       -0.28117102 -0.21605107 0.12739228 -0.2378084
000310 ef ad ee 3e 42 f1 df bd 64 7a d7 bd 78 c3 b6 3d
       0.46617076 -0.10934688 -0.10521391 0.089240015
000320 05 24 40 be 31 af 8c 3d 54 a1 6d be be 2a b9 3d
       -0.1876374 0.068693526 -0.23206073 0.090413556
000330 87 c3 f4 3d 62 51 74 be 40 c7 fb 3c 5e d9 82 be
       0.119513564 -0.2385917 0.030734658 -0.25556463
000340 9b 80 51 be 6b 0d e7 bd 6b d1 f7 bd 2b 15 67 3e
       -0.20459215 -0.11281856 -0.1210049 0.22566669
000350 72 a1 39 3e 30 85 41 bc 37 99 eb ba f2 c1 49 be
       0.18127993 -0.0118115395 -0.0017974739 -0.1970289
000360 17 62 fe 3e 5a 4b 81 be f3 47 0d 3e 64 99 9d 3e
       0.49684212 -0.252528 0.13796978 0.3078109
000370 22 b5 8c be 72 e9 4e be 6b 0e ac 3d 6c 75 cf bd
       -0.27481943 -0.2020624 0.084011875 -0.10129818
000380 ba f6 60 3e b5 89 9e 3b 02 ee c6 3e dc 4c 97 3d
       0.21969119 0.0048381933 0.3885346 0.07387707
000390 01 b3 23 be 23 d7 5c 3d 2e 7f 6a be 2c 09 29 be
       -0.15986253 0.053916108 -0.22900078 -0.16507405
0003a0 21 13 fd 3d 88 e6 9e 3d 84 fa c1 3c 4d 42 fb 3d
       0.12357164 0.07758814 0.023679025 0.12268505
0003b0 e8 d5 0e be c1 32 98 be af 5c 39 be fa 07 c9 3d
       -0.13948786 -0.29726222 -0.18101762 0.098159745
0003c0 16 a3 13 be 05 13 af bc 0e 94 5e 3e ce 03 09 3f
       -0.14417681 -0.021371374 0.21736166 0.5352143
0003d0 22 a9 80 3d 13 44 37 3d 8f 3c 55 be 77 14 58 3d
       0.062822595 0.044742655 -0.20823883 0.05275389
0003e0 94 9d 74 be 72 0c 53 3d f5 44 89 bd 11 d7 46 bd
       -0.23888236 0.05152554 -0.06702606 -0.048544947
0003f0 72 7a cd 3d eb 92 0a 3e 8c 78 58 be 64 4a c2 3d
       0.1003312 0.13532607 -0.21139735 0.09486845

weight f4 [256, 256]
000000 06 81 c5 3d e7 42 51 bd 92 e3 b2 bd 26 a6 d9 bc
       0.0964375 -0.051089194 -0.08734812 -0.026568484
000010 13 21 f2 bb 0e a5 a1 ba 66 74 12 3d 17 69 a7 bc
       -0.0073891967 -0.0012332515 0.035755537 -0.020435853
000020 39 e0 a2 bd 7e 26 8d 3c 23 1a 5b bd d1 77 be bc
       -0.07952923 0.017230269 -0.053491723 -0.023250492
000030 4f 98 63 be 96 2b 16 3d 57 26 0a bd 90 fa fe 3d
       -0.2222607 0.03666266 -0.03372797 0.12450135
000040 21 af a1 bd 53 ab 88 3d 45 d6 6b 3d 9c 93 19 be
       -0.07894731 0.066733025 0.05757739 -0.14997715
000050 66 4a a9 3d 0a ea 90 bd 89 25 14 3d 77 71 ea b9
       0.082661435 -0.070758894 0.03616861 -0.00044716496
000060 09 11 a4 bd 8c 0b ba 3d 74 25 47 3d fa 0a d1 be
       -0.08011062 0.09084234 0.048619702 -0.40828687
000070 31 fe 1a be 18 f2 e2 bc 6b a8 f5 3c 7f 37 e0 bd
       -0.15136029 -0.02770333 0.029987535 -0.10948085
000080 20 7f 62 bd 00 e6 79 ba 0b db 8b 3d 41 2e fd 3b
       -0.055297017 -0.0009532869 0.068288885 0.007726461
000090 50 0b a2 3c 21 22 2c 3d ed 9c d1 bc f2 f4 fd 3c
       0.019780785 0.042024735 -0.025587523 0.031000588
0000a0 2d e2 24 3d 55 31 8f 3d 00 d4 b6 3b cc 5f 70 bc
       0.04025476 0.06991831 0.0055794716 -0.014671277
0000b0 9f 85 3b 3d 49 5a b4 bb 0b 4f ca be e2 25 e6 be
       0.045781728 -0.005503927 -0.3951343 -0.44950777
0000c0 c2 77 d7 3c 3a 08 11 3d f2 50 a4 bc a3 74 c7 3d
       0.026302222 0.035408236 -0.020058129 0.097390436
0000d0 37 ab c3 bd b3 aa 5e bd 57 84 ad 3c 69 88 43 bd
       -0.09554141 -0.05436201 0.021181269 -0.047737513
0000e0 b3 2b 94 bc 89 99 8d bd 07 67 13 bc 03 30 a3 3d
       -0.018087244 -0.0691405 -0.008996732 0.07968142
0000f0 f7 40 fa bc da b3 d1 be 5f e9 ef bd 3a 8b eb 3d
       -0.030548556 -0.40957528 -0.11714434 0.11501165
000100 b9 6d 36 3c d5 ab a7 3d 00 45 95 38 3d 3e 0d bf
       0.011134558 0.08187071 7.117726e-05 -0.55173093
000110 60 fa 57 bd a8 c4 60 3d 6a b0 0b bd 6c 8e 13 bd
       -0.05272901 0.054875046 -0.03410379 -0.036024496
000120 fd 23 99 bd da 85 03 3e c2 c9 4c bd a4 64 fd 3b
       -0.07477567 0.12844029 -0.0499971 0.0077329446
000130 15 a8 78 bc 4f dc 6c 3d 0e 94 7b bd 76 70 fc bd
       -0.015176793 0.05782729 -0.061420493 -0.12326138
000140 4a 35 18 bd 7d 1c 15 bd af 48 bc 3d b1 03 13 bc
       -0.037160195 -0.03640412 0.09193551 -0.008973048
000150 60 c8 2a bc 08 2f 91 bd c6 24 60 3c 44 f2 42 bd
       -0.01042375 -0.070890486 0.0136806425 -0.047594324
000160 42 5d 06 3d 81 9b 8d 3c 5d 55 5b be 72 32 c8 bd
       0.03280378 0.017286064 -0.21419282 -0.09775247
000170 fa 09 0a 3d 9c 43 4d be bb c4 40 3d c8 d0 e7 3d
       0.03370092 -0.20045322 0.047062617 0.11319119
000180 a1 4e 42 bd b7 60 07 be ce f7 6e 3d 82 ba 1e 3c
       -0.047438268 -0.13220488 0.058341794 0.009688022
000190 35 0e e5 38 e4 c9 7e 3d da e2 11 bd f2 e9 ec be
       0.00010922217 0.062204257 -0.035616733 -0.46272236
0001a0 5f 9f 07 3d 9b d6 85 bd 4a dc da 3c bb 66 11 bd
       0.033110972 -0.06535073 0.02671637 -0.035498362
0001b0 72 bf 43 3c 0f b5 10 3d 51 00 38 bc 98 23 ff bc
       0.0119475 0.03532892 -0.011230544 -0.031144902
0001c0 74 d1 0f 3b b7 00 68 bd 2d 7b 60 bd 9f 6c ec 3c
       0.0021944912 -0.056641307 -0.05480497 0.028860388
0001d0 c1 67 93 3c 82 d3 20 bd f6 fd a1 3c 3c f4 8b 3d
       0.01799381 -0.03926421 0.019774418 0.068336934
0001e0 15 72 80 bb 1e d7 4c 3d 50 6f 7c 3b 0d 4b 74 3d
       -0.0039198496 0.05000984 0.0038518496 0.059641887
0001f0 bd ae d7 3c 9f c4 03 bd c7 1c 04 3d da 7c 84 3d
       0.026328439 -0.032169934 0.032254007 0.06469126
000200 9b 4a 3f 3e 9e 28 9e bd 29 df f5 3c a8 16 ce 3c
       0.18680803 -0.07722591 0.030013638 0.025157288
000210 f2 39 dc bb 8f 12 96 3d 1f b2 d6 bb bc cf ff 3c
       -0.006720775 0.073277585 -0.0065519954 0.031226985
000220 f6 c5 20 3d fa 28 22 3d 1e d8 1e be 9e 69 39 bc
       0.03925129 0.03958986 -0.1551213 -0.011316685
000230 0f c9 2d 3d 09 41 be 3c b0 ba 6a 3d 54 02 5f 3d
       0.042428073 0.02322437 0.057306945 0.05444558
000240 00 80 5d b9 13 c5 30 be 5d 6b 00 bd 33 cc 90 3d
       -0.00021123886 -0.17262678 -0.03135239 0.07070198
000250 4b 30 89 bb 16 a0 a5 3d e7 77 43 bd 39 fe f5 bd
       -0.004186665 0.080871746 -0.04772177 -0.1201138
000260 2e bd 93 be 9d ef e0 3c 5a f9 82 bd 07 d8 39 bb
       -0.2885527 0.027458007 -0.06395216 -0.0028357522
000270 2c aa 98 bb ed 1c cd 3c ef 82 06 bd 34 4c cf bd
       -0.004658958 0.025038207 -0.03283971 -0.101219565
000280 10 89 c3 bb 89 d8 32 be 66 81 c0 3c c8 84 73 3d
       -0.005967267 -0.17465414 0.023499202 0.059452802
000290 00 ce 4e 3d ff d2 b5 bd b6 a3 57 bd 4e 87 e1 3d
       0.050489426 -0.08878135 -0.05264636 0.110121354
0002a0 e3 e9 65 3d f0 f9 46 bd c3 7d 9c 3b 79 40 c9 be
       0.056131255 -0.048578203 0.004775734 -0.39307
0002b0 0e 56 17 bc 00 0e 16 3b 6a ba 2c 3d 5f 3c cf bc
       -0.009236826 0.0022896528 0.042169966 -0.025297342
0002c0 fa 09 ad 3b a4 a5 e6 bc 9c a8 db 3d ba f2 16 3d
       0.0052807303 -0.028155155 0.10725519 0.036852576
0002d0 ea 9f 1b 3d 00 e6 a4 3c e1 c8 69 3c e0 c8 39 bd
       0.037994303 0.020129204 0.014269085 -0.045357585
0002e0 c7 9f ce 3d ca d3 b2 bc f1 c5 b3 bd 94 02 4c bd
       0.10089069 -0.021829505 -0.08777989 -0.049807146
0002f0 59 c0 ea 3b 5a c2 11 bd 1a d3 ae 3d e1 9b 80 bd
       0.007164043 -0.03558574 0.08536358 -0.062797315
000300 20 cf 01 3d bb b1 fe bc 4e f6 1b be 2e 19 ad 3c
       0.03169167 -0.031090608 -0.15230677 0.02113017
000310 f6 d1 8d ba 84 4b 0c be b7 fb e3 bd 61 d1 ff bc
       -0.001082002 -0.13700682 -0.11131995 -0.03122777
000320 61 92 d2 be d2 44 15 3e b5 d4 19 3d 68 5b 19 bd
       -0.41127303 0.14577034 0.03755637 -0.037440687
000330 87 5f 6e bc 52 1d da 3a d7 1c 25 be 98 b4 ba 3c
       -0.014549143 0.0016640818 -0.16124283 0.022791192
000340 37 62 ed 3c 5b ec 24 be 22 a5 38 3d ca 07 0a 3d
       0.028977497 -0.16105787 0.045079358 0.033698834
000350 c7 7c 4f be 81 99 d2 3d d8 43 00 bd f5 b1 ab bc
       -0.20262443 0.10283185 -0.0313147 -0.02095888
000360 8d 69 21 bd bb 43 2e 3c 7c bd f0 3b 5c af 9a bc
       -0.0394073 0.010636265 0.007346807 -0.018882446
000370 25 ed 96 3d fe a6 04 be 66 23 ee bc 62 8d f7 3c
       0.073694505 -0.12954327 -0.029069614 0.030218784
000380 50 ec d2 be ac c1 02 bc 97 eb 9b be c1 c6 f6 ba
       -0.41195917 -0.007980745 -0.30453178 -0.0018827544
000390 53 76 44 be 9c 22 98 bd 09 e6 69 bd 12 fa 74 3d
       -0.19185762 -0.07428476 -0.057104144 0.059808798
0003a0 44 a0 73 3d 40 e8 36 3d 74 f7 6c bd d8 7b f4 bc
       0.059479013 0.044655085 -0.057853177 -0.02984421
0003b0 2e 2e 4a 3d 89 1f 0e 3e 98 fd 51 bc 94 ac 46 bd
       0.049360447 0.13879217 -0.012816809 -0.048504427
0003c0 23 5f 4d 3d 86 da a2 3d 2b 64 ac 3d 43 dc 86 bd
       0.050139558 0.07951836 0.08417543 -0.0658498
0003d0 b2 60 6b 3d b2 3d 69 3d 8a 56 c4 bb f8 38 2b 3d
       0.057465263 0.056943603 -0.0059917616 0.041802377
0003e0 73 a8 69 3e df 7e cc 3c 73 bd 20 be cc 44 52 3d
       0.22818165 0.02496284 -0.15697269 0.05133514
0003f0 b0 5e 4a be 52 ef a2 bc 49 bd f6 3d 1e d3 d0 3d
       -0.19762683 -0.019889507 0.12047822 0.101965174

bias f4 [256]
000000 b6 00 81 3d 15 60 09 3d 3b 4c be 3d 6e 9d 89 3c
       0.06298964 0.033538897 0.092918836 0.016798701
000010 04 90 a7 3d aa 3c 53 bd d6 aa 9d bd e4 70 18 bd
       0.08181766 -0.051571526 -0.076986 -0.037217036
000020 34 c6 68 3d 80 be 09 3c 80 d7 8d 3d 45 f7 02 be
       0.056829646 0.008407235 0.06925869 -0.12789638
000030 3d 33 74 3e 23 b0 33 3e b8 3b ac 3c e9 eb 12 bd
       0.23847671 0.1754766 0.02102457 -0.035869513
000040 6e e0 d3 bd 56 79 63 3e 14 9f ff bc 56 54 42 bb
       -0.10345541 0.22214255 -0.031203784 -0.002965232
000050 97 84 83 3e 20 d4 95 3d bb 33 33 3d 1f 9a 56 3e
       0.25687096 0.0731585 0.043750506 0.2095723
000060 11 0e 56 3e 9f 38 57 3e d8 5e 61 3d ce 41 44 bd
       0.20903803 0.21017693 0.05502209 -0.04791432
000070 40 21 08 bd ec 6b 07 be 3e 45 89 3c 5c 77 8d 3d
       -0.033234835 -0.13224763 0.01675665 0.069075316
000080 40 79 db bb d1 01 50 3e 2c 19 bf 3d b4 fc 66 3d
       -0.0066978037 0.20313193 0.09330973 0.05639334
000090 59 38 c9 3c c6 6c 8d bd ee 2f ec 3d 8a d8 dd 3d
       0.024563001 -0.069055125 0.11532579 0.10832317
0000a0 58 5c 85 be 40 00 21 be 5b 92 47 3d 9a 12 51 3c
       -0.26047015 -0.15722752 0.04872356 0.012760783
0000b0 b9 23 71 be 91 1b 8b 3d 97 66 dd 3d 95 aa 93 3e
       -0.23548783 0.06792367 0.10810583 0.2884108
0000c0 82 3c 24 3d cd e6 92 bc 2d 1f fe 3d 4e 55 9d bd
       0.040096767 -0.01793232 0.1240829 -0.07682286
0000d0 88 69 2c 3d 7e 79 cd 3d a3 f9 92 bd 8e 1f c0 3e
       0.04209283 0.100329384 -0.07176521 0.37524074
0000e0 b2 34 68 3c 40 37 95 bd bd 84 48 3e 0d cf 00 3e
       0.01417272 -0.07285929 0.19581886 0.12578984
0000f0 80 c2 17 3e c6 9b 2e 3e f8 38 79 3e 97 a1 0b 3e
       0.1482029 0.1705161 0.24338138 0.1363586
000100 8c 1c 6c 3d 51 51 f9 bd 91 e9 4b 3c ba 28 84 3d
       0.057644412 -0.12173713 0.012445823 0.064530805
000110 36 b8 2e 3e 63 2f 04 bd 86 ff 19 3e 6c 19 2d 3e
       0.17062458 -0.032271754 0.1503888 0.16904229
000120 14 58 76 3e 56 56 34 3e fa 76 7c bd b0 c4 0b 3e
       0.24057037 0.1761106 -0.061636902 0.13649249
000130 24 ab a9 3d db 4c 3f 3e 59 e6 fe 3c 3a 86 8b 3d
       0.082845956 0.18681662 0.031115698 0.06812711
000140 b4 88 76 3e 3f 6a 04 3e 7c 20 18 3e 58 50 60 3e
       0.24075586 0.12931155 0.14856142 0.21905649
000150 e6 3e 0d 3d 88 a6 b8 bc 7e c4 c4 3d 79 3f 8c 3d
       0.034483813 -0.022540346 0.096077904 0.06848044
000160 49 fd 3f be 52 52 07 3d d7 f4 51 3d e8 1a b2 bd
       -0.18748964 0.03303749 0.051258888 -0.08696538
000170 97 c6 9d 3d 51 45 94 3d ec 85 1e bc 5a ef 5a 3d
       0.07703894 0.072397836 -0.009675484 0.05345092
000180 f9 40 87 be 0a 79 79 3e 14 20 04 3e 91 b3 bd bd
       -0.26416758 0.24362579 0.12902862 -0.09262765
000190 32 37 3d 3e e8 98 db bd c9 19 89 3d 90 c9 61 3e
       0.18478087 -0.10722524 0.06694371 0.22049546
0001a0 88 61 54 3d d5 7b 55 3c 2c 72 85 3d f2 f5 be bd
       0.051850826 0.013030012 0.06515917 -0.09324254
0001b0 c6 f1 06 be 5d 46 90 3e c5 51 96 bc 32 b6 d7 bd
       -0.13178167 0.28178683 -0.018349538 -0.10532798
0001c0 08 4d b0 3c f6 4e dc 3d cf 2e bb 3d bf 6e bf 3d
       0.021521106 0.10757248 0.091397874 0.09347295
0001d0 7e dd 02 3e ae be c1 3d 34 7b 74 3d 77 c7 32 3e
       0.12779805 0.094601974 0.05968781 0.17458902
0001e0 76 63 77 3d d2 b7 ec 3d fd 15 87 3d c0 58 b9 bc
       0.060397588 0.115584984 0.06595991 -0.022625327
0001f0 66 1e 1c bb 0d f1 fb 3d 5a cd 66 bd c7 0e 33 3e
       -0.002382183 0.12301836 -0.056348182 0.17486106
000200 75 ad 55 3d 1e e0 59 3d 6a f3 16 3e 2c 26 d0 3d
       0.052167375 0.05319225 0.14741293 0.10163531
000210 64 97 1b be 6b 95 93 3d 7f 21 04 be 7e d2 2b 3d
       -0.1519447 0.072062336 -0.12903403 0.041948788
000220 ee dc e1 bc 90 54 ec 39 4a 60 a3 3d eb 5b 53 bc
       -0.027571168 0.00045076432 0.0797735 -0.012900333
000230 ec af fb 3d a2 82 5b bc 5a c2 58 3e e8 5f 36 3e
       0.12289414 -0.0133978445 0.21167889 0.17810023
000240 83 7e e9 3c c4 f7 49 bd d4 da 42 3e 15 7b 42 bb
       0.028502708 -0.049308553 0.19028789 -0.0029675413
000250 d6 03 bc 3d ef 18 84 3e 1b 11 09 be 7e 69 92 3d
       0.09180419 0.25800273 -0.13385431 0.07149027
000260 2d f7 27 3d 28 06 43 3e e4 e4 45 3d a5 ea dd 3d
       0.04100721 0.19045317 0.04831399 0.108357705
000270 28 c5 ef bd cc 07 5c 3d 25 02 89 be b2 12 3e 3e
       -0.117075264 0.053718373 -0.2675945 0.18561819
000280 59 38 80 bd 24 82 07 3e 9f 7e 95 be eb 0b 93 3d
       -0.062607475 0.13233238 -0.29198167 0.071800075
000290 3a d0 32 3d 81 93 fe 3a 46 b9 0e 3e 42 67 8c be
       0.04365561 0.0019422622 0.13937864 -0.2742253
0002a0 91 43 df 3d 1b 0b e1 3c 22 91 11 be ff f7 87 3e
       0.10901559 0.027471116 -0.1421552 0.26556394
0002b0 00 2f 97 bd dd 60 3e 3d 4b 5e 38 bd dc fb 8e 3d
       -0.073820114 0.046479095 -0.0450118 0.06981632
0002c0 e0 d8 72 3e 34 9f 17 bc 29 60 0d 3e df 23 fc 3d
       0.23715544 -0.009254266 0.13806213 0.12311529
0002d0 a1 c1 cd bc 20 5c 05 3e 54 f0 46 3e 84 e5 1f bd
       -0.025116744 0.13023424 0.19427615 -0.039037243
0002e0 87 2a 38 3d 63 8b b3 3c 47 4c 75 bd 17 de 36 3e
       0.044962432 0.02191705 -0.059887197 0.17858158
0002f0 70 27 27 3e 87 f4 de 3b 28 39 1c be 41 6a a9 3d
       0.16323638 0.0068040523 -0.15256178 0.082722194
000300 97 d1 ce 3d 1d ab e5 bd c3 ba 11 be e8 a8 2a bd
       0.1009857 -0.11214278 -0.142314 -0.041664988
000310 64 75 c9 3b 38 e1 b3 bd 5c 6e a1 3c 2c e6 29 3e
       0.0061480273 -0.087831914 0.019705944 0.1659171
000320 6e ec 4c bd 11 8a f6 bc 90 b6 2d 3b 46 ec 04 be
       -0.050030164 -0.030095132 0.002650652 -0.12980756
000330 03 55 db 3d 78 88 b7 bc 08 ea 06 be 17 1c 4e 3e
       0.10709574 -0.02240394 -0.13175213 0.20127903
000340 f8 ad f9 3c 04 97 a3 bc 1b af e5 3c 35 17 35 bd
       0.030478463 -0.01996947 0.028037598 -0.044211585
000350 38 f0 37 be 61 ae 3b 3e 44 69 d2 bd 4d 95 ba 3d
       -0.1796273 0.18328239 -0.10273984 0.09110508
000360 7b e8 13 3e 83 1f 87 bd 0c 38 e6 3d 7d 04 5b 3e
       0.14444153 -0.06597807 0.11241159 0.21388431
000370 c8 07 17 be e3 31 b0 bd 1b 0b 2a 3e a9 df bf 3c
       -0.14749062 -0.08603265 0.16605799 0.02342208
000380 f0 9c 0c 3e 7e fa fb 3c 48 78 20 bd fa 76 c9 3d
       0.13731742 0.030759092 -0.03917721 0.09837146
000390 1b 31 42 3d 30 00 b0 3d c4 75 2c 3e 9b 7d ce 3c
       0.047410112 0.08593786 0.16841799 0.025206378
0003a0 a9 44 37 bc 00 91 ad 3d de 95 1c 3e 45 5b e6 bd
       -0.011185803 0.08474922 0.15291545 -0.11247877
0003b0 4a 5d 8e be 8b 95 00 3e a8 c5 70 3d 46 8c 61 be
       -0.2780555 0.12557046 0.05878225 -0.22026166
0003c0 d8 6c 2f 3e 7d eb d2 bd cb 7b 60 bd 9f aa 06 3d
       0.17131364 -0.10298822 -0.05480556 0.03287756
0003d0 21 f6 9c 3b 08 79 f0 bd c1 ab 18 be 11 68 5f bd
       0.004790083 -0.11741835 -0.14909269 -0.054542605
0003e0 2d 5d 02 3e b5 7a 53 3e 0f 42 0c ba b8 af 9b be
       0.12730856 0.20652278 -0.00053504197 -0.304075
0003f0 cf b9 12 3e 7a 98 40 3d 35 10 81 3c 20 a3 2e 3e
       0.14328693 0.047020413 0.015754798 0.17054415
