RL/net_params.pt (torch, 547627 bytes, 9 tensors)

weight f4 [256, 7]
00000000: c7b0 8e3d f5aa dbbe 4c67 143e 2dd3 6c3e
00000010: 52f9 c3bd bd3f 46be 9c37 6fbe e392 ad3d
00000020: 4255 64bd 684d 6139 0449 39be d47b b63e
00000030: 6521 c7be 2c16 9cbd 614f 943e f1b0 2abe
00000040: 610b 16bf 6d94 a03c 3350 493c b0d6 e2bd
00000050: eec2 363e 6af9 3cbe 44ba a4be 76bc b53d
00000060: 8ebc 843e 7c21 db3e 3563 bfbd 8801 5e3d
00000070: a82c 8fbe ce27 6dbe 85fb ee3d e5c4 b53e
00000080: caae b93e 587a fdbd d9a9 893e ffcc 26bf
00000090: c3ba c4bd 699d 463e d2a5 493e 5904 c8be
000000a0: 0122 39be 5a37 4c3e 57a2 26be 4076 d5bd
000000b0: e49c 383d 0adc e3be 5689 bcbe ac09 793e
000000c0: 620e 8dbe 22a3 bebe 37f9 843e 42ad babd
000000d0: 4a9e 6a3d b79c 673e fe0b 0abe 80f4 6c3d
000000e0: 95d4 d13e 173a b83d 629a 893e 4a5c 91be
000000f0: 0123 08be af46 66be 004e 98be 51d4 9c3e
00000100: a00a 12bf f7aa d23e af20 bd3d ab74 bebe
00000110: 0e96 79be 18fe 04bd 0059 61be 589b b7be
00000120: f97b b6be b6c9 8ebe 9873 1fbd d90c 0bbe
00000130: 9821 95be 2364 28be c422 bfbe 012c 41bd
00000140: 0d0c a0be 959f aabe 6967 d2bd 4d7f aabe
00000150: ff6e d0bd e690 03bf 115a e6bc c11f 723e
00000160: d8cc 143f 125d 9b3d 296a 4cbe 4270 04be
00000170: 06c9 00be f810 7e3e f040 46bd f186 8cbe
00000180: 0103 e13e 62c4 0bbe 20be 083d d916 b0be
00000190: a1e8 babe 002a ac3b 9132 a2be 9536 48be
000001a0: ce3c a0be acde e1be 7408 5abe 0e33 e93e
000001b0: 88e4 1b3d 3af1 57be 55bc 40bf 8c84 fb3d
000001c0: 2359 78bd f2fc d6bf 193a 35be 167b 1e3e
000001d0: 329d 94bd 2353 8d3e 9994 8f3e 9240 fa3d
000001e0: e0c0 3bbe 6bec a6be ea06 b13e be5e ffbe
000001f0: 7c08 0dbe e72a 8c3e cb34 023e da2d dcbd
00000200: 2adb f0bd 451e af3d dde0 4bbe 916b 9a3e
00000210: 3b52 58be ba33 de3d 91f8 9fbe 28a6 be3e
00000220: f1fe 4ebd e3cf 033e 8a0e 2cbe 2d9c 803e
00000230: 849c 76be aa59 9f3e 6de1 343e 1c08 0cbe
00000240: 0259 86bb 4585 2b3e 2338 8dbe b6b1 86be
00000250: 1d80 7a3e 8fe6 093d 4bf2 543d d1e0 16be
00000260: 7109 813e 0029 82bc 21fb fa3d 9145 c8be
00000270: 11d4 23be e0a2 92be 7d4e c2bc 9a19 2d3d
00000280: a073 a73c b6b7 0fbe 59e9 dd3e 8cc5 3f3e
00000290: 700f 783e 9296 c2be d86b f6bd a6b3 263e
000002a0: 93d0 393e 4943 7bbe 6014 133e 79a1 3c3e
000002b0: 9657 293e d6cf ad3d b48f 903d 2f11 58be
000002c0: cb9e 6cbd 0e71 b0be cf7e 843e 4987 c93d
000002d0: 15dd a73e 06a1 1e3e 64c4 67be 6362 913e
000002e0: e71a 053e d3c0 bb3e 4e57 88be f59a d2bd
000002f0: ade6 1fbe da63 cbbc deb9 b43e 90c2 3fbe
00000300: 7628 42be 59bf 593d f8c1 2fbf d69e 153e
00000310: 1448 973e d47f 08bf 094c 283d f342 93be
00000320: 5e79 fc3e 601b b83d 43b0 a83e 3f5c 90bd
00000330: ff10 a63e 7697 debe 11fc 10bf 9e73 ca3e
00000340: e90e 4bbe 209f 13bc cfaa 613e ce64 80be
00000350: dfe1 ab3e 4652 ff3d 802d 2c3e 536f 05bf
00000360: 92b7 033e 0b36 1d3e aad9 6d3e 4dd5 e23e
00000370: c49f 94be 1d4a 663e 2909 00bf 9889 b4bd
00000380: 52e6 923e 098a 5e3e 6e1b aa3d ff89 5abe
00000390: 4b90 4ebe 1841 f7bc 5b7a 41be fdc2 933e
000003a0: ad16 19bf c2e1 c9bc cfa3 8a3d f145 b2be
000003b0: fb4e 343c 40fe 463c 1fef 8cbe 17be 21bd
000003c0: 620e 75be 64aa 45be fd3e c8be 4056 863c
000003d0: 6e68 093e 4fcd a73e 0197 a53d e84e de3e
000003e0: 28af a2be b0b0 8bbd 186e dabe fc27 c43d
000003f0: 23ae 0cbf 29fd aa3e 180d c0be 571b e0be
0.06967311 -0.42903867 0.1449253 0.23127432 -0.095690385 -0.19360252 -0.23361057 0.08475282
-0.05574537 0.00021486508 -0.1809426 0.35641348 -0.38892666 -0.076214164 0.2896681 -0.1666906
-0.5861111 0.019602025 0.012287187 -0.11076105 0.17847797 -0.18454519 -0.3217336 0.08873837
0.25925106 0.42798984 -0.09345094 0.05420068 -0.27963758 -0.23159716 0.11669067 0.3550178
0.36266166 -0.12376851 0.26887396 -0.6515655 -0.096059345 0.19395985 0.19692162 -0.39065817
-0.18079378 0.1994299 -0.16272865 -0.10422945 0.045071498 -0.44503814 -0.3682353 0.24320096
-0.27550036 -0.37233835 0.25971386 -0.091150776 0.057279862 0.22618376 -0.13481137 0.05785036
0.409825 0.08995455 0.26875597 -0.28390723 -0.13294603 -0.22487901 -0.2974701 0.30630735
-0.5704746 0.4114606 0.092347495 -0.37198386 -0.24373648 -0.032468885 -0.22006607 -0.35860705
-0.3564146 -0.27888268 -0.0389286 -0.1357912 -0.29127192 -0.16444449 -0.37331212 -0.047161106
-0.31259194 -0.33324876 -0.1027363 -0.33300248 -0.10177421 -0.5139297 -0.028119119 0.23644926
0.58125067 0.07586111 -0.19962372 -0.12933448 -0.12576684 0.2481116 -0.048401773 -0.27446702
0.43947604 -0.13649133 0.033384442 -0.3439243 -0.36505607 0.00525403 -0.31679204 -0.19552071
-0.3129639 -0.44115198 -0.21292287 0.45546764 0.03805974 -0.21088114 -0.7528737 0.12281141
-0.060631882 -1.6795943 -0.17697944 0.15476641 -0.07256545 0.2760249 0.2804306 0.12219347
-0.18335295 -0.32602248 0.34575588 -0.4987697 -0.13772768 0.27376482 0.12715451 -0.10750933
-0.11760552 0.08550695 -0.19909997 0.30160192 -0.21125118 0.1084971 -0.3124433 0.37236142
-0.0505361 0.12872271 -0.16802421 0.25119153 -0.24083143 0.31123096 0.17664118 -0.13674968
-0.004099966 0.16750057 -0.2758189 -0.26307458 0.24462934 0.033667143 0.05198888 -0.14734198
0.25202516 -0.015888691 0.1225493 -0.39115575 -0.15998866 -0.2863989 -0.023719067 0.042260744
0.020440876 -0.14034924 0.43342093 0.18727702 0.24224639 -0.380055 -0.12032288 0.16279468
0.18145971 -0.24537386 0.14363241 0.18420972 0.16537318 0.08486907 0.07058659 -0.21100305
-0.057768624 -0.34461254 0.25877997 0.09840257 0.3278586 0.15491113 -0.22633511 0.28395376
0.12998544 0.3667055 -0.26629108 -0.10283462 -0.1561534 -0.024827886 0.35298055 -0.18726563
-0.18960747 0.053161 -0.6865535 0.14611372 0.2954718 -0.5332005 0.041088138 -0.28762016
0.49311346 0.08989596 0.32946977 -0.070488445 0.32434842 -0.4347493 -0.5663462 0.39541334
-0.19829907 -0.009010106 0.22037815 -0.25076908 0.33570763 0.12466864 0.16814232 -0.5212299
0.12862995 0.15352647 0.23227564 0.4430336 -0.29028141 0.2248921 -0.5001398 -0.088153064
0.28691345 0.21732344 0.08306013 -0.21341704 -0.20172231 -0.030182406 -0.18894331 0.28859702
-0.59800225 -0.024643783 0.06769525 -0.34818986 0.011005159 0.012145579 -0.27526185 -0.039487924
-0.23931268 -0.1930328 -0.39110556 0.01639855 0.13418743 0.32773826 0.08085442 0.43419576
-0.3177426 -0.0682081 -0.4266212 0.09577939 -0.5495321 0.3339627 -0.3750999 -0.4377086

bias f4 [256]
00000000: e32b 50be 300a f1bd 2c85 4bbe 8f66 3b3e
00000010: 8b58 393e 2c7e b7be b600 aebd 0b65 543e
00000020: 45a3 073f 1462 b63d 2026 593d 718c 1e3e
00000030: 9043 2fbf a758 98be e26e b3be df96 f83e
00000040: abe2 843e 5efa 9a3e 14b4 93be 9984 92be
00000050: bb6e 8e3e 85dd ccbe 3126 493e 2862 c2bd
00000060: b0bf 6eba c1ab 1b3c 7f7d 55be 0091 df3e
00000070: 9b20 fc3d 307a 8a3e 3e0b 29be 2207 10bf
00000080: 1d3f f4be 8893 c43e df2d a0be 3896 993e
00000090: 762f 9dbc b6d9 a6bd c953 ca3e 16e4 873e
000000a0: 1c77 3cbe 25f5 0ebe 140e 4c3e 7efb f33d
000000b0: 2023 cabe a096 f33d 42ce 213e 4219 4cbd
000000c0: 34c1 50be e662 56bd 1750 2b3e a8ca ae3e
000000d0: 8ca8 c8be 3f64 993e e411 6bbe 038e 9fbe
000000e0: 93c5 b73e b88a 94be e850 ab3e 080c f83d
000000f0: a92c 063e 62d9 86be c5ee 9fbe 3834 55be
00000100: f713 bbbe 681c 80bd e5bd 0abf 4e58 cf3c
00000110: e18e 9dbe ca24 8d3e 3bc1 e0bc 599a 80be
00000120: 4388 e03d cb23 0d3e dfe5 2a3e 69f5 9ebd
00000130: dfcc 1d3f d266 7e3e a7ad 2cbe 3c37 393e
00000140: 5b13 81be 8f70 a8be d2dc 17bf f74f 393e
00000150: 8fe5 2cbe 083b 07be 5b7b 643c e028 cabe
00000160: 3bee 89be 7283 fbbe 17f1 f63e 9081 133f
00000170: 9254 02bf a87d 06bf 1bb2 57be 75cd ecbc
00000180: 21e6 bfbe 9127 d4be 9b62 d7be 2d5e e3bb
00000190: 7083 5ebd 2e2c 9f3e 3c9a 21bf 0bc5 5c3f
000001a0: d35b a83b dbfa cebe d7cd a93e d455 9d3e
000001b0: 4308 253e 9d8a 7c3e 25bc 45be 9adb eb3d
000001c0: 468b c5bd 6071 86bd ecc7 02bf a12f 66be
000001d0: b2fb 5e3e f79b 30be 72e8 8abe 54c8 6fbe
000001e0: 084e 7c3d e81e 653b 50bf 20bf 68b8 25be
000001f0: d114 a03e adc3 2ebe 3deb 433e 70c0 093f
00000200: 7871 823e 4052 20be 93ca 373d e08b 4b3e
00000210: 7b61 88be d1ea 193f b0e1 b53e 6111 a3be
00000220: d455 ac3e 44ef 3a3e f183 e33e 8432 c33e
00000230: 1352 113d b489 d4bd ca70 443f 350b 9fbe
00000240: f269 513e 8c64 413e ff1e adbe 970c 0b3f
00000250: 7793 c83e 1454 eb3d ac66 2bbe 8d68 723e
00000260: c636 753e 50a4 6e3e 7060 70be cafb 81bd
00000270: c5f1 91be 86d8 c7be a5b3 85be e073 94be
00000280: 6a81 643e d9a9 343e 2490 773e 56da 083d
00000290: fa1d d2be 95a8 42be cbfa f43c 1f4c 87be
000002a0: 34c7 0e3f 3a68 0c3e aa6b babd f430 053d
000002b0: 717d 003f ec57 3fbe 8616 693e c12d 9cbe
000002c0: 7eb2 a7bd 5071 d73c ba7d 0abe 70c4 13bf
000002d0: bcee 983d 3dc9 0fbc 2d70 d13e 598c 3f3d
000002e0: 0976 233e 2d1b 873e c32d 513f 9247 803e
000002f0: 0f64 e2be e9fa cc3e 59a1 3cbe 03b6 9b3e
00000300: 80e2 9ebe b837 b6be 5a90 c3be 3372 2b3e
00000310: 5538 5d3d 9000 163f cfdc b6bd a1a8 a13c
00000320: fb55 00be 778d db3e 5a75 e23d 2dcc 89be
00000330: 9188 f73e 93b5 08bd fbb5 033d dc92 2d3e
00000340: 37e2 ab3e 95d6 d53e af9f 63be ccf4 95be
00000350: 9ae3 b03e 40b8 b3be 5921 7fbe 800a ef3d
00000360: 74d9 91be 7564 d93e 1094 3f3d 8e88 163f
00000370: 7f20 b73e ab55 bfbe a8e6 1a3e 8934 8dbe
00000380: 36fc 94be cfd0 6ebe ea89 063e 7b7a 65be
00000390: aa98 9cbe 7aee 473e 4417 ad3e c068 f73e
000003a0: d4f6 e5bc 3f2c 6b3e ea61 d73e f1c2 44be
000003b0: 230e 8f3d 8244 a03e b734 3e3e 3075 bbbe
000003c0: e825 b5be a3af fb3d a7e7 523e 8b26 293e
000003d0: 112c 02bf 62c2 a7be aef5 b23e 27c3 57be
000003e0: 3cbd 283d 34f8 a0be 9ff7 15be c7f5 b9be
000003f0: f10f debe b81e 9fbe 0de3 a93e bf1b 0e3f
-0.20329241 -0.11769521 -0.1987502 0.18300842 0.18100183 -0.3583845 -0.08496229 0.2074167
0.52983505 0.08905426 0.053014874 0.15483262 -0.6846247 -0.29755136 -0.35045534 0.48552606
0.25954184 0.3026914 -0.28848326 -0.2861679 0.27818856 -0.40012756 0.19643475 -0.09491378
-0.0009107543 0.009501399 -0.20848654 0.43665314 0.123109065 0.27046347 -0.16508195 -0.56260884
-0.47704402 0.38393807 -0.31284997 0.2999742 -0.01918767 -0.08146994 0.39517048 0.26541203
-0.18404812 -0.13960703 0.19927245 0.11913203 -0.39479923 0.11893964 0.15801337 -0.049828775
-0.20386201 -0.05234041 0.1672977 0.3413899 -0.3919109 0.29959294 -0.22956043 -0.31163034
0.35892925 -0.29012084 0.33460164 0.1211167 0.13102974 -0.26337725 -0.31236854 -0.20820701
-0.3653867 -0.06255418 -0.54196006 0.025310662 -0.3077307 0.2756713 -0.02743589 -0.25117758
0.1096349 0.13783185 0.16689251 -0.07761652 0.61640733 0.2484391 -0.16863118 0.18087476
-0.2521008 -0.32898375 -0.5932132 0.1809691 -0.16884445 -0.13206112 0.013945426 -0.3948431
-0.26939568 -0.49123722 0.48230812 0.5761957 -0.50910294 -0.52535486 -0.21064036 -0.028906563
-0.37480262 -0.41436437 -0.42067418 -0.006938717 -0.054324567 0.31088394 -0.6312597 0.86238164
0.0051378994 -0.40425763 0.33164856 0.30729544 0.16116433 0.24662252 -0.19310053 0.11516495
-0.09645705 -0.06564593 -0.51086307 -0.22479106 0.21775702 -0.17246996 -0.27130467 -0.23416263
0.061597854 0.0034961049 -0.6279192 -0.16183627 0.31265882 -0.17066832 0.19132705 0.5380926
0.25477195 -0.15656376 0.044870924 0.19877577 -0.26636872 0.60123926 0.35523748 -0.31849197
0.33659232 0.18255335 0.444366 0.38124478 0.035478663 -0.10377827 0.767346 -0.31063238
0.20450571 0.18886012 -0.3381271 0.54316086 0.39175007 0.11490646 -0.16738385 0.23672695
0.23946676 0.23304868 -0.23474288 -0.06346853 -0.28504768 -0.39032382 -0.2611362 -0.28994656
0.22314993 0.17642917 0.24176079 0.033411346 -0.41038495 -0.19009621 0.029904744 -0.26425263
0.5577271 0.13711634 -0.091025665 0.03251739 0.5019141 -0.18685883 0.22762498 -0.30503657
-0.081883416 0.026299149 -0.13524523 -0.57721615 0.0746741 -0.008776006 0.40905896 0.046764705
0.15962996 0.2638792 0.8171045 0.25054604 -0.44216964 0.4003518 -0.18420924 0.304123
-0.3103218 -0.35589385 -0.3819607 0.16742782 0.0540088 0.5859461 -0.08928835 0.019733729
-0.12532799 0.42881367 0.11057539 -0.26913586 0.4834638 -0.033376288 0.032155972 0.16950554
0.33571026 0.41765276 -0.22228883 -0.29288328 0.34548646 -0.3510151 -0.24915065 0.116719246
-0.28486216 0.42459455 0.046772063 0.58802116 0.3576698 -0.37370047 0.15127051 -0.27579144
-0.29098672 -0.23321842 0.13138548 -0.22410004 -0.30585223 0.19524565 0.33806813 0.48322105
-0.028071798 0.22966097 0.4206689 -0.19214989 0.06985118 0.31302267 0.18574797 -0.36612844
-0.35380483 0.122893594 0.20596181 0.16518609 -0.5084849 -0.3276549 0.34953064 -0.21070538
0.041196093 -0.31439364 -0.14645241 -0.36320326 -0.43371537 -0.31078124 0.33181038 0.5551109

weight f4 [256, 256]
00000000: a8c4 98bc f37d 10be fea0 783b 8cc4 54bc
00000010: 56d2 08bd 48f3 bfbd 44a5 7cbe bd3f 9dbc
00000020: 5504 aa3d fa52 3a3e 7e93 64bd d2bf 7a3d
00000030: 1dc5 e6bd ccbe f4bd 68ab db3c 23c0 c8be
00000040: eee3 e63c 75fb 59be 1097 f4bb 20d3 46bb
00000050: 92ae b2bc dd64 853c f2c2 d3bd 12d9 703d
00000060: be37 893d 9bd8 95bd 6634 9b3d 1c80 4abe
00000070: c44a 8ebd 31b0 27be 12bd 6e3c a091 aabc
00000080: 6994 83bc a1f4 8dba 7c71 413d 9d92 ab3d
00000090: d135 41bd 9e64 023d dbe9 2bbe c07a 343d
000000a0: 31be 7dbe 7d14 bc3c 40f9 2c3d 1a44 9bbd
000000b0: 28a1 bf3d 3ea7 29be 2899 47be 1cf7 81be
000000c0: 787f 05bc 0274 f23b fba5 09bd e553 9d3b
000000d0: 2559 b53d b9eb 6c3d d878 53bd 042f 213d
000000e0: c566 8d3d 7ec4 c73c f926 5fbc b20e 5abd
000000f0: e4b5 85bd 8954 953d a175 97be 46d0 17be
00000100: b464 06bd f848 4ebd 5392 debd 8ceb 823d
00000110: 0d50 a43c 3919 3ebd c57f bdbb 78e7 053d
00000120: 9add 3fbd caa1 843c 28b6 9b3d c411 2abd
00000130: fd35 773d 9397 92bd 1a0e 51bd ee2c f03d
00000140: 7a31 0a3e 3f6e 3fbd dadf a3bd 35d8 5d3d
00000150: 3a02 14bd ba2e 3a3d ee45 07bb 984e b33c
00000160: 7037 3f3d 21e4 0c3c c4a9 7abe 6baf 983d
00000170: 468b 0ebd a2b6 eebb b8ee 663d 290e 05be
00000180: 6916 49bd 558a 053c 9e27 153c 1bbd 9c3c
00000190: 6d25 aebd bb17 b73d c328 33bb 5959 e2be
000001a0: 38b1 9dbd cafb 893b 3639 053d 22f6 8cbc
000001b0: c2af e83d 6de1 593d 1678 febc c09b 69be
000001c0: b4fa c73c d98b 413d 80a9 f4bc 8b3b 48bd
000001d0: c8a1 1ebc 30e7 c3bd 4b1f a3be a169 4cbd
000001e0: 5dde 1fbe 0f6a da3d 81a3 d73c 8947 3cbe
000001f0: fd00 f63c 380b 1a3c d9cc 4ebe 7965 a7ba
00000200: 6d48 a43d b193 d6be cb34 f53d 8209 ccbd
00000210: 3086 7f3c 82ed 57be 4571 74bd 4001 763b
00000220: a1d2 063e c325 85be 2a8b 8e3b 99ed 4dbe
00000230: 5b9c 5cbd 40cc 253c a26f 03be 0ac9 0b3e
00000240: 90c4 f6bb b547 adbc 4919 173d c6fd b8be
00000250: bbd7 be3c e8c8 8e3d 73a6 743c 0991 573d
00000260: 5c94 8cbe 0156 b3bd c0b1 7ebd 0142 82be
00000270: 2030 bbbd 9617 1d3d f9ae 1cbd f262 493d
00000280: b231 8ebe 992a c0bd b9eb b53e d0e3 97bd
00000290: 2495 e53c 908a 9abb 68a7 363e 88b4 4cbc
000002a0: b79c 613c fd49 94bd d817 1ebd 7af6 513d
000002b0: 0427 0b3e dc80 12be ec99 173d 7626 323e
000002c0: b36a 0bbe 5f5f 113d f527 18bd e940 893d
000002d0: 0cc9 133d b30c 963b abd8 84bc 3638 aebd
000002e0: cd5d 3abd cf40 e63d 252b f4bd aca9 9f3c
000002f0: 844a 99bc 8982 6fbe 81fb 293e 2bbd af3a
00000300: a0fe 9dbb 018c 473d 8df8 9339 cb41 a0bc
00000310: 5640 d6bc 6866 5fbd a94a 5dbd 8e6b 063d
00000320: 60f4 07be cfcc f5be 0a6a 2fbe 339b 093e
00000330: 1906 36be 584c 0ebe 9551 98be 6520 b73a
00000340: c834 273d bf48 c1be e99d 853d e4b0 05bd
00000350: 01d7 2dbe d6cb 173e eead 373d 58dd c53c
00000360: 7c9b a8bd eb25 0e3e 2ef3 e73c 5287 72be
00000370: c428 f5bc 12c6 6dbd 5f53 5ebd b227 05ba
00000380: 7e29 023c c71d 14be 8041 793c 29c5 2cbc
00000390: d5b1 4e3d d21d ecbc 6ec7 62bc ff91 69bd
000003a0: fcc1 2ebe 697d 973d 55c3 dabc 77af 03bc
000003b0: 38fc 283d de78 1dbd 6f3d 323d 9b02 603e
000003c0: 4756 40bd 83e6 1ebc c12f 033d 3b7c a6bd
000003d0: e455 6c3c a2cf 68be e54c be3c c35f a83d
000003e0: dc54 3fbe 06f8 a0bd d130 13be e030 bfbd
000003f0: 67f6 60bd c3ef 133d 20f3 ea3b 9b30 083e
-0.01864846 -0.14110546 0.0037937756 -0.012986314 -0.033403717 -0.09372574 -0.24672419 -0.019195432
0.083016075 0.18195716 -0.055804722 0.06121809 -0.11268065 -0.11950454 0.026815131 -0.3920909
0.028184857 -0.2128733 -0.007464297 -0.0030338243 -0.021811757 0.016283447 -0.10339917 0.058800764
0.06700085 -0.07316705 0.075783536 -0.19775432 -0.06947854 -0.16375805 0.014571445 -0.020821393
-0.016061978 -0.0010830351 0.047227368 0.08377574 -0.047170464 0.031834237 -0.16788428 0.044062376
-0.24779584 0.022958988 0.04222989 -0.07581349 0.0935691 -0.16567704 -0.19492018 -0.25383842
-0.008148067 0.007399083 -0.033605557 0.004801261 0.088548936 0.05784199 -0.051628917 0.03935148
0.06904367 0.024385687 -0.013620132 -0.05323667 -0.065288335 0.072915144 -0.2958193 -0.14825544
-0.03281088 -0.050362557 -0.10867753 0.06392583 0.020057702 -0.046410773 -0.0057830536 0.03269145
-0.046842195 0.016190428 0.07603103 -0.04152085 0.06035422 -0.07157817 -0.05103884 0.1172732
0.13495436 -0.046736 -0.08001681 0.05416127 -0.036134936 0.04545472 -0.0020641047 0.021888062
0.04668373 0.008599312 -0.24478823 0.07455333 -0.03480079 -0.007284955 0.056380004 -0.12993683
-0.049093638 0.008150657 0.009103684 0.019133141 -0.08503232 0.08940073 -0.0027337528 -0.44208792
-0.076998174 0.004210924 0.032525264 -0.017207209 0.11361648 0.0531935 -0.03106312 -0.2281332
0.024411537 0.04725251 -0.02986598 -0.04888491 -0.009682126 -0.0956558 -0.31859812 -0.049905423
-0.15612169 0.1066476 0.026323082 -0.18386663 0.030029768 0.009402089 -0.2019533 -0.001277133
0.080216266 -0.41909555 0.1197296 -0.09962751 0.015595958 -0.21086696 -0.059678335 0.0037537366
0.13166286 -0.26005372 0.0043500857 -0.20110168 -0.05386005 0.010119498 -0.12835553 0.13650909
-0.0075307563 -0.021152357 0.03688935 -0.36131114 0.023296228 0.069719136 0.014932263 0.05262855
-0.2745694 -0.08756638 -0.062181234 -0.25440982 -0.091400385 0.03835257 -0.038252804 0.049166627
-0.2777229 -0.09383125 0.35531405 -0.07416499 0.028025217 -0.004716225 0.17837298 -0.012494214
0.013770274 -0.07240675 -0.038596958 0.05126045 0.13589102 -0.14306968 0.037012026 0.17397484
-0.13614921 0.035491344 -0.03714748 0.06701834 0.036080405 0.0045791506 -0.016216597 -0.08506815
-0.04549961 0.1124283 -0.11922292 0.019490086 -0.01871229 -0.23389639 0.16599847 0.0013407817
-0.0048216134 0.048717503 0.0002822321 -0.019562623 -0.026153725 -0.05454102 -0.05402628 0.032817416
-0.13276815 -0.4800782 -0.17130294 0.1343811 -0.17775764 -0.1389631 -0.29749742 0.0013971446
0.04082182 -0.37750813 0.065242596 -0.0326394 -0.16976549 0.14823851 0.044843607 0.024153396
-0.08232781 0.13881652 0.0283142 -0.23684433 -0.029926665 -0.058050223 -0.054278728 -0.00050794624
0.007944463 -0.14464484 0.01521337 -0.0105450535 0.050462563 -0.028822813 -0.013841493 -0.057024
-0.17066187 0.07396967 -0.02670447 -0.00803744 0.04125616 -0.038445346 0.04351562 0.21875994
-0.04695728 -0.009698513 0.032027964 -0.08129164 0.014424775 -0.22735456 0.023230026 0.0822139
-0.18684715 -0.07859807 -0.1437409 -0.09335494 -0.054922488 0.036117326 0.007170096 0.13299792

bias f4 [256]
00000000: a786 ae3d d3ca f53c 5abc 443c 3985 3dbd
00000010: c157 f4bd 5b58 0abd 98f4 1dbd a835 1abd
00000020: 0d3a 343b fbae 8fbd b323 16bb 91dc 043d
00000030: 9401 8dbd aabb 42bb 58cb cabd d139 85bd
00000040: e2fd a83e c94b 55bb 140e 983c f13c b5bc
00000050: 69e2 353c 26f9 beba 9bb7 c6bd ac78 5abd
00000060: 24d1 88bd 1c6d 74bd 8c1a 7bbc b840 51bc
00000070: 71d8 61bd 8d0d 50bc 8d68 bebd d8e3 9d3c
00000080: 0aca 1dba c5e7 c0bd e01d 0abc f453 373d
00000090: d6c0 043e 6458 1abd e8c5 cc3b 2868 edbb
000000a0: f3d8 fbbd a4b6 333d 9959 a6bc 7ec1 23bd
000000b0: a8f4 6abd 004a 99bd ac3f 0ebd 4d97 97bd
000000c0: 1a48 aabb 836d 263d c9d1 84bc fb8a 94bd
000000d0: 6014 97bd 2d77 043c ae4f 903a 194f 42bd
000000e0: de2f 3cbd 6ef3 28bc 686d 47bc a07a bdbd
000000f0: 5097 32bd a17c 91bd 3f65 afbd 4683 61bd
00000100: 6b0b d3bd f8b1 b9bd c72a 75bd b545 98bc
00000110: a520 c9bd 65c7 4a3d 3420 90bc c71a 85bd
00000120: 551c f53c 10dd 5cbd 943e 49bd 2345 88bc
00000130: bebe acbc aaf4 10bc a6dc dfbc ec88 96bd
00000140: 5151 9dbb d62f 92bd 596c 8bbd b634 38bd
00000150: 54c7 aa3c 34b9 f93c e386 0fbd 5056 12bd
00000160: 292e 0ebc 4337 9fbd 31cf 3c3d 00c5 97bd
00000170: a0d8 2fbd cae9 b4bd 64a3 c1bd 7781 293d
00000180: 255b b5bd 5310 b03e 1609 a1bc bc02 8d3e
00000190: d06e 143d f544 34bd 6303 afbc 7220 d7bd
000001a0: 37a3 13be 9e2b 52bd 2396 4c3e effb a7bd
000001b0: 27f6 7abd b9fa 76bc 3ffd 87bd 20a4 cdbc
000001c0: d8e9 d3bc 1d78 69bd 5646 033d 8a26 a63c
000001d0: 33cb b5bd 8d41 d2bd d24b 3c3d fb25 a13e
000001e0: 2fc0 77bd 5f1f dcbc d9e2 92bc 178f 7ebd
000001f0: 7c33 5bbd dab5 3bbd 4be6 ddbd 47e3 1dbd
00000200: c59d 94bc f259 edbd c6d0 583e c926 b8bd
00000210: 28b6 46bd d7ca a1ba 9816 adbd 112a 85bc
00000220: 27cb f3bd dfc6 ac3d ec83 00bd 506a 9abd
00000230: db8c f6bd 321b 1e3c e482 b0bc 5400 9c3c
00000240: 666a 943c 8769 6f3a 1bf4 0f3a c3f3 9d3c
00000250: 689a e7bc 51ec aebd 3258 633e e1e8 b9bd
00000260: 0fb1 973a ef67 c2bc a0cf acbd 797f 0dbc
00000270: 0716 aa3d 53f0 f23c 8c9d 33bd 7ee5 9cbd
00000280: f2af 3dbd 302a 4e3c aef6 b2bb 7ed7 edbd
00000290: 67fc 31bd 166f 9fbd 1754 f2bb c7c1 03bd
000002a0: 487f bfbc 11ce 7ebd b72f 8b3d 67d3 22bc
000002b0: bded b33c c5e4 9fbd 3e60 42bd 971c b9bd
000002c0: f1a0 51bc 77bb 253d ad5f da3c 6516 8fbd
000002d0: e5d3 e2bd 822f 0abc c57a 45bd 2995 7a3e
000002e0: ab3b 0e3e 5717 cdbd 8c86 52bd 2274 0ebd
000002f0: bad2 20bd dc5e fcbc eddb aa3e 5f11 693c
00000300: a616 5a3c dd9b 67bd ae9f 433d 954e 9cbd
00000310: 310d 323c 54a6 d5bd 8668 c1bd 14df 713d
00000320: 1c5c 773c 88a8 d0bd fbbd 9abd 88d9 01bd
00000330: b526 e53c bd94 993c e750 98bd a470 2cbd
00000340: 3a0d c0bd 817f a4bd 0a53 8bbc c85b 05bd
00000350: 3de2 603c 6e76 7d3a af84 0bbd 4876 e03c
00000360: 583c 91bc 8807 0a3d eeea 91bd b3ad 69bd
00000370: 61bc edbd aa51 e7bd 83a9 a6bc dc71 343d
00000380: 2f9e c73c 5c1c 6f3d 1fde 813e 70ef eabc
00000390: 4feb dabb d121 9cbd aae8 9dbd 4d76 e639
000003a0: 8ec2 40bd 2b22 a03e dea7 87bc 3790 ae3b
000003b0: 4978 5f3e 5daf 053e 934e 3dbd 3ac5 22be
000003c0: 96ae 1abd ccbd 6abd 20fb 87bd 4947 cabd
000003d0: 84e2 253e da4d 45bd c144 32bd 9b5f 75bd
000003e0: 9fe6 4cbc 1aee fbbb 4003 d13c 98c0 f8bd
000003f0: dc94 c4bc d464 95bd ede4 23bd 74a1 883c
0.08521777 0.03000394 0.012007797 -0.04626963 -0.119308 -0.03377567 -0.03856334 -0.037648827
0.0027500421 -0.07015797 -0.0022909462 0.03243691 -0.06885067 -0.0029713907 -0.09902066 -0.06505168
0.33006197 -0.0032546392 0.0185614 -0.022123786 0.011101344 -0.0014570102 -0.09702989 -0.053337738
-0.066805154 -0.059674367 -0.0153261535 -0.012771778 -0.055138055 -0.012698543 -0.09297285 0.019273683
-0.0006019181 -0.094192065 -0.008429974 0.0447578 0.12964186 -0.037681952 0.006249178 -0.0072450824
-0.12297239 0.04387535 -0.020306395 -0.03997945 -0.05736223 -0.074848175 -0.03472869 -0.07401905
-0.0051965835 0.040631782 -0.016213315 -0.07253071 -0.07376933 0.008085054 0.0011010075 -0.047438715
-0.045944087 -0.010311944 -0.012172081 -0.092519045 -0.043601334 -0.07103849 -0.08564233 -0.055056833
-0.10304912 -0.09067148 -0.05985525 -0.018587926 -0.098206796 0.049506564 -0.01759348 -0.06499248
0.029920736 -0.05392176 -0.049131945 -0.01663453 -0.021087047 -0.008847395 -0.027326893 -0.073503345
-0.0048009534 -0.0713803 -0.06807775 -0.044972144 0.020847 0.03048382 -0.035040747 -0.035726845
-0.008677998 -0.07774212 0.04609603 -0.07410622 -0.0429312 -0.08833654 -0.094549924 0.041383233
-0.08855275 0.34387454 -0.019657653 0.2754115 0.03623849 -0.044011075 -0.02136392 -0.10504235
-0.1441773 -0.051311128 0.19979148 -0.082023494 -0.061269905 -0.015074425 -0.066401 -0.025102675
-0.025868341 -0.056999315 0.0320495 0.020282049 -0.08876648 -0.10266409 0.045970745 0.3147429
-0.060486015 -0.026870428 -0.017930435 -0.06214818 -0.053515896 -0.045827724 -0.108349405 -0.038546827
-0.018141637 -0.11589421 0.21173391 -0.08991773 -0.04851356 -0.0012343776 -0.08451575 -0.01625541
-0.119039826 0.08436369 -0.03137581 -0.07539809 -0.12038585 0.009650039 -0.021546789 0.019043125
0.018117141 0.0009132851 0.00054913916 0.019281274 -0.028271869 -0.085411675 0.22201613 -0.09077621
0.0011573153 -0.0237312 -0.08438039 -0.008636349 0.08304983 0.029655611 -0.04385142 -0.0766096
-0.046310373 0.0125833005 -0.0054615354 -0.116133675 -0.0434536 -0.0778486 -0.007395278 -0.032167222
-0.023376122 -0.06220824 0.0679621 -0.009938098 0.021963948 -0.07807306 -0.047455065 -0.09038656
-0.012794719 0.040461984 0.02665695 -0.06986693 -0.11075572 -0.008434178 -0.048212785 0.24470963
0.13889949 -0.10014217 -0.051397845 -0.03477872 -0.039263465 -0.030806951 0.33370915 0.014225333
0.013311064 -0.056545127 0.047759704 -0.07632176 0.010867403 -0.10432115 -0.094437644 0.059050635
0.015097644 -0.10188395 -0.07555767 -0.031701595 0.027972559 0.018747682 -0.07437306 -0.04209961
-0.09377523 -0.08032132 -0.01700737 -0.032558233 0.013725814 0.00096688315 -0.034062084 0.02740015
-0.01772897 0.03369859 -0.071248874 -0.057050418 -0.11608196 -0.11294873 -0.020344501 0.044053897
0.02436742 0.058376655 0.25364777 -0.028678626 -0.006680883 -0.076236375 -0.07710393 0.0004395716
-0.04706054 0.31276068 -0.016559538 0.0053272503 0.21823229 0.13055177 -0.046217512 -0.15895548
-0.037764154 -0.05730991 -0.06639695 -0.09876878 0.1619969 -0.04816995 -0.0435226 -0.05990563
-0.012506156 -0.007688296 0.025514245 -0.12146109 -0.023996763 -0.07294622 -0.040013243 0.01667855

weight f4 [1, 256]
00000000: 718f 563d f95b 7cbd 6fc7 9a3e 7430 87bc
00000010: d501 e5bc 16b8 293d 7b84 79bd 7405 8e3c
00000020: 0ebf 303d 107a 93bd c02a e2bc 863a 0bbd
00000030: d987 6cbd 907e bbbd 91c5 573d 2e77 0ebd
00000040: fb85 443e 5761 82bd 10d4 77bd d7b3 ad3c
00000050: bbed bbbd d3b7 aabd 18aa 5ebd 661e 39bd
00000060: 8d25 e4bc b66e 3c3c de40 36bc 604a 0abc
00000070: c48e 46bd b6a6 97bd 8cbd b53c 708d 90bd
00000080: 669d 51bd 609f f2bc a951 5bbd 56aa bbbd
00000090: fe3f 37bd c991 cdbc f93d 823b 7679 3cbd
000000a0: 048d 1dbe 1c92 b5bd 1b5e 313c a139 c9bc
000000b0: f15b 39bd 901c c2bc 7d52 1ebc 11bd 1cbc
000000c0: dba0 32bd 6ee5 22be 28bd 80bd afca edbc
000000d0: 0fd2 5ebd b70b ba3c b740 13bd e623 103d
000000e0: 0762 37bc b691 72bd 38c6 7fbd 87f0 94bd
000000f0: 3a70 09bd fb1a cd3c 218e 32bd 4341 793d
00000100: dfc8 a1bb f640 88bc 54c3 033b 61c1 943b
00000110: 6340 87bd 0732 16bd 6ab3 4dbd ee07 80bd
00000120: 6f44 95bd 3e85 6ebd 492d 35bd aa66 2cbd
00000130: da4d a8bc 9a64 85bd 8017 b2bd de6e 6cbc
00000140: 183a a5bc 317f 4cbd d589 78bd 659b c63b
00000150: bf49 5abd 47f5 42bd a742 debd dedf c3bd
00000160: 87f5 c03c d49c a5bd 798e 7fbd 12e3 473a
00000170: 5a2a 2bbd d2aa bcbb 37e1 dd3a d5ef dbbd
00000180: 70f3 5a3b 44ce 38be 3be4 3ebc 56fa 633e
00000190: 662b 73bd 1e25 373d 56dc 0ebc e9d2 25bc
000001a0: f46d bdbc c66e a2bc 8749 85bd 784f 8aba
000001b0: 25f2 5cbc 6c3c b4bc 04d7 29bd aaea 393d
000001c0: 61c8 11ba f283 86bd 0c8e 213d 0c2b 2dbd
000001d0: 42ca 4dbd 6181 0cbc cc00 b4bd 934b 8bbd
000001e0: 9859 5cbd 3e18 04bd a101 5ebb 97cf bdbb
000001f0: 8416 ddba de35 2e3c a40e 1b3d 4acb 60bd
00000200: 1169 de3d db7e 5f3b b6d4 3dbd c925 3dbd
00000210: 213e 90bd 8d98 4fbd 147b 2bbd 054f 42bc
00000220: 280e 18bd ced9 80bd d907 1ebd 2476 86bd
00000230: e312 16bd 5e08 efbc 788a 50bb fa60 c4bd
00000240: a63d 233d 305a dab9 9c51 2dba dd8b a6bd
00000250: fae7 4fbd b008 07bd 3402 51be 6db1 2dbd
00000260: b63e 58bd 591f 8d3c 0ad7 4fbd c460 0ebd
00000270: baaa 92bd 9fd0 f63d 32ce 52bd e438 88bc
00000280: b1a7 a8bc e873 50bb e4bc 23bd 5407 afbc
00000290: 3d35 0dbd 8134 65bd 1fc6 013a 668e ccbd
000002a0: a35c 53bd a0f0 b4bd bef3 8bbd be0f 8cbd
000002b0: 5c7d 3ebd 3b09 95bc 32e3 12bd 5650 4bbd
000002c0: 7bfb 48bd bab6 14bd 00fc debc 84e5 59bd
000002d0: 42ee 6aba a07c 3dbd a6e2 1b3b cf4b bfbd
000002e0: 9be0 70bd 13c2 33bc 640f 9fbd a2d3 53bd
000002f0: c500 35bc fc5c 30bd 6091 90be 950d 5cbd
00000300: 306a 49bd f9eb b3bd 643e 80bd a79f 6ebd
00000310: b52e a4bd f6c1 53bd c448 29bd 44a3 3f3c
00000320: e4cb 54bd c20f 23bd 23bc bb3d e925 19bd
00000330: 81bc cfbd 129b 29bd 44dc f1bc d5b6 853d
00000340: 397c 51bd a374 8ebc f2c9 d5bc d3f9 2fbd
00000350: ec06 ab3a dea2 fabb 65e6 afbd 89db 19bd
00000360: 30da 94bd 0ee3 5fbd 270c 2d3c e18c a43c
00000370: 4429 42bc 4e44 d8bc f1f2 31bc b37c 72bd
00000380: 5cf2 5a3d b925 2cbd da6b 0fbf 87c7 5fbd
00000390: 68f6 f2bc 55ca 91bd 101c 5cbd 4033 323c
000003a0: c90d b13c 5f12 a6bd c30d d5bc f940 183c
000003b0: 1804 cbbd 2dc3 1cbd c183 0abb dc8a 3f3d
000003c0: a663 fabc 5846 4bbd 3856 3ebc c660 c9bc
000003d0: c1c3 f53d 618d 3c3b 4df2 24bd 16df de3b
000003e0: ed7f e9bb ecb1 e6bc e693 a6bd 9112 3cbc
000003f0: 4824 81bc 6ff1 02bd be66 cfbc 4409 b3bd
0.05238289 -0.06161115 0.3023028 -0.016502596 -0.027954975 0.041435324 -0.06091736 0.017336585
0.043150954 -0.07201016 -0.027608275 -0.03399136 -0.057746742 -0.09154999 0.05267865 -0.034781627
0.19191734 -0.06366222 -0.060504973 0.021203918 -0.09176203 -0.08335843 -0.054361433 -0.045195006
-0.027849937 0.011501005 -0.011123864 -0.008440584 -0.048475996 -0.074048445 0.02218511 -0.07058227
-0.051175497 -0.029617012 -0.053544674 -0.091633484 -0.044738762 -0.02509393 0.003974673 -0.04601427
-0.15385824 -0.08865759 0.010825659 -0.024563612 -0.045253698 -0.02369526 -0.009663221 -0.009566561
-0.043610435 -0.15907833 -0.06286079 -0.029027311 -0.054399546 0.022710664 -0.03595039 0.035190485
-0.011192805 -0.059220992 -0.062444896 -0.072724395 -0.033554293 0.02503728 -0.043592576 0.060853254
-0.004937276 -0.016632538 0.0020105438 0.004539654 -0.06604078 -0.036668804 -0.05021993 -0.062515125
-0.07288443 -0.05823254 -0.04423264 -0.042090096 -0.020544935 -0.06513329 -0.086958885 -0.01443073
-0.020169303 -0.049925987 -0.060678322 0.006061005 -0.053292986 -0.047597196 -0.10852557 -0.09564184
0.023554577 -0.08086553 -0.062391732 0.00076250837 -0.041788436 -0.005757668 0.0016928081 -0.10739104
0.003340926 -0.18047434 -0.011651094 0.22263464 -0.05936756 0.044713132 -0.008719524 -0.010121086
-0.023123719 -0.019828212 -0.06508165 -0.0010552248 -0.013485466 -0.022001468 -0.04146482 0.04538981
-0.000556117 -0.06568135 0.039442107 -0.04227738 -0.050241716 -0.008575768 -0.087892145 -0.06801524
-0.05379638 -0.03224968 -0.0033875483 -0.005792569 -0.0016867672 0.01063296 0.03785576 -0.05488137
0.108598836 0.0034102711 -0.046345435 -0.046178613 -0.070431 -0.050682593 -0.041865423 -0.01185966
-0.037122875 -0.06291543 -0.038581703 -0.06565502 -0.036639106 -0.029178794 -0.0031820815 -0.09588809
0.039853714 -0.00041647395 -0.0006611587 -0.081321456 -0.05075834 -0.03296727 -0.20410997 -0.042405535
-0.05279418 0.017226862 -0.050742187 -0.03476025 -0.0716147 0.1205151 -0.051466174 -0.01662869
-0.020587774 -0.0031807367 -0.039975062 -0.021365799 -0.0344746 -0.055958275 0.0004950482 -0.09988098
-0.051602017 -0.08834958 -0.068335995 -0.0683894 -0.04650627 -0.018192878 -0.0358612 -0.04963716
-0.049067955 -0.036307074 -0.027219772 -0.0531974 -0.0008961895 -0.04626143 0.0023786216 -0.09340631
-0.05880795 -0.010971564 -0.077666074 -0.0517155 -0.011047547 -0.043057427 -0.28235912 -0.05372389
-0.049173534 -0.087852426 -0.062619 -0.058257725 -0.08016721 -0.051698647 -0.04132916 0.01169664
-0.051952258 -0.03980995 0.091667436 -0.03738967 -0.10143376 -0.041407652 -0.029523976 0.06529013
-0.05114386 -0.017389601 -0.026097272 -0.04296286 0.0013048328 -0.00764881 -0.08588866 -0.03756288
-0.072681785 -0.054659896 0.010561979 0.020086708 -0.011850659 -0.026399758 -0.010861144 -0.059200954
0.05345379 -0.042028163 -0.56023943 -0.054633643 -0.029658511 -0.0711867 -0.0537377 0.010876477
0.021613019 -0.08108973 -0.026007539 0.009292834 -0.0991289 -0.03827207 -0.002113566 0.046763286
-0.030565094 -0.049627632 -0.011617236 -0.024582278 0.12000228 0.0028770792 -0.04027014 0.0068014963
-0.0071258456 -0.028161012 -0.08133678 -0.011479036 -0.01576437 -0.03196853 -0.025317546 -0.08742002

weight f4 [256, 256]
00000000: f0af 3fbd 8473 b93c 9035 d03b a0d2 253b
00000010: cd06 80bd 2dfc 4dbd 00f3 fcbb da47 bebd
00000020: 24eb 95bd d496 f5b9 fc63 73bd 5bfc b2bd
00000030: 0957 98bd c2c4 36bd 0088 493a 079e 0cbd
00000040: c422 fb3c c06a 933b be5d adbd a115 59bc
00000050: 93e1 dfbd 9488 41bd 0061 37bd 9408 6dbb
00000060: 5c08 ddbd d8ae 723d 8308 12bd 4cb9 bbbc
00000070: ebe3 dbbc 80d9 4abc 5157 98bd cb29 b9bd
00000080: 8e64 a0bd 7cf8 a3bd 4a05 77bd 9551 babd
00000090: c65b 483d b80a 2abd c4f8 20bd 00d9 1e3a
000000a0: 8082 e63b 221f dfba 45d1 17bd 80b7 73bb
000000b0: 7946 e9bc e773 21bd 881e 18bd eab6 1cbd
000000c0: 6c3f 0f3d b2f7 3dbd b60d 13bd a441 20bb
000000d0: 5c05 7bbd cc30 323d 10ce c1bb 9e9f c7bd
000000e0: 8e6a 11bd 8060 31bd f29b 78bd acce a0bc
000000f0: 8f58 30bd 4574 7cbd 96d1 373d 92f1 623d
00000100: f8be e83c 8834 a8bc fc7f 7c3d 503e 9ebd
00000110: 65a0 9bba faf6 6ebd 74d0 dd3c ba1d 6bbd
00000120: c08a 65bd 5037 a53b 5467 363d f8e1 30bc
00000130: df8a 9dbd c3d0 d6bd 2e8f 6e3d e8b1 19bd
00000140: 4208 a4bc e68a ccbd b0a0 dabb 79f2 d6bd
00000150: 61f9 abbd 9a5a 2a3d 759f 16bd 881b 10bc
00000160: 8c08 9bbc 2020 db3c e291 1b3d 489f 4dbd
00000170: fc66 9abc dc3c ecbc 79e8 aabd 50a0 933c
00000180: d7c0 dbbd 7070 953c 3242 ecbd d8b4 003c
00000190: 3b2f 90bd 4810 12bd 52e2 06bd 127d 3a3d
000001a0: f839 62bd c024 8dbb c0bc 8eba 3491 a8bd
000001b0: 18bc 85bd 001b b2bd 80a4 a8bb 09ac d0bd
000001c0: 6c05 9abd 20e9 9fbc f07a d0bd e0a3 90bc
000001d0: e0e8 a33c 00ee 18b9 1eeb 4dbd 207f 24bc
000001e0: e47b 1bbd 8547 1fbd 0ef2 10bd fc9e d539
000001f0: 1d20 3fbc d675 9fbd ce1f debd cac2 013d
00000200: 8d07 8dbd 5c29 9dbd 17c1 90bd 00b0 dd39
00000210: 1ad9 5dbd d2aa a8bb cd05 c0bc d0bf 67bc
00000220: d0e8 10bd 93a0 94bb 10c0 4e3c d24f 9dbd
00000230: 5892 273c 4876 8fbc d80f febc f81b 64bc
00000240: e66e 6bbd c048 a9bb 0559 41bd 30c3 cf3b
00000250: e8b8 bbbd f6a1 52bc 102c 223d b149 e0bd
00000260: bec9 3b3d 4107 c5bd a8a7 17bc 98f0 913c
00000270: 004b 81bb bc1a f5bd 24f4 213d 380a e0bc
00000280: 2843 8ebd 52f2 00bd c6b3 4bbc 620c 15bd
00000290: 6c15 d73c 324f 5ebd 6470 cabd 3d9d 9fbb
000002a0: 8e4b 01bc 4d62 2e3c 1c95 a8bc 1061 dc3c
000002b0: b018 7e3c c848 00bd db62 83bd e51f ffbc
000002c0: 62dd 29bc 7c49 cb39 74df e33d e086 6bbd
000002d0: 41a8 48bd 1a43 8cbd 0aeb 003d 4b89 f5bd
000002e0: a826 76bc 9cf8 54bd 00f4 f1b8 a45f 14bd
000002f0: c4b5 293d 00cb 783d 2475 ea3c c8bb d4bc
00000300: a8ad 4ebd 2a8d 27bd 1022 43bd 8590 ccbd
00000310: 54f2 01bd 6849 7bbd 503e 0b3c 2225 18bb
00000320: f75d 63bd 2c35 7dbd a2bf 333d 20af 93bc
00000330: c4c6 efbc bb85 a3bd 6164 bdbd 749d a0bd
00000340: b09b 19bc 7b88 36bd a8e4 94bd 0ad5 43bd
00000350: 7850 b4bc 0848 47bd 8734 f4bd 5890 6bbd
00000360: 86d2 1bbd f454 d23c 31ad 9cbb f6fc 39bd
00000370: f470 ffbc 3979 0ebd 71f6 5cbd d805 7d3d
00000380: 8195 c2bd a4bb 25bd 00d5 9839 4ad9 00bd
00000390: 0b49 14bc 0f47 85bc 2ed7 02bd d6a8 5f3d
000003a0: 7005 393d ca6e f8bd 40b1 2bbb cc14 c9bc
000003b0: 8c88 e8bb 5db3 e4bd 8b17 aebd 7ec5 85bd
000003c0: 5449 163d 2087 35bc 0060 aebb 2a45 903b
000003d0: c763 cabc e086 acbc ce5d 0f3d 2186 efbd
000003e0: 38ef 06bc 4aed 3fbd 93f6 9fbd 3f4e 52bd
000003f0: df8a 9bbd 3fe1 ecbd 011a d1bb 603e f1bd
-0.046798646 0.02263809 0.0063540414 0.0025302544 -0.06251297 -0.05028932 -0.0077193975 -0.09291048
-0.0732024 -0.00046842417 -0.059421524 -0.08739539 -0.07438476 -0.044621237 0.0007687807 -0.034330394
0.030656226 0.0044988096 -0.084651455 -0.013249786 -0.10931697 -0.04724939 -0.04477024 -0.0036168443
-0.1079261 0.059248775 -0.03565265 -0.022915505 -0.026842078 -0.012380958 -0.07438529 -0.090411745
-0.07831679 -0.08006379 -0.06030778 -0.09097592 0.048915647 -0.04151413 -0.03929974 0.0006059557
0.0070346 -0.0017022828 -0.03706481 -0.0037188232 -0.028475987 -0.039417174 -0.037138492 -0.038260378
0.034972593 -0.0463788 -0.035901748 -0.0024453187 -0.061284408 0.043503568 -0.005914457 -0.097472414
-0.03550201 -0.04330492 -0.060695596 -0.019629799 -0.043053206 -0.06163432 0.04487761 0.05540616
0.028411373 -0.020532861 0.061645493 -0.07726729 -0.0011873363 -0.058341004 0.027076937 -0.057401396
-0.056040525 0.005041994 0.044532135 -0.010796063 -0.07692503 -0.10489037 0.058242016 -0.03752318
-0.020023469 -0.0998743 -0.0066719875 -0.10495467 -0.083971746 0.04159031 -0.036773164 -0.008795626
-0.018924974 0.026748717 0.03798092 -0.05020073 -0.018847935 -0.028837614 -0.08345122 0.018020779
-0.10730141 0.018242091 -0.11536063 0.0078556165 -0.070402585 -0.03566006 -0.03293068 0.045529433
-0.055231065 -0.0043073595 -0.0010889992 -0.0823082 -0.06530017 -0.08696556 -0.005146563 -0.10189063
-0.075205654 -0.019520342 -0.101796985 -0.017656267 0.020008504 -0.00014584512 -0.050273053 -0.010040075
-0.03795995 -0.038886566 -0.03538709 0.00040744978 -0.011665371 -0.07786147 -0.1084591 0.031679906
-0.06886206 -0.07673904 -0.07068079 0.00042283535 -0.054162122 -0.0051473165 -0.023440266 -0.014144853
-0.035378277 -0.0045357435 0.012619033 -0.0768124 0.010227762 -0.017512456 -0.031013414 -0.013922684
-0.057478808 -0.005166143 -0.047204036 0.006340407 -0.091661274 -0.012855997 0.039592803 -0.109515555
0.045846693 -0.09620524 -0.009256281 0.01781492 -0.0039457083 -0.1196799 0.03953947 -0.027348623
-0.06946403 -0.031481095 -0.012432998 -0.036388762 0.026255332 -0.054274745 -0.09884718 -0.004871039
-0.007891549 0.010643554 -0.020578913 0.026901752 0.015508816 -0.03131941 -0.064153396 -0.031143138
-0.010367723 0.00038773927 0.11126605 -0.057501674 -0.048988584 -0.06848736 0.03147415 -0.11989077
-0.015023865 -0.051994905 -0.00011537224 -0.036224023 0.04143311 0.06074047 0.02862031 -0.025968447
-0.05045858 -0.04090611 -0.047639906 -0.099885024 -0.031725243 -0.061349303 0.008498743 -0.0023215492
-0.055509534 -0.061818287 0.043883927 -0.018027842 -0.029269584 -0.079844914 -0.092476614 -0.07842532
-0.009375498 -0.04456375 -0.07270175 -0.04781059 -0.022011027 -0.04865268 -0.11924081 -0.057510704
-0.038042568 0.025675274 -0.004781388 -0.045407258 -0.03118179 -0.034783576 -0.053945962 0.06177315
-0.09501172 -0.04046215 0.00029150397 -0.031457223 -0.009050618 -0.016269235 -0.031943493 0.054604374
0.0451712 -0.12130506 -0.0026198179 -0.02454605 -0.007096356 -0.11167023 -0.08500584 -0.06531809
0.036691025 -0.01107958 -0.0053215027 0.0044027762 -0.02470578 -0.021060407 0.03500157 -0.11695505
-0.008235745 -0.046857156 -0.07810702 -0.051344153 -0.07594847 -0.115664 -0.0063812737 -0.11779475

bias f4 [256]
00000000: 5650 a6bd b1ab 87bd 5d4b 00bd 08ab 4cbe
00000010: deeb 3f3e 1ed8 5fbd 2fb9 e5bd 2378 77bd
00000020: 8b12 6dbd 64c3 92bd 73b6 7b3e a220 07be
00000030: 59e1 733f fd8f 0fbd e4ed 6bbd ee76 3cbd
00000040: fab9 d43e ac8d 31bd edff 843c 63d7 7d3e
00000050: c9b2 ebbc 5124 babb 07aa 04bc 6969 bcbd
00000060: fbd1 cfbd 7481 753e 22fd f43e a7fb d7bc
00000070: 67cf 0cbd 2bbb b5bd 2239 a3bd 5b74 323f
00000080: 4528 b8be 219e 8cbd 7824 34bd 2aca 5ebd
00000090: c127 45bd ab81 823e d997 233e 23d1 af3a
000000a0: 433c 4bbd e874 623f 345a 99bd 974d 833e
000000b0: 0c9d 9bbd 10e1 ccbd d274 94bd 9efe 84bd
000000c0: 9fb1 35bd 995c 263f c44a cf3e ff1e 90bd
000000d0: 84dd 053e bb80 10be 4ab6 99bb 8cfe 733f
000000e0: e890 35be 6d36 a43d 8bf5 0dbe 56f2 893e
000000f0: ecf0 e7bd ec3a 32bd db84 ecbd 025b 1cbd
00000100: c194 be3e af2b 42bd f844 8fbd 4f2d 5abd
00000110: dfbe 1c3c fb8b 443f a269 573b 77eb 323f
00000120: 459b 12be d5fa 94be 067b 433f ea53 49bd
00000130: 0dbe febd 68a6 a1bd f4f2 513f cdfb 6dbd
00000140: 8a65 243f e0f5 823e e7dd 1dbe 040f 02be
00000150: a5ab a7be 5b09 9d3e 6ac1 b5bd f939 80bd
00000160: ac3c c0bd e20e 8c3b 371f 113f fbc6 163f
00000170: fd16 013f cb5c 4a3e 68f2 53bd 75c5 6fbd
00000180: 3e4f 053e 76b7 c3bd ff6d a8bd c53e 3a3f
00000190: 31aa 723e 3810 82bd 3ecf a6be 204a 99bc
000001a0: ece0 80bd 0c68 c3bc 2e24 993e 3e77 7dbc
000001b0: b2bd bebd 973b dfbd ec33 98bc 4b6c 9abd
000001c0: c8ad 2f3f 572a a4bc ccc4 3e3f 561b f5bd
000001d0: 4947 08bd fbac 413e 504e cbbe 8360 f63e
000001e0: 86bf 683f 90be 3dbe 8aac 0bbd 3273 adbe
000001f0: 99b6 043f 29ff a5be c382 57be 60c4 b0bd
00000200: be74 713a 25bf c43a 65b3 683f dcd0 76bd
00000210: 131c c2bc 648c 033e a516 71bd 997e 7fbd
00000220: 4e12 f9bd 3793 933e d711 4e3d 961d a23d
00000230: 5e7f 5c3e 37f1 18bc da25 e8bd 5669 95bd
00000240: 4e09 a5bd 55b7 4abd d04d a9bd 1397 dfbd
00000250: 14d5 b8bd 3e3f 91bd 7625 15bd 5569 e6bd
00000260: 7fe7 24bd ba32 6fbe 9a03 cebe 0e77 803e
00000270: 69db 933e 7c0b c93e 14b1 cb3e e46d 1bbb
00000280: b02e a6bd 0b58 6abc 9835 c2bc 9168 1b3b
00000290: 8639 77bd 462e 8eb8 f487 403f 0d70 9b3d
000002a0: d084 2fbd de81 aebd 99cf c93d 2e48 7abd
000002b0: a8b9 b5bd 7766 b2bd 1732 883e 562b 96bd
000002c0: e232 8d3e d34a d2bd b792 38bd 4b25 623e
000002d0: 77ba b4bd 1f56 e8bd 2ec1 d03e c27d f2bd
000002e0: 2ce3 95bc bcef 81bd f95d e63d 1dae bd3e
000002f0: 3ec5 26bd 97b3 5e3f 5a6f 7b3b 249d bc3e
00000300: b92d b4bc 8ee6 333f fdee 1e3f 48a6 98bd
00000310: aafc 18bd 5840 633e 36f1 ebbd 39bc b9bc
00000320: 1804 d6bd bc50 62ba f082 c1bd c98d 14bd
00000330: df6c db3e 4661 203f 93fc 84bc 4186 d2bc
00000340: e1e8 c33c 2c1b 63be 88b2 b6be 0408 02bc
00000350: a184 d9bd cdee bdbd 2907 1a3f 31d4 bebd
00000360: d8f6 fdbc 2e6f 11ba f84d 52bd 91a5 31bc
00000370: 641b 34bc 41a7 df3d fcb7 bfbb 8b4d 93bd
00000380: 6e32 a0bd 0a88 8c3e 3fe7 c0bd 21d5 90bd
00000390: b983 02be dcaa 77bd 16fa c23d 69f6 d3bd
000003a0: 3524 aebd 4c56 95bd 7702 133f a483 8bbd
000003b0: 84ae a13d cfab 863f a6b4 8f3c 74ff 44be
000003c0: 8e59 a9bc 1034 47bd 74f5 c9bc 4898 343e
000003d0: 0c85 e1bd 2215 18bd 397a ccbe 172a 4b3f
000003e0: 9e24 debd 3a16 a1bd be5c 1b3f 4010 a13e
000003f0: dbda c53e b3c6 9cbd 2a1b 85bd 15ac c03d
-0.081207916 -0.066245444 -0.031321872 -0.19987118 0.1874232 -0.054649465 -0.112169616 -0.060417306
-0.057879012 -0.07166174 0.24581318 -0.13196042 0.9526573 -0.035049427 -0.057599917 -0.046011858
0.4154814 -0.043348 0.016235316 0.24789195 -0.028771775 -0.005680599 -0.008097178 -0.09199793
-0.101474725 0.23975164 0.47849375 -0.026365114 -0.03437748 -0.0887359 -0.079698816 0.69708794
-0.35968223 -0.06866098 -0.04398009 -0.054392017 -0.048133615 0.25489554 0.15975894 0.0013413768
-0.049618017 0.88459635 -0.07487908 0.25645134 -0.07598314 -0.10003865 -0.07248844 -0.06493877
-0.044358846 0.6498504 0.4048673 -0.07037162 0.13072783 -0.14111607 -0.00469092 0.9531028
-0.17731059 0.080181934 -0.13863198 0.269427 -0.11325249 -0.043513224 -0.11548778 -0.03817273
0.37222865 -0.04740494 -0.069955766 -0.053265866 0.009566992 0.76776093 0.0032869359 0.6989054
-0.14317043 -0.2909762 0.76359594 -0.049152292 -0.12438593 -0.078930676 0.8201134 -0.058101464
0.64217436 0.25578213 -0.1541668 -0.1270104 -0.32748142 0.306712 -0.088747814 -0.062610574
-0.09386572 0.004274235 0.56688255 0.5889737 0.504257 0.1976196 -0.05174485 -0.05853792
0.1301851 -0.09556477 -0.08224105 0.7275203 0.23697735 -0.0635075 -0.32579988 -0.018712103
-0.062929004 -0.023853324 0.29910415 -0.015470324 -0.09313525 -0.10900038 -0.018579446 -0.075401865
0.68624544 -0.02003972 0.7451904 -0.119681045 -0.033271108 0.18913643 -0.39708185 0.48120508
0.9091724 -0.18529725 -0.034100093 -0.3387695 0.5184112 -0.32421234 -0.21045975 -0.086312056
0.00092108164 0.0015010579 0.90898734 -0.060257778 -0.023695027 0.12846524 -0.058859486 -0.062376592
-0.121616945 0.28823254 0.050309982 0.07915799 0.21532962 -0.009334854 -0.113353446 -0.07295482
-0.08058415 -0.049491245 -0.08266795 -0.10917487 -0.090250164 -0.070921406 -0.03641268 -0.11250559
-0.040259834 -0.23359194 -0.40237123 0.25090832 0.28878334 0.39266574 0.39783537 -0.0023716623
-0.08114374 -0.014303218 -0.023707196 0.002371345 -0.060357593 -6.779707e-05 0.7520745 0.07589731
-0.04285127 -0.08520864 0.09854049 -0.061103992 -0.08873302 -0.0871095 0.26600716 -0.073324844
0.27577883 -0.10268178 -0.045061793 0.22084539 -0.08824628 -0.11344551 0.40772384 -0.11840393
-0.0182968 -0.06344554 0.112483926 0.370469 -0.04071545 0.8699278 0.0038365931 0.3683864
-0.021994459 0.70273674 0.6208342 -0.07453591 -0.037350334 0.22192514 -0.11520617 -0.02267276
-0.104499996 -0.0008633246 -0.094488025 -0.03626803 0.428565 0.6264843 -0.016233718 -0.025698783
0.023914756 -0.22178334 -0.35683084 -0.007936481 -0.10621 -0.09274063 0.60167176 -0.09317816
-0.031001493 -0.0005547878 -0.051343888 -0.010842697 -0.010992859 0.10920573 -0.00585079 -0.071925245
-0.07822119 0.2744754 -0.09419107 -0.07071901 -0.1274556 -0.06046568 0.09520356 -0.103497334
-0.08503 -0.072918504 0.57425636 -0.06812218 0.07894614 1.0521182 0.017542195 -0.19238073
-0.020672586 -0.048633635 -0.024653174 0.17636216 -0.11011705 -0.03712953 -0.39936998 0.793611
-0.10846828 -0.078655675 0.6068839 0.3145771 0.38643536 -0.07655086 -0.06499322 0.09407822
