RL/PPO_agent_model.pt (torch, 74647 bytes, 6 tensors)

linear1.weight f4 [128, 6]
00000000: 51cd 6fbd 6612 aebd 45dc ac3c a5ae 1e3c
00000010: f79a efbd d854 983d 7238 adbd 9f39 763e
00000020: 2551 7abd de86 1dbc f6ab e3bd 6704 aabc
00000030: b671 923d de91 803d e044 d7bc 90c3 18be
00000040: ea60 133e 29f7 bebc a329 7abd 241d 42be
00000050: c5f3 83bd c099 b93d 0fb9 433c 18db 40be
00000060: 37ef a7bc a0ae be3d 474d 343e 100b 943c
00000070: 9d3a f9bd a575 10be fa92 9dbc a3f1 debd
00000080: c1d5 1b3e 299a 2b3e 1d39 ff3d 6990 8e3d
00000090: 1627 1dbe 9177 cebc c6c8 b93d e297 733b
000000a0: 6032 9d3d fe6e 69be 5b2e 4d3d 445f 103d
000000b0: 91a9 b63d e1ba a13c cab3 6c3d 7486 293c
000000c0: f338 bd3d f386 193e 6a74 1cbd 95a7 303d
000000d0: 9bd8 aabb 5243 8d3d 5009 f0bc 2c5e 73bc
000000e0: f8aa e4bc 1237 643d 4932 f63d dfde 79be
000000f0: f05c 113e ffe6 f83d d089 df3c 3c75 d1bd
00000100: 658c fb3d 4911 4abd 0207 2c3d eb1a 82bd
00000110: 68d6 c83d 0ee7 58bd 9d1b e03d 586b ccbd
00000120: 6d84 ce3d 5c5f e6ba 0fcd be3d 0ead 24bc
00000130: a9aa 2bbd b942 803d e200 733d 53d6 ccbd
00000140: 3446 b23c ec0f d2bd 842e 62bd 677d acbd
00000150: aa63 89bd 8b3f 17bd eb87 643d a95a 53bc
00000160: 4eb8 e03c 0e23 26be 6161 0abd 39d8 f43d
00000170: b10e 02bd a5ad 24be 18b2 933a 01c5 20bd
00000180: 23c9 42bc 6686 be3d 4d10 a83a c69d b93d
00000190: 3e05 29bd 1917 7e3d 1e68 89bc f845 9fbd
000001a0: 5b98 583d d218 bb3d d279 c7bd 7000 183d
000001b0: 5c58 353c c68d 403d 7440 bbbd d6a2 c6bb
000001c0: 64c0 e1bd bcf7 8dbd 8585 ffbd 964e b1bc
000001d0: 10ea f53b 0732 533c 5da5 d5bb 9a46 02bd
000001e0: 676c cabd cef0 0ebd cb71 bebd c566 c2bd
000001f0: 8741 0dbd 7b45 b0bb bcce 213e 316f 493e
00000200: 95c3 3fbd 72b0 20be ad3c 953d 7e95 293e
00000210: f705 d93d 1de5 41bd 38ac 963d 3329 b3bc
00000220: 0681 0a3d 1424 7e3c 1ffc 00bd bedf 953d
00000230: 14e0 6cbd 4c22 013e 5410 a23d af27 1cbc
00000240: 04f0 fabd f939 ec3d dd30 2ebd 618c 4d3c
00000250: 7d8f d7bd e739 afbc b9d0 16bd c309 26be
00000260: c874 1d3e e5f5 69bd 9697 d5bd 90ff d1bd
00000270: 5f4b 4fbd 00c8 043d 1967 d53c 6ea3 e1bd
00000280: d307 87bd b502 babd 61c6 f23d 457b 7bbc
00000290: 26c6 d73d 6564 b7bb 3539 123c fd2d 373d
000002a0: c899 b4bc 4a50 99bc 54c4 7e3d cd01 00be
000002b0: e406 9bbc b2d3 b5bd 7faf 553c 58e2 f4bc
000002c0: e450 803c 94f9 8ebd 2164 863c 2b99 40be
000002d0: 543d a33d 2368 863d 97ab 023d 421d 09bc
000002e0: 7fb2 2a3e 7a8c 653e 8b05 ccbc 60ac 21bd
000002f0: f9a1 8e3d e7d7 2ebe 2936 bcbd f936 753d
00000300: a5e6 f73c 499c 52bc 5482 22bd 484a c53d
00000310: c85b 12bc af81 223e d173 19be 4653 6fbd
00000320: cd4a dc3d dc3e 10be 87be d7bd ee50 943c
00000330: 869e a63d 3e16 8b3c fa4c 013e 1197 52bc
00000340: d682 0b3e 86fd f5bc 27b3 053d 249b 353d
00000350: cbd4 5fbd 71df 653d 0fba 283d 6bda 0d3d
00000360: 62e6 e7bd 98dd a5bd eeb9 17be f1e2 333a
00000370: 4a06 b23c 4ac2 163d e7e7 79bc 1b0e 9abc
00000380: c329 1a3e a1bf b13c 88c3 973d 9f05 15bd
00000390: 447c 323c b7dd 023d 0c43 9cbc b55f 043e
000003a0: 7e7a 09bd 80cf c8bd 6ed2 b33d b1d2 033d
000003b0: 25e1 3cbd faf6 24bb 0896 38bd 1d3b 19bd
000003c0: 1770 363a 9a93 c8bd c43b 62bd c938 9a3c
000003d0: 4f56 22bd 4df6 edbd 6a7e 20be e54a 0cbd
000003e0: f42f 93bd f567 083b f6f9 9d3d c5d0 483c
000003f0: 1c61 e53d 6c13 0a3d f044 51be ec60 01bd
-0.058545414 -0.08499603 0.021101126 0.009685193 -0.11699479 0.07438058 -0.08458032 0.24045418
-0.06111254 -0.009614674 -0.11116783 -0.020754052 0.07150595 0.06277822 -0.02627796 -0.14918351
0.14392439 -0.023311215 -0.061074864 -0.18956429 -0.0644298 0.090625286 0.011945977 -0.18833578
-0.020499809 0.09310651 0.17607604 0.018071681 -0.12169383 -0.14107378 -0.019235123 -0.10885932
0.1521826 0.16758026 0.12462065 0.06961138 -0.15346941 -0.025203498 0.090714976 0.0037169387
0.07675624 -0.22796246 0.050093036 0.035247102 0.08919061 0.019742431 0.057788648 0.0103469975
0.09239378 0.14992885 -0.03819696 0.04312857 -0.0052138097 0.06897606 -0.029301316 -0.014853995
-0.027913556 0.05571658 0.1202131 -0.24401425 0.14195609 0.12153434 0.027287394 -0.10227439
0.122826375 -0.04933289 0.04199887 -0.063527904 0.0980652 -0.052954726 0.10942767 -0.09981412
0.10083852 -0.0017576027 0.093164556 -0.010051025 -0.0419108 0.06262726 0.059327014 -0.100018166
0.021761991 -0.10256943 -0.055220142 -0.08422356 -0.067084625 -0.036925834 0.055793684 -0.012900033
0.027431633 -0.1622431 -0.033784274 0.11955304 -0.031752292 -0.16081865 0.0011268286 -0.039250378
-0.011888775 0.09302978 0.0012822241 0.09063296 -0.041264765 0.062033746 -0.01677328 -0.07777017
0.052879672 0.091355935 -0.09740032 0.037109792 0.01106843 0.047010206 -0.09143153 -0.006061892
-0.11023024 -0.06932017 -0.12476639 -0.021643918 0.007504709 0.012890345 -0.006519957 -0.031805612
-0.09883957 -0.034897618 -0.09299048 -0.09492258 -0.03448632 -0.0053793765 0.15801519 0.19671322
-0.04681738 -0.15692309 0.072869636 0.16560933 0.10596841 -0.04733764 0.07357067 -0.021870231
0.033814453 0.015511531 -0.03149044 0.07318066 -0.057830885 0.1261074 0.079132706 -0.009530946
-0.122528106 0.11534495 -0.04252707 0.012545676 -0.10525415 -0.021389915 -0.036820147 -0.16214661
0.1537658 -0.05711927 -0.10429303 -0.10253823 -0.05060899 0.032417297 0.026050137 -0.110175
-0.06593289 -0.090825476 0.11854244 -0.015349214 0.10535841 -0.0055966848 0.008924772 0.044721592
-0.022045985 -0.018715043 0.06219895 -0.12500687 -0.018924184 -0.08878268 0.01304233 -0.029893085
0.015663572 -0.06981197 0.016405167 -0.18808429 0.07970682 0.06562831 0.031901922 -0.008368792
0.16669653 0.22416869 -0.024904987 -0.03947103 0.069644876 -0.17074548 -0.09190018 0.05986688
0.030261347 -0.012854644 -0.03967507 0.09633309 -0.008933015 0.15869783 -0.14985587 -0.058429025
0.107564546 -0.14086479 -0.10534387 0.018104997 0.08135705 0.01697838 0.1262702 -0.0128534
0.13624129 -0.030028116 0.032641556 0.044337407 -0.054646295 0.056121293 0.041193064 0.034632128
-0.11323239 -0.08098906 -0.1481702 0.0006862125 0.021731514 0.036806382 -0.015253044 -0.018805554
0.15054993 0.021697821 0.074103415 -0.036382314 0.010893885 0.031949725 -0.01907494 0.12927134
-0.033564083 -0.098052025 0.08780371 0.032183353 -0.046113152 -0.0025171624 -0.045064956 -0.03740989
0.0006959452 -0.09793778 -0.05523278 0.018825905 -0.03963309 -0.11619244 -0.15673223 -0.034251112
-0.07186881 0.0020813916 0.07713692 0.012256806 0.11200163 0.03370993 -0.20436454 -0.031586573

linear1.bias f4 [128]
00000000: 6370 0a3a c19e afb8 f384 993b 3cda 8abc
00000010: 078e 183c 1f8c b73b 19ba 02bc b53a 493b
00000020: abc9 4e3c 39a7 44bb 9f14 0c3c fe56 3d3b
00000030: 23c3 03bc d150 dbbb 3cf9 16bc 7a28 a9bb
00000040: 1bf9 873c daa3 563a eb41 45bc 8f43 52bc
00000050: 9244 a3bb 394a 953c 95b2 163c 4fca 95b9
00000060: d365 61bc b023 40bc fcc2 053b ee91 303c
00000070: abec 77bb 9388 7abb 39bc 973b 721f a2bb
00000080: 8180 08ba 11dd 9bbb 788d e03b d0b8 063c
00000090: 4be4 87bb bfcd 1f3c 2491 133c 6150 df3b
000000a0: 3112 53bc fb90 0fbc 6d0a e9bb 418e 4f3b
000000b0: 2360 3cbb bbfb eb39 07ec 883c 9627 51bb
000000c0: fc61 1b3b ca97 b53b 08cc 8038 64a4 bc37
000000d0: 5b67 b43b 580d 57ba 186b 573a 0df1 b5ba
000000e0: 897a 31bc e732 83bb 5051 0a3c 4037 97ba
000000f0: 385c 213c 7040 023b dd02 f93b 27f0 8f3c
00000100: 0055 d9bb f093 353c 94ed 6bbc ea09 ba3b
00000110: ba38 2f3c 394c a7bb a95b 243c d7dc a63a
00000120: b627 80bb cc0d 64bb b8b7 2fbb e5eb 39bc
00000130: f1b8 8fba e61c d3bb 4c3f 673c 3989 303c
00000140: 1fbb 63bb 7e0d a73b 6f34 55bb 655c 42bc
00000150: 2c6d 003c b891 1c3c 9390 b1ba 4e2d f93b
00000160: 8b73 5abc 1505 0b3a a9f9 3dbb cded d63b
00000170: 7f27 683b a109 32bb b2ed 24bc 347b 2bbc
00000180: 408e bd3b b938 51bb bb6a 8dbb 17ee 393b
00000190: 1a20 29bb c0ba 813a 2d52 c93a d143 593c
000001a0: 4796 7bbb 6a75 07ba 8487 64bb e3ef 363c
000001b0: b424 ed3b 9723 a4bb 3da9 8fbb 9c91 a63b
000001c0: 5b75 c1ba b2da b43b 80ab 58ba 79c2 2fbc
000001d0: 0983 a0bc 951c ac3c 19f1 28bb 6f48 e0bb
000001e0: 207c 6fbc 069d 42b9 070c 54bb 6d51 d03b
000001f0: cf26 ce39 9810 453c 284b 33bc 2bd7 9c3a
0.0005281029 -8.3742205e-05 0.0046850382 -0.016949765 0.009311206 0.0056014205 -0.007978939 0.0030705158
0.012621324 -0.00300069 0.008549838 0.0028890963 -0.00804213 -0.0066929837 -0.009214696 -0.005162296
0.016598275 0.0008187868 -0.012039642 -0.01283349 -0.0049825395 0.018223869 0.009197851 -0.00028570226
-0.013757187 -0.011727259 0.002041041 0.01077698 -0.0037830274 -0.0038228377 0.004630592 -0.004947596
-0.0005207137 -0.004756578 0.006852802 0.008222774 -0.0041470877 0.009753644 0.009006772 0.006815002
-0.012882755 -0.008762593 -0.0071118386 0.0031670483 -0.0028743825 0.00045010247 0.01671411 -0.0031914464
0.0023709526 0.0055417763 6.1415194e-05 2.2487897e-05 0.005505485 -0.00082035875 0.00082175573 -0.0013881043
-0.010832437 -0.0040038708 0.008442238 -0.0011536852 0.009848647 0.0019874834 0.0075992183 0.017570568
-0.0066324472 0.011082634 -0.014399905 0.0056774514 0.010694677 -0.005105522 0.010031619 0.001273061
-0.003910984 -0.0034798263 -0.0026812386 -0.011347746 -0.0010965151 -0.006442654 0.014114212 0.010774904
-0.0034748984 0.005098044 -0.0032532474 -0.011862849 0.007838529 0.009556226 -0.0013547115 0.0076042777
-0.013333212 0.00053031865 -0.002898792 0.00655911 0.0035423932 -0.0027166384 -0.010066437 -0.010466386
0.00578478 -0.0031924678 -0.004315702 0.0028370672 -0.0025806488 0.0009897575 0.0015359573 0.013260798
-0.0038389133 -0.00051673374 -0.0034870813 0.011165592 0.0072370414 -0.0050091255 -0.0043841884 0.005083276
-0.0014759706 0.0055192346 -0.00082653016 -0.010727518 -0.019593732 0.021009723 -0.002577847 -0.0068445723
-0.014616996 -0.00018559778 -0.0032355802 0.006357363 0.00039320296 0.012027882 -0.010943212 0.001196598

linear2.weight f4 [128, 128]
00000000: 22f2 2fbd f9c8 6bbd 6c1d bdbc e8ee 3e3c
00000010: 6eca 213c f1b5 3b3d e1b0 8fbd 2898 a2bd
00000020: a4e9 b0bd b80e 3f3e 2ee7 8c3d f363 d33d
00000030: 9804 f73d 296a 913b 0347 5f3c 1591 1abd
00000040: 34d5 ff3d 4abe 203d 8248 e8bd 1377 cbbd
00000050: e0df 8dbd d8ce 0f3e 0911 02be 02f0 9a3c
00000060: 0a0e d6bd f51b f2bd cd66 62bc 3226 1e3d
00000070: c41e f73c c4a8 943d 9515 d63d 5a5f 433d
00000080: 64ff 73bc 579c 6abb 4537 953d 07d2 8abd
00000090: 2343 8a3e 4d7e a63d 2dae 93bd 002f 45bd
000000a0: 6755 23bd 55f9 59bd bd78 64bd 350f a1bd
000000b0: 3cd4 25bd 66aa b3bd 4f3b c83d 9b6a 8bbc
000000c0: dbdd cf3c faaa a73c 7bed 3dbd c6d4 62bd
000000d0: 6b60 04bc 085c abbc b07c 573d d266 953d
000000e0: 5839 8c3d dd70 d1bc bb3b 68bd 83fa 15be
000000f0: d159 5f3d 64c5 30be 2a2d d33d 8a67 943d
00000100: b8cc 72bd 3394 78bd a2de abbd f85e 0bbe
00000110: 39bf 013e 8f32 28bd 53c2 bcbd bfa2 bbbd
00000120: ab1a 93ba 79dd 50bd 6048 bd3d 69a9 fcbb
00000130: 7186 64be 8eb1 8dbd d83b 043e 580e 8cbd
00000140: cdff 1a3e 14f5 6ebd 5680 97bd 8c0c 16be
00000150: 35ac f43d 1bde f4bd acc1 7fbd 55c3 a73d
00000160: 91d7 0c3c 7e63 273d 7914 4a3d 25b8 0d3e
00000170: 4acb 24bd c7e2 ffbb df88 02be 3374 c9bd
00000180: 39a5 40bc 61d2 29be c2c1 00bd 31db 77bd
00000190: f53e 743c b7f4 1fbe 692b d0bd fa72 083d
000001a0: 8458 c43d 154e b2bd 14b2 1a3c 7c8d 743d
000001b0: 2373 243c 52e5 333e ad79 03be d713 12bd
000001c0: e515 cb3d 81f5 123e 0aab 103e c34f c4bc
000001d0: 8ee3 8f3c 4b7b 29bd 1871 003c e31a 9bbc
000001e0: 286a a5bd 2839 6abd ac18 bbbd ac12 b1bd
000001f0: 8a77 acbd bc5b 7abc c966 0a3c 656a 423e
00000200: ae83 c63c 9032 d53d e617 b83d 1721 11be
00000210: b08c 653d 5385 f03c b5c7 b2bc 3fa0 8c3d
00000220: db73 d33c 1946 e03b c02a f3bd c011 e5bc
00000230: 4d42 e3bc c4d2 d53b 2aee 993d 5417 603d
00000240: 4781 9a3d 3310 d0bc 897b 7b3d 0be1 1abe
00000250: 581a 3bbe 7f45 713c e32a 09be ed7a 90bd
00000260: fc6e a4be 29ce ba3d 657d 0ebe 4afb 693c
00000270: 8051 b13d 1c3e 1f3d e65d 003e ad0f aabd
00000280: 3d02 8ebc f068 55bd 7d4d 5cbd 62dc c0bd
00000290: 1bff 1bbe bffc a13d cc57 143d 13f2 b3bc
000002a0: cde0 b33c fe95 1c3d 810c 9b3d 446e 33bd
000002b0: 0749 31bd 6d9a d2bd a8e6 44be 3f18 2ebd
000002c0: cd6b 82bd 724d 0ebe 7c18 0ebe 182f b8bc
000002d0: cc30 42bc 438d b4bd d792 84bd 8668 80bb
000002e0: c637 88bd 166f 15bd 9251 9e3d 749a 5ebd
000002f0: 86cb 953b 1145 3bbd 9ab3 ccb9 b34b 063e
00000300: 2b21 8a3d 0f41 10bc 7f56 d8bd ab35 503c
00000310: d2c4 363c 4a78 e5bb 94d6 fc3b bafd e43d
00000320: 1fbc 24be 1d43 5fbd bb81 3b3e 87b2 6ebd
00000330: 9c13 923d e8a2 b63c e73a cabd 782d d1bb
00000340: 186c 993d 00ad 013d f5ec 0e3d cffb 8f3d
00000350: 980c 153e 17b5 873d ca0a ef3d 6a56 fcbc
00000360: 0caf 973c 0bee 4fbd a586 ee3c 38e6 d93d
00000370: 5e1b e3bd bafe 6bbc 7583 a63d 8f4b 06be
00000380: 03c4 14be ed47 313d a370 31be 2441 8ebd
00000390: 4ba5 fd3d e80c 523d a07e 8e3b afde aebd
000003a0: d2d8 4ebd 2807 9f3d ea48 9b3d a793 de3d
000003b0: e41b 85bb c978 b8bd e85f 643d ac62 a33d
000003c0: 7f4e 3a3e df4a 3dbc 0d47 15bd 576e c1bd
000003d0: 09de 443d e156 cebd 59b0 8d39 e418 7dbd
000003e0: f4ab 133e 0104 02bd c0ca d4bc 0867 f23d
000003f0: 3fb3 01be 7f79 a23d 88df c9bd 6115 5b3c
-0.042955525 -0.05756471 -0.023085319 0.011653639 0.009874923 0.04582781 -0.07016159 -0.07939178
-0.086383134 0.18657959 0.068800315 0.10321798 0.12061423 0.004437704 0.01362777 -0.037736017
0.12491837 0.039243974 -0.11341955 -0.09934821 -0.069274664 0.14043748 -0.12701811 0.018913273
-0.104518965 -0.11821739 -0.013818455 0.038610645 0.030166037 0.07258752 0.10453335 0.047698356
-0.014892433 -0.0035798752 0.072859325 -0.06778341 0.27004346 0.08129559 -0.07210956 -0.048140526
-0.039876368 -0.053216297 -0.055779207 -0.07864229 -0.040485606 -0.08772735 0.09776937 -0.017018607
0.025374344 0.02046727 -0.046369057 -0.055378698 -0.008079628 -0.020917907 0.052609146 0.07295002
0.06846875 -0.025566513 -0.05669759 -0.14646344 0.054529015 -0.17262799 0.10311349 0.07246311
-0.059277266 -0.06068821 -0.08392073 -0.13610446 0.12670602 -0.04106384 -0.09216752 -0.09161901
-0.0011223158 -0.050992463 0.0924232 -0.007710625 -0.2231691 -0.069186315 0.12913454 -0.06838673
0.15136643 -0.058339193 -0.07397525 -0.14653224 0.119469084 -0.11956426 -0.06244056 0.081915535
0.008596317 0.040866368 0.04933593 0.13839777 -0.040232934 -0.0078090164 -0.12747525 -0.09836616
-0.011758142 -0.1658416 -0.03143478 -0.06051177 0.014907588 -0.15620695 -0.1016453 0.033312775
0.095871955 -0.08706299 0.009441871 0.059705243 0.010037216 0.17567948 -0.12839384 -0.035663452
0.099162854 0.14351465 0.14127746 -0.023963815 0.017564561 -0.041377347 0.007839464 -0.018933719
-0.08076888 -0.057183415 -0.09135565 -0.086461395 -0.08421238 -0.01528066 0.008447357 0.18985899
0.024232712 0.10410035 0.08988933 -0.14172779 0.056042373 0.029360449 -0.021823743 0.06866502
0.02581208 0.006844294 -0.11873388 -0.027962565 -0.027741576 0.0065253694 0.07516129 0.054709747
0.07544189 -0.02539835 0.06139711 -0.1512491 -0.18271768 0.014726042 -0.13395266 -0.07054696
-0.32115924 0.09121353 -0.13915022 0.014281103 0.08658123 0.03887759 0.1253582 -0.08303771
-0.017335052 -0.05210203 -0.053784836 -0.09417035 -0.15234034 0.079095356 0.036216542 -0.021966016
0.02195778 0.03822898 0.07570744 -0.04380633 -0.043282535 -0.10283361 -0.19228613 -0.04250359
-0.063682176 -0.1389673 -0.13876528 -0.022483394 -0.011852454 -0.08816006 -0.0647332 -0.00391871
-0.06651263 -0.036482893 0.07730402 -0.054346517 0.004571381 -0.045720164 -0.00039043726 0.13114814
0.067446075 -0.008804574 -0.10563373 0.012708108 0.011155324 -0.007002865 0.0077160094 0.11181207
-0.16087388 -0.054507364 0.18311207 -0.058275726 0.071326464 0.022294477 -0.09874516 -0.006383594
0.0749132 0.031659126 0.03489395 0.070304506 0.14555585 0.06626337 0.1167198 -0.030802924
0.018516086 -0.050764125 0.029116938 0.10639614 -0.11089204 -0.014403993 0.08130542 -0.13114761
-0.14527898 0.043281484 -0.17328124 -0.06946018 0.12385043 0.05128184 0.004348591 -0.08538567
-0.050499745 0.07765037 0.07582267 0.10868006 -0.0040621627 -0.09007413 0.055755526 0.079778045
0.18194006 -0.011553495 -0.036444712 -0.09444874 0.04806331 -0.100751646 0.00027025005 -0.061791316
0.14421064 -0.0317421 -0.025975585 0.11836058 -0.12666033 0.0793333 -0.09857088 0.013371796

linear2.bias f4 [128]
00000000: 72ca 053c 8c60 f43b c46f 50bb b0b6 1e3b
00000010: 9dd6 803a dfc0 6b3b 3d8c bc3b c917 753b
00000020: 3b41 173c c743 083a 2b5c dc39 e206 c9bb
00000030: a8a9 673b 4cec b33b 03ae c53b 1345 84bb
00000040: 2a57 823a 0129 7e3b b903 7abb d0fa 8fbb
00000050: 65d4 03bb d373 a93b 2701 d43b 6fc9 51bc
00000060: ee41 ae3b 2a28 4ebb 0123 22bb b4dc b0b9
00000070: cebb 0f3a 7443 d43a e806 c63b b55f 2d3b
00000080: b527 b2ba c4ce a13b 55a9 c4bb 8e0c 68ba
00000090: 18d2 fdbb a1a8 e2ba 4b08 4bbb 7bdf 3f3b
000000a0: 768f d03b 7fec 02bc 6644 293b 0dd1 433b
000000b0: 75ae 293a 67c5 b6bb 6ba3 63bb 9688 e23b
000000c0: 2f7e 72bb ced1 8b3b 5ad3 37bb e057 c2bb
000000d0: dede 423a 6e27 e83b 439c 04bb 734c b9bb
000000e0: b8d1 c13b f86d 8fbb 128a 9d37 be55 89bb
000000f0: c3db c13b beb0 5dbb 84df 1dba 02c1 d73a
00000100: 41b8 fc3a 1bc2 65bb 99ec 6f3b 1f30 8ebb
00000110: 7b79 d0bb dd3b e7bb 734b 633b 5f92 89bb
00000120: 3a29 943b dd39 b7bb 2f67 8abb e00c eb3a
00000130: baaf d239 48a2 683a 244d 4eba 9152 e0b8
00000140: 0b15 cc3b 60c2 c0b9 b19b 7b3b ac21 0d3b
00000150: 03d5 cbba 0fbe af3a d709 f6ba 622c e5bb
00000160: 6977 723b 1328 613b f0b2 943a 0e55 97ba
00000170: b5a6 b0bb fbeb d83a 50f2 65bb 7a0f 333b
00000180: c094 4a3b ac90 5dba 70f6 54bb 133f cc3b
00000190: f920 0abc 3765 0ab8 85f9 ec3a 0074 333b
000001a0: 4203 c6bb 26d7 55bb 4b93 0ebb e6e9 d03b
000001b0: 0e6f 11bc 2c66 bdbb a622 45bb bc67 26ba
000001c0: 99b9 823b cad3 d5bb 4b8b 203a 6efe 9d3b
000001d0: d36a ccbb 06f3 39bb 43ba 9d3b 72b4 703b
000001e0: 82d2 683b 086b 07b9 4f72 f53a 79e6 b0bb
000001f0: 1d96 f038 806d 1f3c 515a e53a 0abc 21bb
0.0081659425 0.0074577983 -0.0031804899 0.0024217777 0.0009829585 0.0035973114 0.0057540224 0.003739821
0.009231861 0.0005198088 0.0004203034 -0.0061348537 0.0035348926 0.0054908153 0.0060327067 -0.0040365546
0.000994419 0.0038781764 -0.0038149192 -0.004393913 -0.002011561 0.005171278 0.006469864 -0.012804373
0.005317918 -0.0031457045 -0.0024740102 -0.00033733773 0.0005483002 0.0016194419 0.0060433038 0.002645475
-0.0013592156 0.0049379785 -0.0060016313 -0.00088519685 -0.0077459924 -0.0017292687 -0.0030980285 0.0029277492
0.006364758 -0.007990955 0.0025828122 0.0029879243 0.00064728345 -0.0055777314 -0.0034734856 0.006913255
-0.003700148 0.004266954 -0.002804956 -0.0059308857 0.00074337225 0.0070847785 -0.002023474 -0.0056548654
0.005914893 -0.004377123 1.8780152e-05 -0.0041911295 0.00591609 -0.003382727 -0.0006022381 0.0016460719
0.0019280986 -0.0035058323 0.003660953 -0.0043392326 -0.006362138 -0.007056697 0.0034682422 -0.004198357
0.004521516 -0.0055916146 -0.004223726 0.0017932914 0.00040185248 0.00088742794 -0.0007869771 -0.000106965315
0.0062280945 -0.00036765914 0.003839236 0.0021534963 -0.0015551153 0.0013408082 -0.0018771243 -0.0069938162
0.0036997444 0.0034356161 0.0011344831 -0.0011545734 -0.005390967 0.001654982 -0.0035087056 0.0027322457
0.0030911416 -0.0008452039 -0.003249552 0.006233105 -0.008430713 -3.2996028e-05 0.0018079734 0.0027382374
-0.006042869 -0.003262946 -0.0021755274 0.006375539 -0.008876575 -0.005780002 -0.0030080467 -0.0006347855
0.00398941 -0.0065254914 0.0006124272 0.00482159 -0.0062383204 -0.0028373613 0.004813464 0.0036728648
0.0035525863 -0.00012914476 0.0018726083 -0.005398568 0.000114720526 0.009730697 0.001749823 -0.002467873

linear3.weight f4 [6, 128]
00000000: 823f 273e dd03 04bd 7a6f 21bb c8a3 fc3b
00000010: 553c bfbd 1b6d 113e ef1e d53d 0c5c f13d
00000020: 58a5 c9bc da73 dcb9 2a6b b33d 1c47 013e
00000030: 67bb 743d 0d07 de3c fd28 05bd bc41 4cbe
00000040: 43c2 26be 3750 093e 9364 133d 50d8 8b3d
00000050: d4ce a13c f7a1 fb3b 8dca ae3b dac7 bcbd
00000060: d5de 20bc 0296 583d 96b2 6d3d 57ad c93b
00000070: 126b 8fbc 5d72 12bd 23a0 e03d d9e7 c43b
00000080: 9cd8 99bd 7c63 323e 5fec 90bd 893c 13be
00000090: 2a19 0c3e 3a20 d3bd 7fb3 febc 91b5 733d
000000a0: 634a 4ebd bdda 2cbc d754 0bbe cb41 11be
000000b0: e681 f43d fbf8 0f3e 03b4 2c3d 2f6f a7bd
000000c0: 0085 f23d 93e0 17bd 70a1 30bd 37bd bc3d
000000d0: 0818 b2bd 81cc e43d 4053 353d b40e 85bc
000000e0: 22a1 3fbd 1cfc 823d f306 ac3d 2694 a03d
000000f0: 33ee 4fbd 70df 94bd af6e fa3c 1f9b 94bd
00000100: 6594 ddbc 3e34 5b3d 7a5d cdbd 8345 623e
00000110: 8f84 903d 2f72 c33d 0c16 8a3d e77a dc3d
00000120: d4fd cd3c 1d55 6f3c 21b1 59bd 0df2 e43d
00000130: bbba 63bd 0629 c93c 054d 38bd e817 303d
00000140: 1e7e ad3c 5ba5 f53d 5d53 09bd 62d7 093e
00000150: f995 163e 338a a7bd 3e8d 113e 0bf6 0c3e
00000160: e03d d13d dcd8 1fbd be23 873d 983e 8e3d
00000170: 3493 973d 0743 5ebc beea dabd eb8c 41ba
00000180: b96a 823d 85e3 e43d ee84 9b3d 28ee c8bc
00000190: 3840 6dbb 86b3 47bd 34f6 a0bc f6a0 e1bd
000001a0: ec56 313c 0639 0abd ce34 1a3d feb3 a83d
000001b0: 3ba6 72bd 550b 813c 4781 533c 609b 21be
000001c0: ef5b 7fbc cb5a 7fbc 1613 4ebd 7fac 703d
000001d0: 3193 ee3c 2510 11be edbd 0e3d e98b cc3d
000001e0: fb89 d3bd f1ea 7a3d ed44 cebd fcbd 3f3d
000001f0: 4e6d 49bd 58e2 b13d 1d27 393e 5594 bebd
00000200: 06c6 e5bd 5e6d b53d 4388 113e 679c 053d
00000210: 240c a1bd 8f15 67bd 383c 3c3c e7ac 513d
00000220: 5cfd b1bd e776 93bc f49a 0a3c 4f5f 813d
00000230: 129d 82bd 4dae 183d 88e4 593d dbcf 363d
00000240: 74a2 3e3e cc8b 86bc 8306 99bd 2f7b 0b3d
00000250: 2a7d e4bd 2789 febc eff4 36be 0fd5 063e
00000260: d02b 243d b4fd f23d 978e 443e 8bc1 0f3e
00000270: 5488 fe3d 4202 aa3d 7fa2 03be dc95 ca3d
00000280: 1e90 f7bc 7ecb a9bd 11ba 453d c367 083d
00000290: 5b36 143e 0897 d53c dcf9 6fbd 4e68 c83c
000002a0: b815 303e 7bdc 20bc 115a cd3d 6e39 cc3d
000002b0: c7eb 0fbd ccb6 31bd 95bf dfbd efd7 553d
000002c0: 6a8f ce3d 32fd 563d 0ff0 30bc 169c 1e3d
000002d0: ae58 39bd bd60 acbd 4cd9 853d d7eb 4abd
000002e0: 82d7 933d 5146 873d 650b 87bd 4534 143c
000002f0: 77b2 12be fc6c 273d 23cc d13c aaf3 193e
00000300: 487b a9bd cd52 b7bd b104 abbd 8aa7 eb3b
00000310: d159 75bd 0276 d83d 2c82 973d 081a 2abe
00000320: 019e 233e 6e18 12be 6245 08be b537 5e3d
00000330: 2d0e 52be 56bc 253d fd5c 533d 116c b93d
00000340: 6e2e 693b 18f3 a2bd 984f 3abc 8deb 853d
00000350: 4da6 563c 5fc8 5abd bd22 2c3d 84ae e03d
00000360: 9e8b 80bc 4af8 a2bd 4729 53bd ab88 d8bd
00000370: ec34 133d 0f65 403d 6955 d8bd 1022 75bd
00000380: b187 ca3d a2a1 b3bd 185d c9bb d1a4 75bd
00000390: e337 933c f53c 9dbd 57c0 053d 3db6 99bb
000003a0: 6240 f7bc 4157 52bc 4d62 e83b 3517 263e
000003b0: f02e bc3b efd8 533d 99db a63d dc18 aabd
000003c0: 3d29 18be eda6 c7bc 3d11 f73c a6e5 96bd
000003d0: 8b04 45bc 35ee 463d 1d9f 33be 6194 5ebc
000003e0: 7087 7ebd f178 aa3d b302 89bb 622c e53d
000003f0: 8076 e23c a191 1b3e 1298 933c 8c60 97bd
0.1633282 -0.032230247 -0.0024633096 0.007709954 -0.09337679 0.14201777 0.10406291 0.11785135
-0.024614975 -0.00042047986 0.08760674 0.12624782 0.059749033 0.027102971 -0.032509793 -0.1994695
-0.16285042 0.13409506 0.035984587 0.06828368 0.019751944 0.00767922 0.0053342045 -0.09217806
-0.009818752 0.052877434 0.05803164 0.006154697 -0.01750711 -0.035753597 0.10968044 0.0060090837
-0.07512018 0.17420763 -0.07076334 -0.14378561 0.13681474 -0.10308881 -0.03109145 0.059499327
-0.05036391 -0.010550198 -0.13606583 -0.14185254 0.11938839 0.14059822 0.04216386 -0.081755035
0.11841774 -0.037079405 -0.04312271 0.09215777 -0.0869599 0.111718185 0.044268847 -0.016242363
-0.046784528 0.06395742 0.08399763 0.07840757 -0.050764274 -0.0726918 0.030570356 -0.072561495
-0.0270483 0.05351662 -0.10027595 0.22096829 0.070565335 0.09543263 0.06742486 0.10765629
0.025145449 0.014607695 -0.05314744 0.1117898 -0.055598002 0.024555694 -0.044995327 0.04299155
0.021178301 0.1199443 -0.033526767 0.13461068 0.14705648 -0.08180656 0.14214036 0.13765733
0.1021688 -0.039025173 0.06598614 0.069455326 0.07401124 -0.013565785 -0.10689305 -0.0007383364
0.06368012 0.111762084 0.07593714 -0.024527624 -0.0036201607 -0.04875519 -0.019648649 -0.11017029
0.010823946 -0.033745788 0.037648015 0.08237456 -0.05924056 0.015752474 0.01290924 -0.15781927
-0.0155858835 -0.015585612 -0.05031117 0.058758255 0.02912292 -0.14166315 0.034849096 0.09987623
-0.10329052 0.061259214 -0.1007174 0.046812043 -0.049176507 0.0868575 0.18081327 -0.09305636
-0.112194106 0.08858751 0.14212136 0.03261986 -0.07863644 -0.056417044 0.011488967 0.051190283
-0.086909026 -0.018001033 0.008459795 0.06317007 -0.06377615 0.0372756 0.05319646 0.04463182
0.18616658 -0.016424082 -0.07471945 0.034053024 -0.11156686 -0.031071259 -0.17866872 0.13167213
0.040080845 0.11864796 0.19195019 0.14038675 0.12428346 0.08301212 -0.12854956 0.09891865
-0.030220088 -0.08290766 0.04827315 0.03330208 0.1447386 0.026072994 -0.058587894 0.024463799
0.17195785 -0.009818192 0.100269444 0.09971891 -0.035136964 -0.04338722 -0.10925213 0.052207883
0.10085948 0.05248756 -0.010799422 0.038723074 -0.045250587 -0.08416889 0.06535587 -0.04954132
0.07218839 0.06605209 -0.0659397 0.009045665 -0.14325891 0.04087542 0.025610035 0.15034357
-0.08275467 -0.0895134 -0.08350504 0.007191603 -0.05990011 0.10569383 0.07397875 -0.16611493
0.15978242 -0.14267132 -0.13307717 0.054252345 -0.2051322 0.040462814 0.051602352 0.09053815
0.0035580653 -0.07956523 -0.011371516 0.06539068 0.013101173 -0.053413745 0.042025317 0.10970786
-0.015691575 -0.07957514 -0.051553037 -0.10572942 0.035939142 0.046971377 -0.10563166 -0.059846938
0.09889162 -0.087710634 -0.006145131 -0.059971634 0.017970985 -0.07677642 0.032654133 -0.004690914
-0.030182067 -0.012838186 0.0070917965 0.1621979 0.0057429 0.051720556 0.08147354 -0.08305523
-0.14859481 -0.024371589 0.030159587 -0.07368021 -0.012025009 0.048567016 -0.17541166 -0.013585181
-0.062140882 0.08323849 -0.00418123 0.11190106 0.027644396 0.15192272 0.018016849 -0.07391462

linear3.bias f4 [6]
00000000: 0bc1 c63a db03 ceb8 26a5 123b 55ef fb3a
00000010: c640 0abb b779 af39
0.0015163732 -9.8235636e-05 0.0022376268 0.0019221107 -0.0021095737 0.00033469286
