RL/PPO_critic_model.pt (torch, 71895 bytes, 5 tensors)

weight f4 [128, 4]
00000000: ea21 1f3c 258e 8dbd c3a4 be3d a212 23bd
00000010: f63a fcbd bb78 593d 682b babc b675 2e38
00000020: 44ca 9ebc 0221 c0bd d515 023e 9526 f53a
00000030: 9d1c 403e be34 ea3c 755d aa3c 31cb 313d
00000040: 05b2 913b 9156 ccbd 8085 d7bc 2317 f7bd
00000050: fc3f 51bd 85d2 c5bb ef42 92bd 9e43 ec3d
00000060: d7f9 4dbc cfa5 003c 5555 2b3d 9e07 023d
00000070: af97 0d3d 3180 a83d e7a0 b73d 9972 693d
00000080: 256e 743c d001 e9bb ee13 41bd 7184 d63c
00000090: 7709 31bc 3a7f 9dbc 51ac 06be 7517 533e
000000a0: 1ecf 613c d57e 59bd f765 073d 1b9f c8bd
000000b0: e8c9 2d3d 986a 3c3e a516 943d 0621 183d
000000c0: 4ff4 53bc 07cf 953d 3554 a13d f818 83bd
000000d0: 688d d2bd 1b64 a3bd 507d 913d 2139 49bd
000000e0: 3b53 cfbb 8222 ce3d e884 04be c1aa d73b
000000f0: 0b53 c93d 64e8 8fbe dc92 c13d 23d2 40bd
00000100: be9f c9bd 4842 e2bb dc49 ac3d 6e3f dfbd
00000110: d32b 9abd cb63 e93c 0b49 133e f663 3bbc
00000120: e592 8bbd 8355 14bd 4169 b43d 79ff 103e
00000130: 6769 a03d 1059 a6bd 51be 7abd 8209 ab3d
00000140: 9616 15be fbbb 093e 78cc 153d 086e 3a3d
00000150: 3e6d 143e a50c b73d 9d97 36bb ad2f a43d
00000160: 3a9f 373e a3f2 e83d 5c7b 5dbc c4f6 8abd
00000170: d7b5 a13b 4928 e13d 4a9a ae3c 810f 01be
00000180: c29b f1bd 6ad1 fa3d 1b1f 9c3d da91 b1bd
00000190: 2875 69bd 364e 953c e4ac 0bbd c246 053e
000001a0: d755 4bbd 8fa4 9bbc 8090 9a3e 7cd7 e1bc
000001b0: 94b2 9cbd 5c90 433c 3e7a b93d 1eb6 693d
000001c0: c2ab 68bd 01d7 2dbd acb0 c53d c3e3 1cbe
000001d0: 1ed3 2fbd cd3b fd3c 7c11 a63c b6c7 e3bb
000001e0: c5b3 bcbd 892d 273b ca32 c83d fd3b 8d3d
000001f0: b31c 233d 3b57 853d 8158 313d 8f4b d83d
00000200: eeb0 283c 66da 843d ac16 963d 7621 763d
00000210: 5f0b a5bd c7d6 13bd 3f60 c13d 5a67 a5bd
00000220: f86d ae3c 8a58 79bd 099c 01be 5459 1fbe
00000230: a423 503d dc8b 92bc 4606 773d 02c2 563e
00000240: ec47 6e3d ce3c 6dbe 0605 91bd 3b31 e0bd
00000250: ede1 9bbd 9a62 bcbd 17f7 a93c 09cf 88bb
00000260: 5f5b e93c db44 9d3c 3522 a93d 56a4 e43d
00000270: def5 0cbd bc1d 3bbe 2174 cabd 4fce afbd
00000280: 2a44 49ba 2151 7c3d 36c0 403d dd50 80bd
00000290: 157a 5e3d 474b 983d 2898 debd 8e08 b2bd
000002a0: c265 34bd 21fa d5bd b2f0 103c 12cd 8d3d
000002b0: e007 02be 774d 753c 8cb2 043c fd7a c4bd
000002c0: 8c29 693d 3f79 613d f215 afbd 13cd 823d
000002d0: b2ad fdbc add7 76bd 05ff e03c a2fb 173e
000002e0: d942 0c3e 8a75 d2bd ba0e d7bd a5d5 f83d
000002f0: 9c2a 2fbc 9660 4a3d d711 febd 5d5f 8ebd
00000300: 6f30 b0bd 277c 5cbb fc25 36be 0ade 8f3d
00000310: d926 18bd f2f3 913b 7362 ed3d f5c5 593d
00000320: 0863 a73c 1c29 ae3c 1d70 77bc fe5a 4abd
00000330: cdda 403d c6cb b33c f2fb 313e 3612 13bc
00000340: c909 943d dae6 e9bc 6342 9dbd e7bf 2abe
00000350: 8719 67ba 2f11 a73d 4503 773d bc6b b03d
00000360: 69ff b83d 9808 483e adda ba3d 76b5 463d
00000370: 36be dabd 148f 7c3c 7d1d 9b3d 4b44 363d
00000380: ab47 063d ab23 58bd 01f2 17be 1f73 113e
00000390: 415c 4b3d f442 203c 6a5f a13d 9812 c73d
000003a0: a31b 783d 3b75 42ba 1942 0cbe 54e0 993b
000003b0: 7050 4fbe 30d6 9f3d 769a b7bc f3bd cd3d
000003c0: 8964 f93d 39bc 793e 447b 32bc 2108 83bd
000003d0: 62df 20bd 3e5d 383d a536 4ebc 3992 e03d
000003e0: cc08 f8bb a6e4 053d 1fb7 b4bd ed31 cd3d
000003f0: ae4f eabc 8089 14bd f8b0 00bd d799 5fb9
0.009712676 -0.069118775 0.093087696 -0.03981269 -0.123159334 0.053093653 -0.022725776 4.159446e-05
-0.019383557 -0.09381296 0.12703641 0.0018703515 0.18760915 0.028589603 0.020796517 0.04340667
0.0044462704 -0.09977449 -0.026308775 -0.1206496 -0.05108641 -0.006037059 -0.07141673 0.115363345
-0.0125717735 0.007852032 0.041829426 0.031745546 0.034568485 0.082275756 0.089662366 0.056994054
0.014918839 -0.007110812 -0.047138147 0.0261862 -0.010805479 -0.019225705 -0.13151671 0.20614417
0.013782291 -0.053099472 0.033056226 -0.09795972 0.04242888 0.18400037 0.072308816 0.03714087
-0.012936666 0.07314878 0.07877389 -0.06401247 -0.10280877 -0.07978078 0.071039796 -0.049126748
-0.0063270605 0.100651756 -0.12941325 0.0065816347 0.09830292 -0.28106987 0.09451839 -0.047075402
-0.098449215 -0.006904874 0.08412525 -0.1090077 -0.0752789 0.028489968 0.14383332 -0.011437407
-0.06815127 -0.036214363 0.08809138 0.14159955 0.07832604 -0.08122456 -0.061216656 0.08351423
-0.14559397 0.13450615 0.03657195 0.04551509 0.14494798 0.08937959 -0.0027861365 0.08016906
0.17931834 0.11374404 -0.013518181 -0.06785348 0.004935007 0.10994012 0.021313805 -0.1260357
-0.117972866 0.12246974 0.076231204 -0.08670397 -0.056996495 0.01822577 -0.03410043 0.13015273
-0.04964241 -0.018999366 0.3018837 -0.027568571 -0.076512486 0.011936273 0.09056519 0.057058446
-0.056804426 -0.04244137 0.09652838 -0.15321259 -0.042925946 0.030912304 0.02027201 -0.0069512976
-0.09213976 0.0025509319 0.09775312 0.068962075 0.03982229 0.065107785 0.043297295 0.10561287
0.01029609 0.06486969 0.07328543 0.060090505 -0.080588095 -0.0360935 0.094421856 -0.08076353
0.021292672 -0.060875453 -0.12657179 -0.1556142 0.05081524 -0.017888956 0.060308717 0.20972446
0.05817406 -0.23167726 -0.07081036 -0.1094689 -0.07611451 -0.09198494 0.020747704 -0.004175071
0.028485952 0.019197872 0.082584776 0.11164157 -0.034414165 -0.18273062 -0.09885431 -0.08584272
-0.0007677699 0.061600808 0.047058307 -0.062654234 0.054315645 0.07436233 -0.10868865 -0.08693038
-0.044042356 -0.10448099 0.008846449 0.0692388 -0.12698317 0.014972082 0.0080992095 -0.09593771
0.056924388 0.05504727 -0.085491076 0.06386771 -0.030966613 -0.06026428 0.027465353 0.14842084
0.13697375 -0.10276325 -0.10500856 0.121501245 -0.010691311 0.049408518 -0.124057464 -0.06951783
-0.08602988 -0.0033643337 -0.17787927 0.070247725 -0.037146423 0.0044541294 0.11591043 0.053167302
0.020432964 0.021259837 -0.0151024135 -0.049403183 0.047083665 0.021947753 0.17381266 -0.00897651
0.07228429 -0.028552461 -0.07678678 -0.16674767 -0.00088157546 0.081575744 0.060305852 0.08614299
0.090330906 0.19534528 0.0912374 0.0485129 -0.10680811 0.015414972 0.07573984 0.044498723
0.03278319 -0.05276839 -0.14838411 0.14204071 0.049648527 0.009781588 0.07879527 0.09720343
0.06057323 -0.00074179814 -0.13697089 0.0046959314 -0.20245528 0.07804525 -0.02241252 0.100459956
0.12177379 0.24388207 -0.010893647 -0.06398035 -0.039275534 0.045010798 -0.01258627 0.1096539
-0.007569408 0.03268876 -0.0882399 0.10019288 -0.028602447 -0.036263943 -0.03141877 -0.00021324247

bias f4 [128]
00000000: f0d1 01bc efc8 eebb f835 f0bb be79 df3b
00000010: 0fa1 dc3b 8560 f53b ad96 dabb 192b e23b
00000020: 6169 f33b c2ff dbbb dc74 e5bb 7b6f ff3b
00000030: aaf0 fe3b 946b e5bb 90d3 df3b d54d e7bb
00000040: 69b1 eabb d009 06bc 7b0f e83b 0ce8 fe3b
00000050: 5390 fdbb 97d2 dabb 679f dcbb 097f dc3b
00000060: b1be e93b 85fb ec3b da6a 033c b695 063c
00000070: 0f71 e5bb 1306 e53b 6890 f2bb 662c e63b
00000080: e7d5 e2bb 04ce f1bb 6e40 e1bb 90f3 e53b
00000090: 32e1 e2bb 672c e4bb ef44 fdbb f652 edbb
000000a0: 4d8e df3b 932e e43b 38af da3b cc9c f8bb
000000b0: 0def 08bc f96f e7bb 7c04 f0bb 32d3 07bc
000000c0: 2bc4 df3b fe65 e23b 2b14 ea3b 4676 e83b
000000d0: 8b4b 0cbc eecb 023c edfd e73b fd67 04bc
000000e0: 14ed f33b c1c7 ef3b 3794 e9bb 0695 e9bb
000000f0: d695 ed3b 5ae7 0b3c c047 e93b 9ffc 003c
00000100: f02a e8bb 9464 e4bb 2e73 e5bb 94d3 e03b
00000110: 8b99 eebb 21a4 df3b 52a3 ee3b d55f db3b
00000120: 1e1f ddbb d1d6 ea3b 08ef df3b c12d fdbb
00000130: ecc5 edbb ff29 03bc 042f df3b 2ec6 ecbb
00000140: 17f4 dc3b f358 f13b 4c45 edbb 18ce f1bb
00000150: 9ea3 e23b 585a dc3b 77f9 e3bb 7d20 e8bb
00000160: 0d40 df3b dfaf d73b 9257 eebb fa6d f63b
00000170: bbef f23b d7fb eb3b 1b8f e63b 5798 db3b
00000180: 15ce 03bc a142 dbbb 0ed1 e1bb 1b20 dcbb
00000190: 8db6 e0bb 94aa e13b 5f27 de3b fd3a e7bb
000001a0: f62b ecbb 0473 003c cc2b e53b eae8 dbbb
000001b0: 1ed5 dbbb 6ef5 e5bb 0482 0bbc 5ad2 ddbb
000001c0: 2fdc e43b 3ccd 053c 354b 0bbc e101 e23b
000001d0: 397f e4bb 528d fc3b e206 ee3b bdb8 df3b
000001e0: efe2 e7bb 4b7b d43b e6c5 d9bb e33d e7bb
000001f0: 8e07 d9bb b39b ef3b e306 023c 33a6 e3bb
-0.007923588 -0.0072871367 -0.0073306523 0.0068199327 0.006733067 0.0074883127 -0.006670794 0.0069021103
0.0074283336 -0.0067138383 -0.007002456 0.007795272 0.0077801542 -0.0070013497 0.00683064 -0.007058839
-0.007162262 -0.00818105 0.0070819235 0.007779127 -0.007738152 -0.0066779363 -0.0067328694 0.006729011
0.007133328 0.007232132 0.008021081 0.008214405 -0.007002003 0.0069892495 -0.0074024685 0.0070243357
-0.006922472 -0.0073792953 -0.0068741357 0.0070175603 -0.006923818 -0.006963301 -0.007729165 -0.0072425557
0.0068223835 0.00696356 0.0066737197 -0.007587051 -0.008357775 -0.0070629087 -0.0073247533 -0.008290099
0.006828805 0.006909131 0.0071435175 0.0070941774 -0.008562933 0.007983191 0.007079831 -0.008081433
0.0074440334 0.0073175137 -0.0071282643 -0.0071283607 0.007250528 0.008539045 0.007119149 0.00787273
-0.0070851967 -0.0069699977 -0.007002256 0.0068611596 -0.0072814873 0.0068249856 0.007282653 0.0066947737
-0.006748094 0.0071667214 0.0068339147 -0.0077264016 -0.00725626 -0.008005618 0.0068110246 -0.0072257733
0.006742965 0.00736534 -0.007240927 -0.0073793046 0.0069164773 0.006724637 -0.0069572288 -0.007083951
0.0068130554 0.0065822448 -0.007273623 0.0075204344 0.007413832 0.0072016525 0.0070361025 0.00670151
-0.008044739 -0.0066912924 -0.0068913763 -0.0067176945 -0.0068576992 0.0068867896 0.0067795957 -0.0070565925
-0.007207389 0.007839922 0.0069937464 -0.006711115 -0.006708755 -0.007017783 -0.008514885 -0.0067694606
0.0069842557 0.0081666075 -0.0085018175 0.0068971966 -0.006973174 0.0077072764 0.007264004 0.0068274424
-0.007076613 0.006484424 -0.006645906 -0.007056938 -0.006623215 0.007312262 0.007936212 -0.0069473027

weight f4 [128, 128]
00000000: 77d6 af3c fe76 8bbd af80 e8bc f9f0 b03d
00000010: 70ea 2f3d 2502 b83d b7d5 8c3c 5269 d4bc
00000020: 5017 5a3b e382 06bc e59b 443e fe96 81bd
00000030: b74f 17be 9d6a d43d bebf 853d dcc7 dabb
00000040: 90fd e33c 7ddd 2e3a 7ab8 8d3d 0183 95bb
00000050: 0708 23bd 785e 1abc 1cc8 33bd aaa1 f03d
00000060: e555 963d 559a 2abe a0ac bf3d fe80 1c3d
00000070: f0ef e43c 7900 d2bd 25a9 98bc 0243 273c
00000080: 4c9c 1cbe 8378 613c bdb9 fabd 922a 833c
00000090: ad5d 8bbd 2ed1 cb3c 450a 1f3e 4747 253e
000000a0: 237e b0bd 8405 30bd 2dab ad3c 8280 08be
000000b0: b441 d8bc 2e22 373c a008 19bd 6cbe c63d
000000c0: 46fc 7b3d 6555 67be e679 2d3d e07c 493d
000000d0: 053d f4bd 852e ba3d e1d9 0c3e 4a1d 9fbc
000000e0: d443 50bd beda 1a3c a880 c13d 5ded 10be
000000f0: dea7 0e3e ed23 9fbd 5885 0bbd 9e0f a6bd
00000100: 82fa 6a3d ad7b b13a 1d1c 51bd 2701 293d
00000110: 8276 10bc 9716 1dbd 7984 1fbe 02b8 1c3e
00000120: ca04 6cbd 499c 403d 5437 d4bb 7b70 563c
00000130: 6bcf 30bc f52a abbd 2a63 203d d30e eb3d
00000140: f368 e83c 61b8 5cbe 70e8 8a3d a49a 4b3d
00000150: 5bff 1b3e 750f a2bc 84a4 673c 6b89 41bd
00000160: 42cf 2a39 0f40 c5bc 6f0d 96bc f7cf c0bc
00000170: 0f66 553d 88c0 0f3e cabe 3bbd cd3d 71bb
00000180: 3792 36be 6ba8 f2bd 1dcb 69bd e30f 4e3d
00000190: f3ad de3c b6f2 ba3d b177 15be c9d7 f1bc
000001a0: f2ec 213e 9277 1ebe 0f86 19bc 2211 d9bd
000001b0: 60dc 41be b8c0 d63c a512 e0bc f6cd cb3d
000001c0: 7b44 eebd 12d3 e33d 1fcd 933d 6775 acbc
000001d0: b223 873d de6a 21bd b400 4e3c 28a0 383e
000001e0: 1f0e 15be ba99 09bd da20 c33d be64 16bb
000001f0: 6493 05be 3b94 173e c46e 613d da27 4f3c
00000200: 757b 9a3d b858 8dbd f414 f8bc 54e5 33bc
00000210: 8ba0 f3bd b209 1bbd 1333 d8bd 956d 39bd
00000220: 0426 6ebe 8cf0 c7bd 165d 463e dbc8 97bc
00000230: c05d 0c3e 0872 57bd 867f 023e 5bcf 453d
00000240: 65ce 2ebd f6cd 483d 90eb e53d aea3 083c
00000250: d8d0 893e 4936 01bd 58a2 82bc ff7f 863d
00000260: 1bad f7bd 0c9a 2f3d 8abb 9cbc 7f34 d2bd
00000270: bdfa 9abc 5820 47bd 1ac0 5a3d ea84 6b3d
00000280: d0cc 9e3c 6b4a 82bd e20e c23d d8a5 f3bb
00000290: e943 4f3c 3562 e23d ff7d e83d ea3d 3abd
000002a0: 34d3 9cbd 07d3 ff3d cd29 ac3c a01c 4c3c
000002b0: 9324 29bc f466 a73d 4a6e 1d3e bab2 c3bc
000002c0: d85d c2bd 8173 323d 8978 2abd 3284 40bd
000002d0: fda6 47bd 88b3 73bc ff1d 6f3d cb26 1fbe
000002e0: 6939 5abc d239 193c e849 e9bc b49c 423d
000002f0: 6f79 f1bc f09e e83d 3a0d d23c 0e1f ad3d
00000300: fc30 363e b740 cfbd 74e4 57bd 199a bd3d
00000310: f928 323d 2d36 bb3d a31c 39bd 8bc2 ef3d
00000320: b3b3 333c a258 e43c 2132 67bc 449e 36be
00000330: e6af a23d 7ea9 7d3d 0093 90bd 861e 7a3b
00000340: 4bbb 9b3c 8560 70bd 3f01 73bd 1e20 e63d
00000350: 7617 eabd 0f73 233d 6501 24be 9b20 61bc
00000360: 09b5 a13d d102 143e 19f7 693d 3144 bf3c
00000370: 720a 553c 3fc6 963d 4520 31bd 1102 25bd
00000380: 7f09 1b3c a55c d13c 77b2 713d b7b5 5a3e
00000390: 7bbf 1dbe 858a debd 3b35 af3c f00f ffbd
000003a0: be85 e9bd 7f63 83bd c06c 41bd 0b80 9c3d
000003b0: 0648 9e3d 1a1d 0f3e cf55 4dbd 8ba1 353e
000003c0: db57 9fbd aad2 dfbd fd8e b73d c329 463b
000003d0: 10d6 533e e34c 52bd 4766 183e afcc 6e3d
000003e0: 7387 873d 2293 28bd 7104 45bc 25c5 b23d
000003f0: 85f7 c7bc 3c67 cbbb 0279 45bd f033 d73c
0.02146457 -0.06809805 -0.028381674 0.08639712 0.042948186 0.08984784 0.01719175 -0.025929127
0.0033278055 -0.008209917 0.19200094 -0.063276276 -0.14776503 0.10371897 0.065307125 -0.006676657
0.027830869 0.00066705776 0.06919952 -0.004562736 -0.039802577 -0.009421937 -0.04389201 0.11749585
0.07340602 -0.16660435 0.093590975 0.038208954 0.027946442 -0.102539964 -0.018635342 0.010208847
-0.15293998 0.013761642 -0.12242458 0.01601151 -0.068049766 0.024880018 0.15531261 0.16140471
-0.08617809 -0.04297401 0.021199787 -0.13330272 -0.026398517 0.011177583 -0.03736174 0.09704289
0.061519884 -0.22591169 0.04235258 0.049191356 -0.11925701 0.09090904 0.13754989 -0.019423146
-0.050845936 0.009451566 0.09448367 -0.14153047 0.13931224 -0.07770524 -0.034062713 -0.081084475
0.05736781 0.0013540887 -0.0510522 0.041260865 -0.008817317 -0.03835162 -0.15577878 0.15304568
-0.057621755 0.047024045 -0.006476322 0.013088341 -0.01079164 -0.08357803 0.03915707 0.11477437
0.028370356 -0.2155471 0.06782615 0.049708024 0.15234129 -0.019782761 0.014138345 -0.047250193
0.00016289673 -0.024078397 -0.018316953 -0.023536665 0.052099284 0.14038289 -0.045836248 -0.0036810518
-0.17829214 -0.118485294 -0.05707847 0.05030812 0.027182555 0.09128325 -0.1459644 -0.02952184
0.15813044 -0.154753 -0.009370341 -0.10598971 -0.18931723 0.026214942 -0.02735264 0.09951393
-0.11634155 0.11124243 0.07216858 -0.021052076 0.06598605 -0.039408557 0.01257341 0.18029845
-0.14556168 -0.03359387 0.0952775 -0.002294823 -0.13044506 0.14802639 0.055037275 0.012643779
0.07543079 -0.069016874 -0.030283429 -0.010979969 -0.118958555 -0.037851043 -0.10556617 -0.04527052
-0.2325669 -0.097626776 0.19371447 -0.018528393 0.13707638 -0.052598983 0.12743959 0.048293453
-0.042677302 0.049024545 0.112265706 0.0083398055 0.26917148 -0.03154591 -0.015946552 0.06567382
-0.12093564 0.04287152 -0.019132394 -0.10263919 -0.01891839 -0.04861483 0.05340586 0.057499804
0.019384772 -0.0636185 0.09475495 -0.0074355416 0.012650468 0.11053888 0.11352157 -0.045469202
-0.07657471 0.12491422 0.021016026 0.012457997 -0.010323661 0.081739336 0.15374103 -0.023888934
-0.094905555 0.043567184 -0.041618858 -0.04700107 -0.048743237 -0.014874347 0.058378216 -0.15542142
-0.013319352 0.009352164 -0.028477624 0.047512725 -0.02947685 0.1135844 0.025641073 0.08453189
0.17792124 -0.10119765 -0.052708104 0.092579074 0.043496106 0.091411926 -0.045193326 0.11707028
0.010968137 0.027874295 -0.014111073 -0.17833811 0.07943706 0.06192922 -0.07059288 0.0038165166
0.019010207 -0.0586858 -0.05932736 0.112365946 -0.11430256 0.03990465 -0.16016157 -0.013740684
0.07895858 0.144542 0.057120416 0.023347946 0.013002979 0.07362031 -0.043243665 -0.040285174
0.009462713 0.025556872 0.059008088 0.21358381 -0.15405075 -0.10866264 0.021387687 -0.12454212
-0.114024624 -0.06415462 -0.047222853 0.0764161 0.07728581 0.13975945 -0.05013066 0.17737405
-0.07780429 -0.10928853 0.0896282 0.0030237294 0.20687127 -0.051342856 0.14882766 0.05830067
0.06617632 -0.04115594 -0.012024985 0.087290086 -0.024410019 -0.006207375 -0.048211105 0.026269883

bias f4 [128]
00000000: cc53 d63b f55b dfbb d1d4 d33b 5990 d93b
00000010: 2dac d5bb 0ab9 d4bb 6718 d4bb 13f9 d4bb
00000020: ac7a dbbb b889 d5bb 0065 d53b d82d d63b
00000030: 4584 d73b c68e d53b f582 d5bb befd d4bb
00000040: 9827 d63b 23d4 d5bb d9e7 e1bb 88fc d9bb
00000050: 957c d83b bcab d5bb adff d5bb 94ae d7bb
00000060: 03d5 d9bb d372 dcbb 357e d43b 7aae d83b
00000070: 1440 d83b 08c1 d73b f4ad fb3b 68a0 e7bb
00000080: c07f d5bb de85 e3bb 3ecf d5bb 51c1 d5bb
00000090: cfb3 d5bb 8973 d83b 2478 e4bb d6f0 d9bb
000000a0: 9e35 dfbb 2db3 d5bb 236c d6bb 32c6 d9bb
000000b0: ed24 d5bb b438 dbbb e127 d53b b625 df3b
000000c0: 37d1 d53b 9159 d73b 8337 d7bb e968 d63b
000000d0: 984c d5bb 5b01 d7bb 5987 d5bb 6ce3 e2bb
000000e0: 9367 d5bb a5f6 d73b 48fb d43b 2168 d73b
000000f0: f1f0 e63b 77ce d5bb b10a d53b 7b91 d53b
00000100: a706 dfbb 1aa7 d63b 47c1 d5bb fe1a d5bb
00000110: 3444 d6bb a805 d6bb a3ec d5bb 18db d5bb
00000120: e42d d6bb d397 d4bb d993 d83b 5fb4 d7bb
00000130: 170b d63b 662a e9bb b89d d6bb b38c d93b
00000140: b481 d53b 780f d5bb bb29 da3b 0e27 d63b
00000150: c372 d5bb c4b1 d4bb f040 d5bb 2859 d53b
00000160: d2ad dbbb 3e89 d53b d090 d73b 216f dcbb
00000170: 41f3 d8bb a59c d4bb 3ca3 d63b 2a60 d53b
00000180: 7f10 d93b e6c4 d53b de65 d73b daf2 cebb
00000190: ced6 df3b 4907 d73b 5914 ecbb c3e7 d5bb
000001a0: a96d d5bb 191b d8bb 5677 d73b f6a2 d93b
000001b0: c063 d5bb d905 de3b 7154 db3b 29d0 d43b
000001c0: 735a d6bb 25a2 dcbb a12f d8bb a939 d53b
000001d0: 934b d43b 5a19 d83b 5df9 d53b c300 d83b
000001e0: e919 d93b 80ba d8bb 008a ef3b 7ced da3b
000001f0: 3025 d6bb 57e9 d4bb ae75 d73b dbcf d43b
0.006540751 -0.006816382 0.0064645787 0.006639522 -0.006520769 -0.006491785 -0.0064726355 -0.0064994185
-0.0066979732 -0.0065166615 0.0065122843 0.0065362267 0.006577047 0.006517264 -0.0065158554 -0.006499975
0.0065354817 -0.006525533 -0.0068940935 -0.0066524185 0.006606648 -0.0065207165 -0.006530723 -0.0065820906
-0.0066477074 -0.0067275553 0.0064847716 0.006612596 0.0065994356 0.0065842904 0.007680649 -0.0070686825
-0.006515473 -0.0069434484 -0.0065249493 -0.0065232893 -0.006521679 0.0066055697 -0.0069723297 -0.0066510243
-0.0068118116 -0.0065216036 -0.0065436526 -0.006645941 -0.006504646 -0.006690109 0.006504998 0.0068099154
0.0065251845 0.0065719564 -0.006567897 0.006543268 -0.006509375 -0.006561441 -0.006516379 -0.0069240835
-0.006512591 0.0065906816 0.0064996816 0.0065736924 0.0070477654 -0.0065248567 0.0065015187 0.0065175868
-0.006806213 0.006550682 -0.0065232846 -0.006503462 -0.006538892 -0.006531436 -0.0065284534 -0.006526362
-0.0065362323 -0.0064878254 0.0066094217 -0.006582781 0.0065320837 -0.00711565 -0.0065495633 0.006639087
0.006515706 -0.006502088 0.0066578067 0.0065354174 -0.006513925 -0.006490918 -0.0065079853 0.0065108724
-0.0067040706 0.0065166047 0.0065785423 -0.006727115 -0.006620795 -0.0064884 0.006550221 0.006511708
0.006624281 0.0065237163 0.006573423 -0.0063155713 0.0068310266 0.0065621478 -0.007204574 -0.0065278723
-0.0065133166 -0.006595027 0.0065755052 0.006641741 -0.0065121353 0.0067755994 0.006693416 0.006494541
-0.006541544 -0.0067331963 -0.0065974747 0.0065071178 0.0064787357 0.006594819 0.0065299706 0.0065918877
0.006625403 -0.0066140294 0.007310152 0.0066811424 -0.006535195 -0.006497543 0.006575308 0.006494505

weight f4 [1, 128]
00000000: af87 863d 1a13 9dbc c910 8d3d ecf0 0c3d
00000010: 7252 9cbd 94fe 8bbd dd89 d0bd c6ed 3cbe
00000020: da9e 11bd d893 f0bd 2196 053e 0797 b93d
00000030: 169d 463d fd6f fc3d 972f 08be 3897 3bbe
00000040: 15ac be3d 410d dcbd d110 b2bc 090d 42bc
00000050: b9dd 3a3d 9ad0 19bd 6078 b4bd df1a 86bd
00000060: fffe 04bd a7a2 edbc 4242 153e fc82 313d
00000070: e29f 763c 30c7 713d 8e6c e23b 72b2 86bc
00000080: e7ce c2bd 8e03 8dbc 713f ecbd bd6c f0bd
00000090: 5099 fbbd 1ca3 483d 6e9b 8ebc 9c43 1dbd
000000a0: 9c8e 8cbc f338 bebd aaf9 b7bd 144d 20bd
000000b0: 7030 1fbe 3440 04bd 4f78 0a3e ab20 693c
000000c0: 5be3 f13d 89c9 8a3d 002a 7bbd 24e2 4d3d
000000d0: bbfe 0abe 29a4 92bd a286 ffbd 8687 a4bc
000000e0: 3407 11be b702 a23c 631c 233e faca 833d
000000f0: f13b 4b3c 58ca dabd c2b0 f33c 05cd f33d
00000100: b6a5 32bc c8a5 a63d 9348 c1bd f543 30be
00000110: fd17 c0bd 0bfd d5bd dc4e cebd 1d39 dbbd
00000120: 5c76 acbd 2fb4 3cbe c170 403d 3c6f 86bd
00000130: efa3 ce3d 763e 65bc de2d aebd 9070 143d
00000140: da75 ed3d 3b10 35be dee7 ad3c 5e71 b93d
00000150: 7c15 04be 9aef 71be c4dc 8bbd 0d71 cc3d
00000160: da81 08bd 3811 023e 2a8b 803d 486c dabc
00000170: 64c9 18bd 6221 6dbe 6d75 8a3d 76be 283d
00000180: e59b 353d f299 db3d 0528 3d3d 18a8 cabc
00000190: f3cf 873c aace 653d b4c7 4fbc d923 eabd
000001a0: f06a 11be b1f5 46bd c7cd 8e3d e2f9 223d
000001b0: 4030 14be fe9a be3c db3d 0a3d d285 473e
000001c0: 11ad a2bd d6cc e0bc 3df9 56bd 977a e53d
000001d0: ca39 883d 93c4 6b3d 2744 b83d b19a 6b3d
000001e0: 4827 343d 7aec 4abd 35a9 163c aceb 1a3d
000001f0: 42cc 4fbd 755f 4abe 83ba 873d 33ec 4a3e
0.06568848 -0.019174147 0.06887967 0.03440945 -0.07632913 -0.06835666 -0.10182545 -0.18450078
-0.035551883 -0.11746949 0.13045551 0.09062009 0.048489653 0.123260476 -0.13299404 -0.18319404
0.09310166 -0.107447155 -0.021736534 -0.011843928 0.045621607 -0.037552454 -0.08812022 -0.06548094
-0.032469746 -0.029008223 0.14576057 0.043337807 0.0150527675 0.05902785 0.0069099134 -0.016442511
-0.0951212 -0.01721361 -0.11535538 -0.1173949 -0.122851014 0.04898368 -0.017408099 -0.038394555
-0.017157845 -0.09288206 -0.089831665 -0.039136007 -0.15545821 -0.03228779 0.13522457 0.01422898
0.11810943 0.06776721 -0.06131935 0.050264493 -0.13573734 -0.07160217 -0.12476851 -0.020084154
-0.14162904 0.019776685 0.15928797 0.06435199 0.012404428 -0.10683125 0.02974737 0.11904339
-0.010903766 0.08137089 -0.094376706 -0.17213424 -0.093795754 -0.10448655 -0.10073635 -0.10704253
-0.08421013 -0.1842811 0.04698253 -0.06564185 0.100898616 -0.013991943 -0.08504842 0.03624016
0.11594744 -0.17681973 0.021228727 0.09054826 -0.1289882 -0.23626557 -0.06829217 0.099825
-0.03332696 0.12701881 0.062765434 -0.02666296 -0.037301436 -0.23157266 0.067606784 0.041197263
0.044338126 0.10722722 0.046180744 -0.024738356 0.01657865 0.056105293 -0.01268189 -0.11432619
-0.1420095 -0.048574153 0.06972843 0.039789088 -0.14471531 0.023267265 0.033750396 0.19484642
-0.07943166 -0.027441423 -0.052483786 0.11205023 0.066516474 0.057560515 0.08997374 0.057520572
0.043982774 -0.049541928 0.009195616 0.03782241 -0.050731905 -0.19762976 0.06627371 0.19816665
