RL/PPO_agent_model.pt (torch, 75479 bytes, 6 tensors)

weight f4 [128, 6]
0.034530193 -0.015684878 -0.059803475 -0.104048856 -0.05345613 -0.041798864 -0.18163101 0.15564083
0.087487206 0.079336435 0.12676202 0.12343089 0.11333495 -0.14004917 0.0823587 -0.09472993
-0.03258264 -0.13919283 0.07702802 0.03790035 -0.034413036 0.042452637 0.012437421 -0.07728952
0.010912138 0.022503752 -0.14908683 -0.06335606 -0.10048031 -0.08696801 0.052287012 0.058788836
-0.07776017 0.07072856 0.02678862 0.077124074 0.117847174 0.2299408 -0.072300345 0.06889026
0.16735952 -0.045030855 -0.046896655 0.031543616 0.03238907 0.035718992 -0.039278246 -0.0196463
0.069277525 -0.16616394 0.043633707 0.07112156 -0.17305388 -0.08116287 0.11267114 -0.04002204
-0.008860783 -0.00891953 0.038839858 0.028777372 0.13956235 -0.034871705 -0.04001594 -0.018192118
0.10010971 0.0032946926 -0.05986248 -0.0031141818 0.21397854 -0.04848278 0.017671105 0.09373758
-0.01956395 -0.035179257 -0.050200365 0.15313303 0.023859227 -0.11478026 0.076349854 -0.07374753
-0.06504779 0.12525101 -0.053038083 0.16071367 -0.13485497 0.024028394 0.1136658 0.041659955
-0.079701416 -0.04063179 -0.09942376 -0.009916231 -0.082397945 -0.017933521 0.042758573 -0.08766942
-0.082669444 0.009905615 0.04256881 -0.036750637 0.030653745 -0.06295792 -0.104145266 -0.13527307
-0.15109612 0.034284335 0.05915742 -0.0043897564 0.05396917 0.07995301 0.08715664 0.0049013137
0.020048555 -0.07621558 -0.032704074 -0.086794995 -0.010435343 0.04756397 -0.08614765 -0.09546366
-0.08777385 -0.09573486 0.16293707 0.03969758 0.089425564 -0.058771648 -0.18336499 0.073801376
-0.056720376 0.05813431 -0.13153812 -0.05765036 0.023235442 0.072621 0.14719015 -0.017108686
0.042246662 0.15787978 -0.10779288 0.0066171787 0.09767537 -0.05202377 0.035327982 0.122111835
0.11323101 0.035053894 0.0069336025 0.13552177 0.043261666 0.06532829 0.05057079 -0.019528406
-0.04023152 0.051168863 0.15126544 0.07136194 0.084719874 0.096128605 0.0066993413 0.038609862
-0.09867701 0.021389822 -0.0652707 0.13144062 -0.066927016 0.044885322 0.08511344 -0.03448629
-0.14085715 0.06074862 0.082081266 -0.0579698 -0.1283457 0.012972091 -0.026196472 -0.054157026
0.05817661 -0.042907756 -0.020397408 0.020108446 0.0022208232 -0.03298412 0.070651636 0.061223205
-0.024356326 -0.12194328 0.079632744 -0.023423836 0.12328157 0.062913366 0.09151868 -0.024114043
-0.10684739 0.033944637 0.10060802 -0.0414397 -0.043804206 -0.00825981 -0.005865747 -0.010257136
-0.020632105 0.07840147 0.0101009905 -0.023666097 -0.0148064485 -0.14793883 0.018143354 0.20340921
-0.030925779 0.044227242 -0.13176176 -0.061117124 -0.058774315 -0.07386721 0.09836424 -0.02923926
-0.10052164 -0.05622914 -0.038170256 0.020381784 -0.09889082 0.09120088 -0.11194035 -0.0498554
0.1451077 0.073276326 0.005167796 0.11147127 0.0820007 0.19203822 0.1116108 0.016244391
-0.005568923 -0.05068247 0.05894593 0.104472354 -0.04156315 0.00087961415 0.08290274 0.061846647
-0.046020307 -0.030862307 -0.0027489527 0.052097693 0.031199023 0.20884024 -0.0003554528 -0.21084963
0.03948275 0.08897485 -0.05583626 -0.0011156801 0.07928291 0.11144947 0.0025050736 -0.18325496
00000000: 886f 0d3d 937d 80bc 7df4 74bd 9117 d5bd
00000010: d1f4 5abd 4935 2bbd 7bfd 39be 4f60 1f3e
00000020: 7e2c b33d 247b a23d e7cd 013e 56c9 fc3d
00000030: 271c e83d 0d69 0fbe aeab a83d c401 c2bd
00000040: 6075 05bd 9188 0ebe dec0 9d3d 663d 1b3d
00000050: aff4 0cbd d1e2 2d3d 53c6 4b3c f849 9ebd
00000060: d3c8 323c ca59 b83c 38aa 18be d2c0 81bd
00000070: 9fc8 cdbd 491c b2bd e82a 563d 90cc 703d
00000080: b940 9fbd 23da 903d cf73 db3c 3af3 9d3d
00000090: dc59 f13d 9a75 6b3e 3412 94bd 5616 8d3d
000000a0: 4b60 2b3e 4672 38bd b516 40bd e133 013d
000000b0: 67aa 043d 144e 123d 3ae2 20bd 47f1 a0bc
000000c0: 60e1 8d3d e126 2abe 42b9 323d 2ea8 913d
000000d0: 0935 31be b838 a6bd 20c0 e63d 27ee 23bd
000000e0: d12c 11bc 3823 12bc 8b16 1f3d 86be eb3c
000000f0: 6fe9 0e3e a2d5 0ebd c1e7 23bd a307 95bc
00000100: 5206 cd3d c5eb 573b 5c32 75bd 4d17 4cbb
00000110: 311d 5b3e e195 46bd fec2 903c 7df9 bf3d
00000120: 9444 a0bc 2018 10bd e69e 4dbd e8ce 1c3e
00000130: 6d74 c33c ea11 ebbd 505d 9c3d f208 97bd
00000140: c737 85bd cd41 003e 763e 59bd 2092 243e
00000150: 6c17 0abe 32d7 c43c 9dc9 e83d a1a3 2a3d
00000160: 7f3a a3bd 856d 26bd af9e cbbd b077 22bc
00000170: 41c0 a8bd 52e9 92bc 9d23 2f3d 068c b3bd
00000180: 994e a9bd 294b 223c a25c 2e3d d687 16bd
00000190: 901d fb3c 15f0 80bd 1d4a d5bd 0685 0abe
000001a0: f1b8 1abe bb6d 0c3d 0d4f 723d f2d7 8fbb
000001b0: c70e 5d3d 67be a33d 2e7f b23d 339b a03b
000001c0: de3c a43c ea16 9cbd b5f4 05bd 93c1 b1bd
000001d0: 00f9 2abc 70d2 423d 2e6e b0bd 7482 c3bd
000001e0: c7c2 b3bd a310 c4bd fad8 263e ee99 223d
000001f0: c024 b73d 8aba 70bd 08c4 3bbe 2d25 973d
00000200: a053 68bd 3e1e 6e3d eeb1 06be c922 6cbd
00000210: 4158 be3c 52ba 943d 04b9 163e 8427 8cbc
00000220: d60a 2d3d 3dab 213e 83c2 dcbd ebd4 d83b
00000230: 060a c83d e016 55bd 13b4 103d c515 fa3d
00000240: a9e5 e73d ac94 0f3d 4633 e33b 38c6 0a3e
00000250: 2533 313d d7ca 853d 5123 4f3d 09fa 9fbc
00000260: cec9 24bd 7196 513d 54e5 1a3e 3526 923d
00000270: 9d81 ad3d 13df c43d 2686 db3b 6025 1e3d
00000280: 2c17 cabd b539 af3c a5ac 85bd 5f98 063e
00000290: 0811 89bd acd9 373d f54f ae3d 7f41 0dbd
000002a0: db3c 10be 8cd3 783d 391a a83d be71 6dbd
000002b0: 0e6d 03be e588 543c fc99 d6bc c2d3 5dbd
000002c0: 994a 6e3d 0bc0 2fbd 7718 a7bc 78ba a43c
000002d0: 3b8b 113b 5b1a 07bd ceb1 903d 2fc5 7a3d
000002e0: eb86 c7bc 66bd f9bd 7e16 a33d 58e3 bfbc
000002f0: 0c7b fc3d b9d8 803d 256e bb3d d08a c5bc
00000300: ced2 dabd 8809 0b3d 940b ce3d adbc 29bd
00000310: 0a6c 33bd 2754 07bc 7435 c0bb 8c0d 28bc
00000320: a904 a9bc f390 a03d a07e 253c 67df c1bc
00000330: bf96 72bc 477d 17be 5fa1 943c 814a 503e
00000340: 0f58 fdbc a027 353d 8eec 06be f355 7abd
00000350: 56bd 70bd b147 97bd 3173 c93d 2c87 efbc
00000360: 4ade cdbd 8750 66bd 6a58 1cbd b3f7 a63c
00000370: 4587 cabd 87c7 ba3d fb40 e5bd 2d35 4cbd
00000380: 1d97 143e e611 963d 9d56 a93b 0d4b e43d
00000390: fcef a73d aba5 443e 3494 e43d f512 853c
000003a0: 837b b6bb 6c98 4fbd 4a71 713d 9af5 d53d
000003b0: 1f3e 2abd e895 663a e9c8 a93d e952 7d3d
000003c0: ca7f 3cbd f3d2 fcbc c627 34bb 6464 553d
000003d0: 1895 ff3c 37da 553e 115c bab9 f7e8 57be
000003e0: aab8 213d 7238 b63d 90b4 64bd 033c 92ba
000003f0: 145f a23d 9f3f e43d 292c 243b 30a7 3bbe

bias f4 [128]
-0.007934332 -0.0011645347 -0.007240363 -0.0031149173 -0.005319022 0.0008519932 0.0037768942 -0.005956992
-0.0039791744 -0.00027584293 0.0042137406 -0.008838185 -0.00998056 0.007952682 -0.0059133167 0.0015071369
-0.0070290426 -0.0048588994 0.00906434 -0.0071976087 0.0015183727 -0.007809474 -0.005007229 0.008914315
-0.003245524 0.0022248426 0.0077392296 -0.013646961 -0.0054143746 -0.0034054082 0.00913912 0.009536974
-0.003584317 -0.0066630687 -0.012267924 -0.007537357 -0.0006477685 0.012981813 0.014540686 0.002747692
0.008047955 -0.0030743773 0.004807306 -0.013017798 -0.006323101 -0.009247589 0.0021630798 -0.00020884504
-0.0016602374 0.0038489131 0.011682318 -0.0001974628 -0.007891976 -0.0036396387 0.0036076014 0.008389211
0.006014599 0.013235112 -0.0010594305 0.00038819865 0.00790635 0.010716782 -0.006948775 0.008390278
-0.0077809747 -0.009351945 -0.0082359705 -0.005847033 0.008550606 -0.0044680005 0.005103048 0.007890858
-0.0008253677 -0.00093537715 -0.005322963 0.00054692687 0.0027683512 -0.02189709 0.013876892 0.0072809397
-0.00045801591 -0.012004723 -0.004873181 0.003056116 0.002310443 0.016990887 -0.015315613 -0.012219878
-0.0022150145 0.012143669 0.006262387 -0.0031737762 0.0040870076 -0.009624429 0.009400804 -0.003512552
-0.0055499393 -0.0028563342 0.012220168 -0.0033245876 -0.011202755 -0.013208588 0.010061334 0.01410221
0.0073520876 -0.0053155078 0.006023495 -0.0061802133 -0.0028246914 -0.009246707 0.0028829982 0.014186799
-0.0027758193 -0.0024124787 0.0134457955 0.001236201 -0.00655601 0.006566367 -0.007229708 -0.0049778163
0.0041995198 -0.0048578507 0.0050382293 0.004221822 0.0070024775 0.014080358 0.008820997 -0.0055170106
00000000: 00ff 01bc 4da3 98ba 9140 edbb a423 4cbb
00000010: 314b aebb 4c58 5f3a c585 773b df32 c3bb
00000020: bc63 82bb 039f 90b9 6b13 8a3b 09ce 10bc
00000030: 8185 23bc f74b 023c 7fc4 c1bb 1f8b c53a
00000040: e253 e6bb 6737 9fbb 9982 143c ebd9 ebbb
00000050: 2204 c73a 9ee6 ffbb ae13 a4bb 590d 123c
00000060: dbb2 54bb aace 113b 5d99 fd3b 8197 5fbc
00000070: 116b b1bb 452d 5fbb 3fbc 153c f840 1c3c
00000080: dce6 6abb df55 dabb 67ff 48bc effb f6bb
00000090: 02cf 29ba acb1 543c 0f3c 6e3c 9f12 343b
000000a0: 92db 033c 7e7b 49bb 9b86 9d3b 9a48 55bc
000000b0: 0432 cfbb 3383 17bc 75c2 0d3b 6afd 5ab9
000000c0: 539c d9ba 0c3e 7c3b 3167 3f3c 040e 4fb9
000000d0: 594d 01bc 0187 6ebb 826d 6c3b e772 093c
000000e0: 1d16 c53b 15d8 583c 97dc 8aba 2487 cb39
000000f0: a389 013c 7195 2f3c 8db2 e3bb 6077 093c
00000100: 8cf7 febb e638 19bc 2af0 06bc 7898 bfbb
00000110: d717 0c3c 4e68 92bb 7837 a73b a848 013c
00000120: 7d5d 58ba 1934 75ba 406c aebb a45f 0f3a
00000130: 3a6d 353b 8761 b3bc e75b 633c f394 ee3b
00000140: db21 f0b9 75af 44bc 35af 9fbb 1e49 483b
00000150: cd6a 173b 7930 8b3c 56ee 7abc e235 48bc
00000160: c729 11bb 3df6 463c b634 cd3b 21ff 4fbb
00000170: 4eec 853b c8af 1dbc d405 1a3c d832 66bb
00000180: 44dc b5bb 5631 3bbb 1937 483c 53e1 59bb
00000190: c38b 37bc d568 58bc 4bd8 243c f50c 673c
000001a0: c8e9 f03b b62d aebb bd60 c53b 6383 cabb
000001b0: 751e 39bb 807f 17bc aff0 3c3b bf6f 683c
000001c0: 85ea 35bb ad1a 1ebb c14b 5c3c 0608 a23a
000001d0: ccd3 d6bb ae2a d73b 30e7 ecbb f31c a3bb
000001e0: 209c 893b 9b2e 9fbb bb17 a53b 3657 8a3b
000001f0: 0a75 e53b 4db1 663c f185 103c 0ac8 b4bb

weight f4 [128, 128]
0.19580048 -0.03637615 0.078482985 0.14502619 -0.12269331 0.019965794 -0.026450194 -0.061418764
-0.003717247 -0.08313294 -0.03789818 0.0712655 -0.033266578 0.06805966 -0.07984491 -0.1088157
0.10865349 -0.12241394 0.046296693 -0.026366314 -0.067362905 0.088242136 0.008792342 0.041982546
-0.09182056 -0.046999063 -0.0012375272 0.21574119 -0.08111485 0.019603767 -0.08597612 0.03490167
-0.06947036 0.059076365 0.081387356 0.09450339 -0.050701346 0.048193477 0.03627609 -0.13445716
-0.13001804 -0.03902491 0.08471125 -0.06851654 -0.107689805 -0.017647147 -0.057340212 0.101952836
0.18581066 -0.005849446 0.033033255 0.1019493 -0.02875172 -0.0074965465 -0.0071773217 0.038573988
-0.013611956 -0.1298125 -0.019261926 0.050574463 -0.013638919 -0.06821105 0.0347558 0.076963
0.106472194 -0.11958451 0.0998091 -0.023088502 -0.041020103 0.045149285 0.077471964 0.020825861
0.017385181 -0.043791257 0.019866258 0.017286366 -0.032804478 0.029386828 -0.107579224 -0.021305522
0.19805823 -0.024138687 -0.00011937336 0.04467852 0.00652781 0.12924887 -0.046483073 -0.1575572
0.057428513 0.089957125 -0.027361095 0.0010277369 -0.07044562 0.18513542 0.0749178 0.05943227
0.08098486 0.10423129 -0.07883035 0.02397947 0.021636 -0.07860543 -0.078932114 0.040188797
0.04127121 -0.161129 -0.010948048 0.021183124 0.04908994 -0.07510765 0.29556292 -0.05698874
0.16472036 0.051633734 0.029804187 0.008235794 -0.08979103 -0.10172529 -0.17364663 -0.16572772
-0.057881255 0.019173115 0.08315132 -0.13322346 0.0230732 0.22580402 0.036438946 -0.08150598
0.053422738 -0.0101426495 -0.1073231 -0.07185589 0.06367728 0.090479076 -0.09572136 0.036840092
0.13779137 0.09160488 -0.05816557 -0.032313682 0.17190775 -0.12122264 0.017996293 0.068266176
0.024121324 -0.0071831676 0.10142803 0.18090907 -0.034829885 0.052163683 0.01130153 0.0668093
-0.09703577 -0.040427025 0.03030413 0.13537732 -0.11626757 0.021931358 -0.04458421 0.061386514
0.07653494 0.10816075 -0.0825037 0.063376315 0.1653119 0.07213255 -0.03890146 0.09204833
-0.06304936 0.018269662 0.09757387 0.18970715 -0.045970965 -0.0048480574 -0.1676329 0.014259845
-0.06349079 0.028821351 0.027170744 0.03845816 0.13166405 0.021074725 -0.009094912 -0.046878483
-0.06439004 -0.14432918 -0.12081156 -0.029123863 -0.08071649 -0.0013288744 0.017822023 -0.14886151
-0.035276063 0.15047003 -0.0013103064 0.02318126 0.030905075 -0.19861077 0.036159217 0.004122689
0.13087404 -0.01662858 0.028816646 -0.094211966 -0.08318983 0.19998126 0.14727615 -0.09575564
0.062280126 -0.03318621 -0.24965255 0.11391843 -0.0027864338 0.04412701 -0.027799947 0.08348283
-0.034348954 0.015922785 0.116304725 0.01754658 -0.05967345 -0.04757386 0.07411591 -0.11077992
-0.12544002 0.0759179 0.17051868 -0.068295956 -0.12124724 -0.0035663822 -0.08840405 -0.071235575
0.047648914 0.12719226 -0.01798138 -0.05224827 -0.05136507 0.008885455 0.04454477 0.039464172
0.058123842 -0.17218181 -0.0058751847 0.019271253 0.090158224 -0.09152554 0.051187724 0.01888338
-0.010856203 0.0108976625 0.08403691 -0.07332475 -0.14510816 0.13292311 0.04137187 0.02375878
00000000: ec7f 483e 28ff 14bd b0bb a03d bf81 143e
00000010: a146 fbbd 4e8f a33c 14ae d8bc 3e92 7bbd
00000020: 0e9d 73bb 9a41 aabd 1f3b 1bbd a5f3 913d
00000030: 8942 08bd dd62 8b3d ba85 a3bd c4da debd
00000040: b985 de3d 29b4 fabd 9aa1 3d3d 2bfe d7bc
00000050: 90f5 89bd 4bb8 b43d c10d 103c e4f5 2b3d
00000060: 6b0c bcbd 1782 40bd 8634 a2ba 42eb 5c3e
00000070: 8b1f a6bd 1498 a03c 3f14 b0bd 0ef5 0e3d
00000080: 7a46 8ebd 0ffa 713d 6aae a63d fe8a c13d
00000090: 37ac 4fbd 8666 453d 3d96 143d 23af 09be
000000a0: 7323 05be 96d8 1fbd 187d ad3d 6652 8cbd
000000b0: 798c dcbd c090 90bc 92dd 6abd a6cc d03d
000000c0: 2645 3e3e b6ac bfbb e14d 073d cbca d03d
000000d0: ba88 ebbc 97a5 f5bb bd2f ebbb c2ff 1d3d
000000e0: ae04 5fbc 91ed 04be 30cb 9dbc 2b27 4f3d
000000f0: c675 5fbc 3cb2 8bbd 195c 0e3d c79e 9d3d
00000100: 180e da3d b9e8 f4bd b768 cc3d 1924 bdbc
00000110: b204 28bd 75ee 383d 9fa9 9e3d ff9a aa3c
00000120: 5e6b 8e3c 765e 33bd 90be a23c 239c 8d3c
00000130: fd5d 06bd a5bc f03c 7f52 dcbd eb88 aebc
00000140: c7cf 4a3e 7fbe c5bc 1658 fab8 d300 373d
00000150: 3de7 d53b d159 043e 0965 3ebd ad56 21be
00000160: 293a 6b3d 713b b83d 6024 e0bc 21b5 863a
00000170: cb45 90bd 2494 3d3e 816e 993d 406f 733d
00000180: 64db a53d 3777 d53d ce71 a1bd 9870 c43c
00000190: fb3d b13c e2fb a0bd 29a7 a1bd 029d 243d
000001a0: 000c 293d 00ff 24be 715f 33bc 3b88 ad3c
000001b0: 8812 493d 0ad2 99bd 0654 973e 066d 69bd
000001c0: 74ac 283e e57d 533d e927 f43c 6cef 063c
000001d0: 5ce4 b7bd 5955 d0bd 6cd0 31be 87b4 29be
000001e0: e514 6dbd f010 9d3c 3d4b aa3d bb6b 08be
000001f0: 0204 bd3c 2b39 673e 0141 153d 9bec a6bd
00000200: cdd1 5a3d 5b2d 26bc 37cc dbbd 2e29 93bd
00000210: 3c69 823d 184d b93d 8f09 c4bd a3e5 163d
00000220: 2e19 0d3e 579b bb3d 053f 6ebd 5a5b 04bd
00000230: 9608 303e 9343 f8bd f66c 933c 23cf 8b3d
00000240: 159a c53c c760 ebbb 80b9 cf3d 3a40 393e
00000250: c8a9 0ebd 96a9 553d 0d2a 393c 50d3 883d
00000260: b1ba c6bd cf96 25bd 5e40 f83c 5aa0 0a3e
00000270: b11d eebd 64a9 b33c ef9d 36bd 6d70 7b3d
00000280: 5abe 9c3d 6283 dd3d b3f7 a8bd 71cb 813d
00000290: 8647 293e 3bba 933d 2357 1fbd d683 bc3d
000002a0: 0620 81bd 42aa 953c cfd4 c73d 9742 423e
000002b0: 0d4c 3cbd 74dc 9ebb f5a7 2bbe 20a2 693c
000002c0: 7607 82bd c11a ec3c 2e95 de3c 4e86 1d3d
000002d0: f1d2 063e e7a4 ac3c d302 15bc a703 40bd
000002e0: edde 83bd 07cb 13be 0d6c f7bd 2b95 eebc
000002f0: b04e a5bd a02d aeba 7eff 913c 276f 18be
00000300: a27d 10bd d114 1a3e 96be abba a0e6 bd3c
00000310: a42c fd3c 9f60 4bbe b01b 143d 9f17 873b
00000320: d803 063e a938 88bc e310 ec3c 34f2 c0bd
00000330: 6e5f aabd e3c7 4c3e 8fcf 163e 881b c4bd
00000340: 7219 7f3d 43ee 07bd eba4 7fbe 114e e93d
00000350: 9a9c 36bb 86be 343d b7bc e3bc 0cf9 aa3d
00000360: 7db1 0cbd 8070 823c 2c31 ee3d d8bd 8f3c
00000370: 266c 74bd cfdc 42bd 15ca 973d 95e0 e2bd
00000380: 5973 00be d87a 9b3d 739c 2e3e c0de 8bbd
00000390: 7950 f8bd f7b9 69bb 2f0d b5bd f5e3 91bd
000003a0: 822b 433d b03e 023e b04d 93bc 4802 56bd
000003b0: 2e64 52bd 4d94 113c 9474 363d 2fa5 213d
000003c0: 4413 6e3d 6e50 30be 9f84 c0bb bfde 9d3c
000003d0: e0a4 b83d be71 bbbd 38aa 513d 51b1 9a3c
000003e0: 37de 31bc 1c8c 323c 8b1b ac3d 492b 96bd
000003f0: 3c97 14be ff1c 083e 8d75 293d c6a1 c23c

bias f4 [128]
-0.00066594116 -0.005378197 0.0031099014 0.0036311036 0.00090562575 -0.0004705483 0.0012099146 -0.008756825
-0.0045207045 -0.004964426 -9.213246e-05 -0.0072301393 0.002317525 0.0033749873 -0.005785345 -0.0060214805
-0.004785586 0.0023296615 -0.0022835115 -0.0019610622 -0.003101912 0.0004309459 -0.004561046 -0.00022771342
0.0032212469 6.7330635e-05 -0.00024632213 0.0023033044 0.0008016967 0.001870744 -5.2074785e-05 -0.002894237
0.007309429 -0.0017826421 0.0066190776 -0.006027281 0.008296129 -0.0018841546 0.006682286 -0.0021800888
0.0007871161 -0.0016030406 -0.0017661843 -0.004807844 0.007918402 -0.00017799683 -0.003177629 0.0006562775
-0.0001338958 0.00041266627 0.001740029 0.0023329798 0.004653896 0.0069933063 -0.002827747 0.0036033492
0.0034275523 -0.011445369 0.006360995 -0.00065391924 -0.0027080856 0.0007532224 -0.0011175687 0.0017060966
0.0041598924 -0.0043794806 0.003572732 0.0009913719 -0.0027523413 -0.0018291206 0.004217096 0.0015298175
-0.005330473 -0.0034023714 -0.0006943837 -0.004634581 -0.0024475849 0.0057209325 0.00683828 0.003005548
-0.0005759744 -0.0013643698 0.0037973684 -0.00063138513 0.0054326146 -0.0057602166 0.0011565607 -0.0031790638
0.004780406 0.0061401664 -0.0075969333 -0.0019666543 0.0051998706 -0.00017956938 0.0030813075 0.0026854428
-0.0024094747 -0.008704112 0.00032415835 -0.004736754 0.0025693101 0.0021884793 0.00028810365 0.00038926007
0.0019872296 7.711084e-05 -0.0019797967 -0.0027772044 0.00022888133 -0.0044748522 -0.0011291351 0.0015595175
-0.00078942993 -0.00608628 0.0022611453 -0.0034606282 -0.0038654306 0.0033729032 -0.0013694704 -0.0011242634
0.00557019 -0.0007385176 -0.0061371964 0.0016752598 0.0048652207 0.0048994482 0.005785604 -0.0035480207
00000000: 8e92 2eba 963b b0bb 7dcf 4b3b cff7 6d3b
00000010: 8467 6d3a ecb3 f6b9 ff95 9e3a c978 0fbc
00000020: 6b22 94bb a0ac a2bb 3d37 c1b8 ceea ecbb
00000030: 9ee1 173b e42e 5d3b fe92 bdbb d74f c5bb
00000040: 68d0 9cbb 3cad 183b f7a6 15bb 2a85 00bb
00000050: 7349 4bbb 94f0 e139 d474 95bb 5bc6 6eb9
00000060: 8e1b 533b dc33 8d38 cc24 81b9 09f3 163b
00000070: f428 523a c133 f53a e06a 5ab8 3dad 3dbb
00000080: ef83 ef3b 8ba7 e9ba d9e4 d83b 7f80 c5bb
00000090: 7dec 073c bdf5 f6ba 14f7 da3b d2df 0ebb
000000a0: 7856 4e3a 1e1d d2ba 507f e7ba 1e8b 9dbb
000000b0: 2fbc 013c a9a4 3ab9 c53f 50bb 0a0a 2c3a
000000c0: 6166 0cb9 215b d839 af11 e43a e8e4 183b
000000d0: b67f 983b 1b28 e53b b951 39bb 2b26 6c3b
000000e0: c9a0 603b 5b85 3bbc e56f d03b c76b 2bba
000000f0: 237a 31bb e673 453a 627b 92ba 1a9f df3a
00000100: b54f 883b bf81 8fbb 7f24 6a3b ecf0 813a
00000110: a060 34bb 1abf efba 912f 8a3b 2884 c83a
00000120: 40ab aebb 52fa 5ebb 4d07 36ba afdd 97bb
00000130: a967 20bb a976 bb3b a613 e03b baf8 443b
00000140: fdfc 16ba a7d4 b2ba 45dd 783b 8a83 25ba
00000150: 1304 b23b 33c0 bcbb bd97 973a d757 50bb
00000160: f4a4 9c3b 7333 c93b b2ef f8bb fce2 00bb
00000170: ad63 aa3b ca4a 3cb9 c3ef 493b 41fe 2f3b
00000180: 47e8 1dbb b19b 0ebc ccf3 a939 c636 9bbb
00000190: df61 283b 976c 0f3b 9e0c 9739 9a15 cc39
000001a0: 2e3c 023b 91b6 a138 7abf 01bb c201 36bb
000001b0: ddff 6f39 c8a1 92bb 7dff 93ba b968 cc3a
000001c0: bff1 4eba 6b6f c7bb b92f 143b b5cb 62bb
000001d0: 2a53 7dbb ed0b 5d3b cd7f b3ba 055c 93ba
000001e0: 2486 b63b 1499 41ba 891a c9bb 6494 db3a
000001f0: 6e6c 9f3b 8d8b a03b 2a95 bd3b e985 68bb

weight f4 [6, 128]
0.04711658 0.031010415 0.13951658 -0.0057128742 -0.08813859 -0.19390796 -0.10671451 -0.11391251
0.03705972 0.018371621 -0.009226769 0.08036464 -0.055800546 0.18489164 -0.112973414 -0.15026347
-0.18667461 0.095688224 -0.03255714 -0.010399659 -0.03206056 -0.010039474 -0.07089832 -0.09097721
-0.11647155 -0.07995173 0.076194465 0.1047027 -0.069263086 0.023515781 0.09294597 -0.057273813
-0.041832253 -0.07351082 0.07661635 -0.039150424 -0.079473875 -0.060286608 0.021661697 -0.08591639
-0.038191255 -0.005913122 0.05327802 0.041418873 0.061665732 -0.13325866 -0.04876854 -0.011828632
0.04607006 0.051148344 -0.07737358 0.018067732 -0.0028693106 -0.11933798 -0.12737545 0.008129067
-0.06875315 -0.13064484 0.10969002 0.07077924 0.09681294 0.008979169 -0.00071795756 -0.043941878
-0.057874583 -0.023446772 -0.069648564 -0.08177253 -0.17341396 0.04752333 0.103481784 -0.113847405
-0.10760338 -0.019987075 0.19160073 -0.08678333 -0.017491817 0.067433976 -0.062603556 0.07187802
-0.13797615 0.043331053 0.14257407 0.07475014 -0.09015408 0.029475396 -0.018359168 0.0031107052
0.08214939 0.09956984 -0.22898367 0.020439258 0.023925787 -0.0027926723 -0.012065124 0.0099075055
0.018741546 -0.13867936 -0.016397413 -0.09777638 0.07466349 0.15311451 -0.011150479 0.09792043
0.19552092 0.17026608 -0.0025072927 0.019725744 -0.12529153 -0.057518575 -0.06190123 0.09652578
0.076183714 0.01171319 0.027121253 -0.08249897 -0.075629726 -0.08306414 0.07294089 -0.03482278
-0.013641887 -0.0939084 0.03604622 0.052041728 0.10132908 0.049986374 -0.07524097 -0.10677686
0.015038514 0.04958428 -0.08031697 0.07768893 -0.012233087 0.036857422 0.066824615 -0.06637474
0.0020487264 -0.060439277 -0.060950354 -0.06842387 -0.18544973 0.022489442 0.12722456 -0.067269966
0.0067357207 -0.040876932 -0.14499518 0.022828462 -0.034173194 0.036261395 -0.0882341 0.06795714
-0.085782856 0.081746064 -0.0037846486 -0.15870865 -0.016797444 0.017966531 -0.00069854135 -0.04247872
-0.0006922021 0.009483388 0.0052643395 -0.057320755 0.29554367 0.07237187 0.06675071 -0.16072002
-0.10561139 0.06597616 -0.063938685 -0.15146837 -0.11525653 -0.18798348 0.08397454 0.116051316
0.1778266 0.005540766 -0.050445944 0.07102019 -0.038556874 0.051848833 -0.05177732 -0.06054048
0.033787496 -0.0704461 -0.017469775 0.16295397 0.15939859 0.08535848 -0.031067679 0.08384946
0.030087708 -0.060335908 -0.028687067 0.005567202 0.043203335 0.001710205 -0.0028946796 0.11683285
-0.07720914 -0.019630032 0.029152403 -0.03959586 0.0680864 -0.18417107 0.030192027 -0.03522178
0.06550486 -0.06735653 0.08385074 0.042029854 0.012693404 0.16502221 0.052539587 -0.10809245
-0.013047934 -0.0040130285 0.03537367 0.14671725 0.0153799215 0.021240631 -0.14277112 0.018364616
-0.13801438 -0.017482491 0.0013812974 0.015033445 0.05515102 0.06375706 -0.020573696 -0.04777655
0.00173506 0.11753424 -0.06273484 -0.0842234 -0.024668926 -0.0872538 0.16285188 -0.07096886
0.10795825 -0.20917563 -0.033488475 0.083407946 0.04335378 0.05226329 0.024798343 0.029437417
-0.016025968 -0.050959066 0.20921879 -0.14111939 -0.08753199 -0.049079344 -0.045366157 -0.011467656
00000000: 51fd 403d 8e09 fe3c 6fdd 0e3e 1033 bbbb
00000010: 0182 b4bd cf8f 46be 238d dabd f64a e9bd
00000020: efcb 173d 1580 963c e02b 17bc 3796 a43d
00000030: 1d8f 64bd 3c54 3d3e 9b5e e7bd abde 19be
00000040: a127 3fbe 30f8 c33d a35a 05bd 5563 2abc
00000050: ef51 03bd 9b7c 24bc 2333 91bd 4252 babd
00000060: a388 eebd bcbd a3bd d80b 9c3d 5f6e d63d
00000070: ced9 8dbd 2ba4 c03c 755a be3d f297 6abd
00000080: 4c58 2bbd d78c 96bd 08e9 9c3d 325c 20bd
00000090: 33c3 a2bd 17ef 76bd df73 b13c eff4 afbd
000000a0: 6f6e 1cbd ddc2 c1bb 0e3a 5a3d d6a6 293d
000000b0: 3595 7c3d f574 08be 85c1 47bd e1cc 41bc
000000c0: f6b3 3c3d ed80 513d 0a76 9ebd c802 943c
000000d0: 0b0b 3cbb 7967 f4bd b66e 02be c72f 053c
000000e0: 74ce 8cbd c3c7 05be 29a5 e03d b5f4 903d
000000f0: dd45 c63d 5d1d 133c 5135 3cba 66fc 33bd
00000100: e60d 6dbd 7213 c0bc e8a3 8ebd 5b78 a7bd
00000110: 6e93 31be d3a7 423d 42ee d33d d428 e9bd
00000120: 295f dcbd efbb a3bc fb32 443e 75bb b1bd
00000130: 004b 8fbc d31a 8a3d 4b36 80bd c934 933d
00000140: 9f49 0dbe e77b 313d f0fe 113e 9a16 993d
00000150: b4a2 b8bd 6376 f13c f765 96bc f9dc 4b3b
00000160: f03d a83d 46eb cb3d b27a 6abe 3b70 a73c
00000170: 0300 c43c 4405 37bb ccac 45bc 1753 223c
00000180: df87 993c f601 0ebe de53 86bc fc3e c8bd
00000190: 2ce9 983d 0dca 1c3e 80b0 36bc 828a c83d
000001a0: a336 483e 3b5a 2e3e 6451 24bb e297 a13c
000001b0: 6c4c 00be 9998 6bbd 258c 7dbd 4faf c53d
000001c0: 3506 9c3d aee8 3f3c 642d de3c 38f5 a8bd
000001d0: c2e3 9abd 881d aabd 0962 953d 55a2 0ebd
000001e0: 3982 5fbc 0c53 c0bd 34a5 133d b529 553d
000001f0: 9f85 cf3d 83be 4c3d f017 9abd d4ad dabd
00000200: 1964 763c e318 4b3d 397d a4bd 601b 9f3d
00000210: 496d 48bc cff7 163d 58db 883d 7bef 87bd
00000220: ed43 063b 2d8f 77bd 14a7 79bd d021 8cbd
00000230: 89e6 3dbe c73b b83c 2847 023e d6c4 89bd
00000240: 52b7 dc3b 926e 27bd 9e79 14be c102 bb3c
00000250: 31f9 0bbd d486 143d 14b4 b4bd 1d2d 8b3d
00000260: ecae afbd 7b6a a73d de07 78bb 8584 22be
00000270: cb9a 89bc 8c2e 933c 511e 37ba 2bfe 2dbd
00000280: e674 35ba 3660 1b3c 7b80 ac3b 2bc9 6abd
00000290: 8051 973e b437 943d 99b4 883d ca93 24be
000002a0: c94a d8bd 821e 873d 49f2 82bd 861a 1bbe
000002b0: 9e0b ecbd be7e 40be d8fa ab3d 50ac ed3d
000002c0: 2d18 363e 508f b53b 68a0 4ebd 0973 913d
000002d0: d0ed 1dbd 715f 543d 7514 54bd 4bf9 77bd
000002e0: c264 0a3d 0b46 90bd c61c 8fbc 68dd 263e
000002f0: 6239 233e 6dd0 ae3d a581 febc 44b9 ab3d
00000300: 7f7a f63c c922 77bd 2401 ebbc 136d b63b
00000310: fbf5 303d f528 e03a aab4 3dbb 1046 ef3d
00000320: d31f 9ebd 29cf a0bc 05d1 ee3c 452f 22bd
00000330: e270 8b3d 5797 3cbe 4555 f73c b744 10bd
00000340: 6927 863d 38f2 89bd f0b9 ab3d 7f27 2c3d
00000350: fff7 4f3c 95fb 283e c033 573d 935f ddbd
00000360: 00c7 55bc b97f 83bb fbe3 103d 0c3d 163e
00000370: 11fc 7b3c d500 ae3c 9832 12be 6471 963c
00000380: a453 0dbe 7137 8fbc a60c b53a d74e 763c
00000390: 09e6 613d 1093 823d 2b8a a8bc 58b1 43bd
000003a0: f46a e33a cbb5 f03d 207b 80bd 517d acbd
000003b0: 7d16 cabc 1fb2 b2bd a5c2 263e 1f58 91bd
000003c0: 3719 dd3d 2332 56be 362b 09bd c9d1 aa3d
000003d0: bc93 313d 0812 563d e525 cb3c bd26 f13c
000003e0: e448 83bc 74ba 50bd 733d 563e 9a81 10be
000003f0: f943 b3bd 6c07 49bd ddd1 39bd d6e2 3bbc

bias f4 [6]
0.0027908313 -0.0012201783 -0.001984326 0.0027107839 -0.001978617 -0.0019735163
00000000: 61e6 363b 64ee 9fba 770b 02bb 68a7 313b
00000010: afab 01bb 1c56 01bb
