RL/PPO_critic_model.pt (torch, 72087 bytes, 5 tensors)

linear1.weight f4 [128, 6]
0	0xbc2e4cdb	-0.010638441
1	0xbc931c49	-0.017957823
2	0x3c84520a	0.0161524
3	0x3d44b76a	0.04802648
4	0x3e031143	0.12799554
5	0x3c8bd375	0.017068604
6	0xbdac6f7a	-0.084197
7	0x3c2889ad	0.010286731
8	0xbc809d05	-0.015699873
9	0xbcd824b6	-0.026384693
10	0xbd4c0114	-0.049805716
11	0x3c233cb4	0.009963203
12	0x3cdb01aa	0.026734192
13	0xbe3e1820	-0.1856389
14	0xbd351cdf	-0.044216987
15	0xbc6f966a	-0.014623264
16	0xbcd384c9	-0.025820153
17	0x3d16c4f1	0.03680891
18	0x3d7af841	0.06127191
19	0x3d83d5e2	0.06437279
20	0xbd801c40	-0.06255388
21	0xbd151611	-0.036397997
22	0x3bbed312	0.0058235014
23	0x3dab7581	0.083720215
24	0xbcf12e75	-0.029441098
25	0x3e46ee0f	0.1942675
26	0x3d9ae3e2	0.075629964
27	0xbdc9bccd	-0.09850464
28	0xbc63208c	-0.01386274
29	0x3d3c707d	0.046005715
30	0xbe496794	-0.19668418
31	0xbd8ed97c	-0.069750756
32	0x3d9753b7	0.07389014
33	0xbcfefbdd	-0.031125957
34	0x3d15a7cc	0.036536977
35	0xbdd82736	-0.10554354
36	0x3a59c875	0.00083077635
37	0xbb226c25	-0.0024783697
38	0x3e02d169	0.12775196
39	0x3d0bc914	0.03412731
40	0x3e58bfd9	0.21166934
41	0xbcba1f50	-0.02272001
42	0x3dd65605	0.10465626
43	0x3e4edf34	0.20202333
44	0xbcd4239c	-0.025895886
45	0xbd3e101c	-0.04640208
46	0x3d06d79a	0.032920457
47	0x3cba4c64	0.022741504
48	0xbb5ebd3b	-0.0033987302
49	0x3d37effe	0.04490661
50	0x3d9cc287	0.07654291
51	0xbd281476	-0.041035138
52	0x3d6c1f80	0.05764723
53	0x3d5616e1	0.052267913
54	0x3e360d7f	0.17778586
55	0x3dd4f676	0.10398571
56	0x3d69068b	0.056891005
57	0x3deab285	0.11459831
58	0x3d94a898	0.07258719
59	0x3e0e5ebe	0.13903329
60	0x3dadf217	0.084934406
61	0x3d1a0db3	0.03761072
62	0x3d8ab8eb	0.067735516
63	0x3d57c381	0.05267668
64	0x3d552f1b	0.052046876
65	0xbd7e1a8b	-0.062037032
66	0xbc609335	-0.013706972
67	0x3d58e7e1	0.052955512
68	0xbe614e19	-0.22002448
69	0xbe0ead7e	-0.1393337
70	0xba69ea05	-0.0008923116
71	0xbc80bd12	-0.015715156
72	0x3c4c0e60	0.012454599
73	0xbd325218	-0.043535322
74	0xbc3e7999	-0.011625671
75	0xbbf140b0	-0.0073624477
76	0xbe7a5066	-0.24444732
77	0x3c55b813	0.013044375
78	0xbdd32e60	-0.1031158
79	0x3e43bf05	0.19115837
80	0xbdfc97c6	-0.12333636
81	0xbd5ea861	-0.054359797
82	0x3d5573fd	0.05211257
83	0xbea86f1b	-0.32897267
84	0x3d0510c3	0.03248669
85	0x3d9fcdf3	0.078029536
86	0xbd2aec76	-0.041729413
87	0x3c43fece	0.011962606
88	0x3e0c1b18	0.1368221
89	0x3d2dcc49	0.04243115
90	0xbdb4fa44	-0.08836797
91	0x3e246810	0.16055322
92	0xbdaa71ca	-0.08322485
93	0x3d9d6c48	0.07686669
94	0xbdb765ed	-0.08954988
95	0x3d0260bb	0.03183053
96	0x3de8cfed	0.11367784
97	0x3e0ec445	0.13942058
98	0xbd50db1b	-0.050990205
99	0x3e703324	0.23457009
100	0x3d1a7316	0.03770741
101	0x3b759a85	0.0037476134
102	0xbd549d31	-0.051907722
103	0x3df592c7	0.11990886
104	0x3bea9c28	0.0071597286
105	0xbdfdbc25	-0.12389401
106	0xb98d4593	-0.00026945453
107	0xbd7c9378	-0.061664075
108	0xbb30f68e	-0.0027002427
109	0x3da62116	0.081117794
110	0xbcb61c77	-0.02223037
111	0xbd35c103	-0.044373523
112	0x3c36b076	0.01115047
113	0x3e09bd94	0.13451225
114	0x3c909430	0.017648786
115	0x3dd4b7d1	0.10386623
116	0xbd22071a	-0.039557554
117	0x3cfdd233	0.03098402
118	0x3d1eb76e	0.03874915
119	0x3c327b9a	0.010893727
120	0x3d9dd2db	0.07706233
121	0xbe30d2b5	-0.17267878
122	0xbd1a94cd	-0.037739564
123	0x3e5d0b3e	0.2158632
124	0xbccc04c2	-0.024904612
125	0x3df1a8f4	0.117998034
126	0xbdedff8d	-0.11621008
127	0xbda34740	-0.07972574
128	0x3b65fb27	0.0035092325
129	0xbdaee915	-0.085405506
130	0xbd0170ca	-0.031601705
131	0xbdb9a570	-0.09064758
132	0x3de50e73	0.111843966
133	0x3d323be4	0.043514147
134	0xbd0c836a	-0.034305014
135	0x3e917c24	0.28415024
136	0x3d59b099	0.053146932
137	0xbc9b9fec	-0.018997155
138	0x3d27cc4b	0.040966313
139	0xbc9a3a37	-0.018826587
140	0x3dd20b63	0.10256078
141	0x3de63308	0.11240202
142	0x3d94e1f4	0.0726966
143	0x3d74cf49	0.059767995
144	0xb84b456c	-4.8463626e-05
145	0xbab8dc8f	-0.0014103818
146	0xbd31a6d0	-0.043371975
147	0xbc378070	-0.0112000555
148	0x3cc09314	0.023507632
149	0xbbb60a3d	-0.0055554197
150	0x3dc040df	0.09387373
151	0x3defb788	0.11704928
152	0xbd5b6737	-0.05356523
153	0x3e301278	0.17194545
154	0x3e0dd096	0.138491
155	0xbe2d1847	-0.16903792
156	0x3ccf35b2	0.025294159
157	0xbd3b2def	-0.045698103
158	0xbd99936a	-0.0749882
159	0xbc9b3947	-0.01894821
160	0x3cf39e6b	0.029738626
161	0xbd244a07	-0.04010966
162	0xbd390317	-0.045168962
163	0xbd40922b	-0.047014397
164	0x3d3f31b0	0.046678245
165	0xbd74e0fa	-0.059784867
166	0xbd863e5d	-0.065548636
167	0xbe2f3e0d	-0.17113514
168	0xbd94a636	-0.07258265
169	0xbdc71524	-0.09720829
170	0x3d81a4e3	0.06330278
171	0x3dbfdd9c	0.093684405
172	0xbbbd8df5	-0.005784745
173	0xbdeb982c	-0.11503634
174	0xbd62c0f9	-0.055359814
175	0xbd2f417e	-0.042787068
176	0x3c4d6691	0.012536661
177	0x3bbba852	0.0057268525
178	0x3c19800e	0.0093689095
179	0xbc82d7ea	-0.015972096
180	0x3c1cf59f	0.009580045
181	0x3c8c5044	0.017128117
182	0x3dc6db30	0.097097754
183	0x3e6b1cb5	0.2296017
184	0x3da868b8	0.082230985
185	0xbd2f2321	-0.04275811
186	0x3e22a62a	0.15883699
187	0xbd0a7f2f	-0.033812698
188	0x3e0b3c94	0.13597327
189	0x3c8fcd50	0.017553955
190	0xbe163e8b	-0.14672296
191	0x3d72eae1	0.05930603
192	0x3d25bc52	0.0404628
193	0xbd4b76c9	-0.04967383
194	0x3da636b7	0.08115905
195	0x3dd782d7	0.105230026
196	0x3e478df1	0.1948774
197	0xbc0d0169	-0.008606293
198	0x3daca10c	0.08429155
199	0xbc20825a	-0.009796703
200	0xbdf1ba23	-0.11803081
201	0x3d455dba	0.048185088
202	0x3db01c7c	0.08599183
203	0x3c66f913	0.01409747
204	0xbc9cce0e	-0.019141223
205	0x3d0a752f	0.03380316
206	0x3dd53952	0.104113236
207	0x3db008c5	0.08595423
208	0xbc89432c	-0.016755663
209	0xbd07e9f7	-0.03318211
210	0xbd6464de	-0.055760257
211	0xba13a507	-0.0005632196
212	0x3d919e8f	0.07110321
213	0x3de3a49c	0.11115381
214	0x3d9c9225	0.07645062
215	0xbd33442c	-0.043766186
216	0x3dd2015b	0.10254165
217	0x3d4dc8d3	0.05024035
218	0x3cb807e6	0.022464704
219	0x3dbde58b	0.092722975
220	0x3b88b3d2	0.004171827
221	0x3d59ccd7	0.053173866
222	0xbdd16d4c	-0.10225925
223	0xbd8a3873	-0.06749048
224	0xbd21823f	-0.039430853
225	0xbc6f5b34	-0.014609147
226	0x3ddef320	0.10886216
227	0xbdacb145	-0.08432249
228	0x3d998ff6	0.074981615
229	0x3dccc520	0.09998536
230	0xbc709d80	-0.014685988
231	0x3d945186	0.07242112
232	0xbe1e1281	-0.15436746
233	0xbbf6a03b	-0.007526425
234	0xbcca4aff	-0.024693964
235	0xbda1668c	-0.078808874
236	0x3e728b72	0.23686007
237	0x3e148bd1	0.1450646
238	0x3dabd629	0.08390457
239	0x3db6380f	0.08897411
240	0xbda65e77	-0.081234865
241	0xbd3da543	-0.046300184
242	0x3bd47e9e	0.0064848205
243	0xbc834322	-0.016023222
244	0xbd01ad54	-0.03165944
245	0x3c399633	0.011327314
246	0x3d7bedbd	0.06150602
247	0x3df42b25	0.11922292
248	0xbc4e4420	-0.012589484
249	0x3d782d81	0.06059027
250	0x3db7ea38	0.089802206
251	0x3e272e59	0.16326274
252	0x3e9e1cc0	0.3088131
253	0x3c484edb	0.012225832
254	0x3dbcd1a7	0.092196755
255	0xbdf0add4	-0.11751905

linear1.bias f4 [128]
0	0x3cb16b2c	0.021657549
1	0xbcbdf22d	-0.023186767
2	0xbd229269	-0.03969041
3	0x3ce6fc19	0.028196381
4	0x3c700f2b	0.014652054
5	0xbd12540e	-0.035724692
6	0x3c964977	0.018345578
7	0x3ca64648	0.020297185
8	0x3cd41fba	0.025894035
9	0x3b894348	0.0041889288
10	0x3cd1e720	0.025622904
11	0xbcd603b1	-0.026124807
12	0xbce2709c	-0.027641587
13	0xbce5ff48	-0.02807583
14	0xbbc4dbc4	-0.0060076434
15	0xbc984a8a	-0.01859023
16	0x3c6d2141	0.01447326
17	0xbc015eed	-0.007896167
18	0x3cdf692d	0.027271831
19	0x3cf7aebd	0.030234689
20	0xbb076860	-0.0020661578
21	0xbc43048b	-0.011902939
22	0x3c8f8c39	0.017522918
23	0x3c26cd72	0.010180818
24	0x3afabcc8	0.0019129748
25	0x3cf11f1b	0.029433778
26	0xbd02d340	-0.031939745
27	0xbc72defb	-0.0148236705
28	0xbc9ef9b4	-0.019406177
29	0xbce5d087	-0.028053535
30	0x3c89542e	0.016763773
31	0x3d01fe4a	0.03173665
32	0x3cd87135	0.026421169
33	0x3d04f475	0.032459695
34	0x3cf94819	0.030429887
35	0x3cd5a1bf	0.026078103
36	0x3c681b0b	0.014166604
37	0xbd0acbfb	-0.033885937
38	0x3cc086cc	0.023501776
39	0x3bd8c8e7	0.0066157463
40	0xbcbffd0a	-0.023436088
41	0x3c179b6e	0.009253366
42	0x3cb1f87a	0.021724928
43	0x3d04ad8e	0.032392077
44	0x3cc62aac	0.02419027
45	0x3a2fad5b	0.0006701552
46	0x3cc4eb3b	0.024037948
47	0x3cf34ed1	0.029700669
48	0x3ca57056	0.020195168
49	0xbc6f4712	-0.014604347
50	0x3cef5215	0.029213944
51	0xbd33421d	-0.043764222
52	0x3cfd2b98	0.030904576
53	0x3c5c3578	0.013440482
54	0xbc062dd2	-0.008189635
55	0xbcad051c	-0.0211206
56	0xbc0bcd11	-0.008532778
57	0x3c4dc40b	0.012558947
58	0xbd025ebe	-0.031828634
59	0x3cf02781	0.029315712
60	0xbd16f85c	-0.036857948
61	0x3cdeb1e5	0.027184436
62	0x3cbd57ed	0.023113215
63	0x3c8a5cee	0.016890015
64	0x3cfac6d3	0.030612385
65	0x3cebe0f7	0.028793795
66	0x3ccac6dd	0.024753029
67	0xbd386a8b	-0.045023482
68	0xbccef49f	-0.025263129
69	0x3cc021c5	0.023453603
70	0x3cd35805	0.025798807
71	0xbd0c3535	-0.03423043
72	0xbce5d0e9	-0.028053718
73	0xbc9dd667	-0.019267274
74	0xbba8a3cc	-0.0051464792
75	0xba6fca98	-0.0009147315
76	0xbd149857	-0.036278095
77	0xbcfdc47f	-0.030977486
78	0x3ce0c9c3	0.027439957
79	0x3c85e108	0.016342655
80	0x3ba7bb15	0.0051187375
81	0x3cd4c118	0.02597098
82	0x3cba6cd3	0.02275697
83	0xbc4db5fb	-0.012555595
84	0xbc8d196d	-0.017224038
85	0x3ceceda0	0.028921902
86	0x3c7f718d	0.015591037
87	0x3cf2f5f3	0.029658293
88	0x3cc806c9	0.024417298
89	0xbced3447	-0.028955592
90	0xbc354142	-0.011062922
91	0xbd0499d4	-0.032373264
92	0x3c35a9d2	0.011087852
93	0xbaede477	-0.0018149753
94	0xbcda2b6d	-0.026632035
95	0xbb85830e	-0.004074461
96	0x3cdb0d9b	0.026739886
97	0x3cf72988	0.03017117
98	0x3cfac59e	0.03061181
99	0x3cd66efb	0.026175966
100	0x38547e07	5.066211e-05
101	0xbcdc9ba5	-0.026929686
102	0xbce95696	-0.02848367
103	0xbc90630a	-0.01762535
104	0x3a6690bb	0.000879537
105	0x3c0464b8	0.008080654
106	0xbcd7d0eb	-0.026344737
107	0x3ce588ec	0.028019391
108	0x3d163866	0.03667488
109	0x3cee47c7	0.02908696
110	0xbcc8b5fe	-0.024500843
111	0xbb446ca1	-0.0029971974
112	0x3cffb74c	0.031215332
113	0x3cdeb263	0.02718467
114	0x3a8086cd	0.0009805799
115	0xbd0b9060	-0.034073234
116	0x3c0f95af	0.008763715
117	0xbd0dd33a	-0.03462527
118	0x3d185f91	0.037200514
119	0xbc134248	-0.008987971
120	0x3cfb6fb2	0.030692909
121	0xbd105c82	-0.035244472
122	0xbd0b54bf	-0.034016367
123	0xbcd04686	-0.025424253
124	0x3b52418f	0.0032082533
125	0x3acad8f6	0.0015476036
126	0xbd0339d2	-0.032037564
127	0x3cdd7eb1	0.02703795

linear2.weight f4 [128, 128]
0	0x3e104c95	0.14091714
1	0xbe2ff2ce	-0.17182466
2	0xbda2500c	-0.07925424
3	0x3dd22ed0	0.10262835
4	0x3d6ef536	0.05833932
5	0xbd6bf91a	-0.05761061
6	0x3d663238	0.056200236
7	0xbdeb8de5	-0.115016736
8	0x3d8fe607	0.07026296
9	0xbdef030b	-0.11670502
10	0xbd4d8e12	-0.050184317
11	0xbe012012	-0.1260989
12	0x3daf6340	0.08563852
13	0xbd4b00cc	-0.049561307
14	0x3d48e7c1	0.049049143
15	0xbe2f4935	-0.1711777
16	0xbc81f4cc	-0.015863799
17	0xbd8f76a0	-0.07005048
18	0x3df1e8ca	0.11811979
19	0x3d93d510	0.07218373
20	0x3c16115b	0.009159411
21	0x3b96aafc	0.0045980196
22	0x3a6dd99c	0.0009073259
23	0xbd93e13a	-0.07220693
24	0x3d531e93	0.05154283
25	0x3dd6f935	0.10496751
26	0xbe223512	-0.15840557
27	0x3d9fab8d	0.077963926
28	0x3c3eb9a4	0.01164094
29	0xbc9f1d1c	-0.01942306
30	0xbd731d15	-0.059353907
31	0xbdeb04f0	-0.11475551
32	0x3de65fd2	0.11248745
33	0x3cf97962	0.030453388
34	0x3dfbb64e	0.12290631
35	0xbb2f1734	-0.002671671
36	0x3ddf4a7f	0.10902881
37	0xbdf56a6a	-0.119831875
38	0xbe3de911	-0.18545939
39	0x3df7dbfe	0.12102507
40	0xbc46f5af	-0.0121435365
41	0xbe1d4232	-0.15357283
42	0xbc89760a	-0.016779918
43	0x3de3bacf	0.11119615
44	0xbd1e5793	-0.038657736
45	0xbdd4b869	-0.10386736
46	0x3db8fcfe	0.090326294
47	0xbbaa1518	-0.005190503
48	0xbdbec07b	-0.093140565
49	0x3da22284	0.079167396
50	0x3e0d9b76	0.13828835
51	0xbe0a909f	-0.13531731
52	0xbda88454	-0.082283646
53	0x3da9dd3c	0.0829415
54	0x3da5803f	0.080811016
55	0xbe3eb141	-0.18622304
56	0xbd0d05e0	-0.03442943
57	0x3d1e1c8a	0.038601436
58	0x3dfd971f	0.1238234
59	0x3c51de48	0.012809344
60	0x3ceefd13	0.02917341
61	0xbc845fd3	-0.016158974
62	0x3ddc30ec	0.107515186
63	0x3c8bcfab	0.017066797
64	0x3d39f746	0.045401834
65	0x3d432c0b	0.047649425
66	0xbd465fb2	-0.048431106
67	0x3d21a1f2	0.039461084
68	0x3dce2f98	0.100676715
69	0xbd78af03	-0.06071378
70	0x3e32fca4	0.17479187
71	0xbd9042f5	-0.07044021
72	0xbe17c1aa	-0.1481997
73	0x3d2e98d2	0.04262621
74	0x3c94faff	0.01818609
75	0xbdadb426	-0.08481626
76	0x3e3263f3	0.1742094
77	0xbcc9a6c8	-0.02461566
78	0x3dbc6e5f	0.09200739
79	0xbd6c9599	-0.057759855
80	0xbdc29944	-0.09501889
81	0x3d2f0ffa	0.042739846
82	0x3d4ebda8	0.05047384
83	0x3c849576	0.01618455
84	0x3cb40e43	0.021979457
85	0xbc9cec6f	-0.01915571
86	0x3c87d319	0.016580151
87	0x3e01d371	0.12678315
88	0xbac70244	-0.001518317
89	0xbcc4d40d	-0.024026895
90	0xbdc4d6e8	-0.096113026
91	0xbd5fb799	-0.05461845
92	0x3ca03f15	0.01956133
93	0x3da5ac1f	0.0808947
94	0xbd827fa0	-0.06371999
95	0x3c4e93b2	0.0126084555
96	0x3e25c116	0.16186938
97	0x3db484b8	0.088143766
98	0x3dbaacf1	0.09115017
99	0x3dedfa79	0.116200395
100	0x3e11356b	0.14180534
101	0xbc4e6168	-0.012596466
102	0x3d415571	0.047200624
103	0xbdf04d42	-0.11733486
104	0xbd3000f6	-0.042969666
105	0x3d1652d2	0.036700077
106	0x3d08ecc2	0.033428915
107	0x3d7ce5d8	0.061742634
108	0x3e8b33a9	0.2718785
109	0x3d5adb9c	0.053432092
110	0x3dc63c82	0.0967951
111	0x3a8951a0	0.0010476597
112	0xbbf40f1e	-0.007448091
113	0x3d50f2e5	0.051012892
114	0xbb885ad5	-0.0041612186
115	0x3bea6456	0.0071530743
116	0x3ddac77d	0.106825806
117	0x3de38c53	0.11110749
118	0xbdf0879c	-0.117446154
119	0x3dac24ab	0.08405431
120	0xbe0bebbe	-0.13664147
121	0xbe0515d4	-0.12996608
122	0x3d902076	0.070374414
123	0xbd0dd7bc	-0.03462957
124	0x3e3b9d2e	0.18321678
125	0x3c3c800f	0.011505141
126	0xbd535005	-0.051589984
127	0x3d976492	0.07392229
128	0x3d84d3e8	0.064857304
129	0xbe579434	-0.21052629
130	0x3e07e7aa	0.13271967
131	0x3db4d648	0.088299334
132	0x3c7e3a05	0.015516763
133	0x3de3814e	0.11108647
134	0xbdb00c0d	-0.085960485
135	0xbe10ebd1	-0.14152457
136	0x3d112f44	0.035445467
137	0x3d91ac62	0.071129575
138	0x3d8014a1	0.06253935
139	0x3cbfbeb6	0.023406368
140	0xbe3f1cc7	-0.18663321
141	0xbe195fbe	-0.14977929
142	0xbc936345	-0.017991671
143	0x3bbfef2f	0.0058573703
144	0x3cf9e63c	0.030505292
145	0xbd406007	-0.04696658
146	0x3d9d81cd	0.07690773
147	0xbe00c76d	-0.12576075
148	0xbdd7be4f	-0.10534345
149	0xbe01c1bc	-0.1267156
150	0xbd5c1d7a	-0.05373905
151	0x3da5b0a2	0.08090331
152	0xbc836bf4	-0.016042687
153	0x3e08e124	0.13367134
154	0xbd1a6e3e	-0.03770279
155	0xbba90540	-0.0051580966
156	0xbdb6f3b1	-0.08933199
157	0xbcc98f23	-0.024604386
158	0xbdac6389	-0.08417422
159	0x3e5eba92	0.21750858
160	0x3e0d1e67	0.13781129
161	0x3d53e240	0.05172944
162	0xbdc0dd00	-0.094171524
163	0x3c386c0f	0.011256232
164	0xbe117118	-0.14203298
165	0xbd8ef8cb	-0.06981047
166	0x3d03aa65	0.032144923
167	0xbd630484	-0.05542423
168	0xbd418685	-0.04724743
169	0x3e62524a	0.22101703
170	0x3d172474	0.0369
171	0x3df25a9f	0.11833691
172	0x3b6ce802	0.003614903
173	0xbd659d4b	-0.05605821
174	0x3e0839e7	0.13303338
175	0xbcf27261	-0.029595556
176	0xbdac023f	-0.08398866
177	0xbdc28b39	-0.09499211
178	0x3d04b77d	0.03240155
179	0xbbaa5f2f	-0.005199335
180	0x3d3c29bf	0.04593825
181	0x3def4cfe	0.11684607
182	0x3a54ca93	0.0008117344
183	0x3d3a5336	0.045489512
184	0xbcae9ccc	-0.021315001
185	0x3dab751d	0.08371947
186	0xbe2f368f	-0.17110656
187	0xbcbb187d	-0.022838825
188	0x3dc6bd07	0.09704023
189	0x3e12789b	0.1430382
190	0x3d8ddd9f	0.069270365
191	0x3d915c45	0.07097677
192	0xbb81efaf	-0.00396534
193	0x3bddda69	0.0067704213
194	0x3da5ca88	0.080952704
195	0xbe067d42	-0.1313372
196	0x3e403737	0.18771063
197	0xbd001a85	-0.03127529
198	0xbde1d518	-0.110269725
199	0xbd8f5090	-0.06997788
200	0xbc2845d3	-0.010270554
201	0x3cee287f	0.029072044
202	0x3d97748a	0.07395275
203	0xbd9edba1	-0.07756735
204	0x3d2493cf	0.040180024
205	0x3dab491d	0.083635546
206	0x3d7dd1dc	0.061967716
207	0xbd64c5c8	-0.05585268
208	0xbd9b1d43	-0.075739406
209	0xbe0a662d	-0.1351554
210	0x3d8b90b6	0.06814711
211	0x3ccb344e	0.024805214
212	0xbd463982	-0.048394687
213	0x3cd2c4fe	0.025728699
214	0x3d36f99e	0.044671647
215	0x3e2fe073	0.17175464
216	0xbd32795e	-0.043572776
217	0x3aa79700	0.001278609
218	0xbd99c797	-0.07508772
219	0x3ce517aa	0.027965385
220	0x3df6fbe2	0.120597616
221	0xbce69a89	-0.02814986
222	0xbd8ad665	-0.06779174
223	0xbe518b81	-0.20463373
224	0xba6fe203	-0.0009150805
225	0x3d8d18c5	0.0688949
226	0x3c9bf8ac	0.019039474
227	0x3c2f22b8	0.01068943
228	0x3c654d8c	0.013995539
229	0xbd93e07a	-0.0722055
230	0xbbdb6e24	-0.0066964794
231	0xbd098007	-0.033569362
232	0xbd3fae7f	-0.04679727
233	0xb9f73baa	-0.00047155964
234	0x3dafae30	0.085781455
235	0x3d2f996c	0.042870924
236	0xbc2a86f8	-0.010408156
237	0x3d7e3264	0.062059775
238	0x3dceb9fa	0.10094066
239	0xbdf0de8a	-0.11761196
240	0x3e213669	0.15743412
241	0x3d5c1b27	0.053736832
242	0x3ccc5bd9	0.02494614
243	0x3d2e9ca1	0.04262984
244	0xbda6be3f	-0.08141755
245	0xbc68cec8	-0.014209457
246	0x3ca31d96	0.019911569
247	0xbe053f60	-0.13012457
248	0x3de80a63	0.11330106
249	0xbe0952f4	-0.1341055
250	0xbccb8a1d	-0.024846131
251	0x3d85a0e7	0.0652483
252	0x3d161cb2	0.03664846
253	0x3e9c0236	0.30470437
254	0xbdda41bf	-0.10657071
255	0x3da7dc25	0.08196286

linear2.bias f4 [128]
0	0x3cf19a78	0.029492602
1	0x3cc9f28e	0.024651792
2	0x3cde28f2	0.027119134
3	0xbcba5e87	-0.022750152
4	0xbcc79312	-0.02436212
5	0x3ce9136f	0.02845165
6	0x3c92e147	0.017929686
7	0xbcde5e41	-0.027144553
8	0x3c9b86b9	0.01898514
9	0x3cebff7d	0.02880835
10	0xbcb8014f	-0.022461561
11	0x3cfbaba8	0.0307215
12	0xbcd0d69a	-0.025492955
13	0xbcbab980	-0.022793531
14	0x3cc8638c	0.02446153
15	0xbcaf76b8	-0.021418914
16	0xbd1f5d76	-0.03890749
17	0xbcf148cd	-0.02945366
18	0xbcec7ae3	-0.02886719
19	0x3cd677ae	0.026180115
20	0xbcb63b04	-0.022244938
21	0xbcb0a521	-0.021563115
22	0xbccdc388	-0.02511765
23	0x3cc5cda0	0.024145901
24	0xbcc06e71	-0.023490163
25	0xbcaca344	-0.021073945
26	0x3d097444	0.033558145
27	0xbc9c49bf	-0.019078134
28	0xbcad9c9a	-0.021192838
29	0xbccfc0f1	-0.025360556
30	0x3d00e049	0.031463895
31	0xbd0b6103	-0.034028064
32	0xbd0470b5	-0.03233405
33	0xbcc5b0d4	-0.02413217
34	0x3cf6a44c	0.03010764
35	0xbd054d8a	-0.03254465
36	0x3c6ba7ed	0.014383298
37	0xbca4c6be	-0.020114299
38	0x3cd816eb	0.026378116
39	0x3d00ce35	0.031446654
40	0x3cdc2819	0.026874589
41	0xbc93b0e5	-0.018028686
42	0xbce584b8	-0.028017387
43	0x3d026d33	0.03184242
44	0x3cfb4cbd	0.03067624
45	0xbd0053a5	-0.03132977
46	0xbcaad386	-0.020852815
47	0x3ce0700a	0.027397174
48	0x3ce593e8	0.028024629
49	0x3cacccb1	0.021093698
50	0x3cf4b473	0.029871201
51	0x3c83b24b	0.016076228
52	0xbcd3524c	-0.025796078
53	0xbcb76102	-0.022385124
54	0x3c4e8a21	0.012606175
55	0x3c87387b	0.016506424
56	0x3cce424e	0.0251781
57	0x3d01ef1a	0.031722166
58	0x3cb2ee66	0.021842193
59	0x3cd3af97	0.025840564
60	0x3cb00716	0.021487754
61	0xbcc9a9f2	-0.024617169
62	0x3cf1f36b	0.029535016
63	0x3cb36d7d	0.021902794
64	0xbc9e0c91	-0.019293102
65	0x3ce245b8	0.027621135
66	0xbc8ae1ee	-0.016953435
67	0xbd143aed	-0.03618901
68	0xbd1dd9f1	-0.038537923
69	0x3cd4c743	0.025973922
70	0x3cefcb51	0.029271754
71	0xbcf5c61b	-0.03000169
72	0xbce2bc83	-0.02767778
73	0x3d00cccd	0.031445313
74	0x3cad1551	0.021128329
75	0xbc8d3b74	-0.017240264
76	0xbd10bade	-0.03533446
77	0xbcd2af4b	-0.025718352
78	0xbcc7b1c3	-0.024376756
79	0x3cded29d	0.027200038
80	0xbca87a3e	-0.020566102
81	0xbcc052f4	-0.023477055
82	0xbcca7817	-0.024715466
83	0x3cf003cb	0.029298684
84	0xbcbc4147	-0.022980345
85	0x3ca77189	0.02043988
86	0x3cfa52a0	0.030556977
87	0xbd010487	-0.03149846
88	0xbcdaa9b0	-0.026692241
89	0xbce1f0aa	-0.027580578
90	0xbcaf1eae	-0.021376934
91	0x3cd1e9f4	0.025624253
92	0xbc9cb59b	-0.019129565
93	0xbcdd131e	-0.026986655
94	0xbd0141fd	-0.031557072
95	0xbcc86474	-0.024461962
96	0x3cd0db16	0.025495093
97	0xbcdfb264	-0.027306743
98	0xbcdef5a1	-0.027216734
99	0x3cb58d36	0.022162061
100	0xbcbc3dec	-0.022978745
101	0x3d014738	0.03156206
102	0x3c71fd9a	0.014769936
103	0xbcddcd1b	-0.027075341
104	0xbd0704ca	-0.03296355
105	0xbcc15243	-0.023598796
106	0x3cd9161e	0.026499804
107	0xbc91e7b2	-0.017810676
108	0x3cab7a5c	0.020932369
109	0x3ce899cd	0.02839365
110	0x3cceb520	0.025232852
111	0xbd0b9b4b	-0.034083646
112	0xbcd3c5d5	-0.02585117
113	0x3c74cddf	0.014941662
114	0xbcbff914	-0.0234342
115	0x3d015aa6	0.03158059
116	0x3ce8ae73	0.028403496
117	0xbcb56cf5	-0.022146681
118	0xbcf20727	-0.029544426
119	0x3c8a2040	0.016861081
120	0xbcb3ff61	-0.02197236
121	0xbce6dfa2	-0.028182808
122	0x3cd33a41	0.025784614
123	0xbcfbdb4e	-0.030744221
124	0xbd08a005	-0.03335573
125	0x3c99d44c	0.018777989
126	0xbca911bf	-0.020638345
127	0x3cc03aaa	0.023465473

linear3.weight f4 [1, 128]
0	0xbdd1c8c6	-0.102433726
1	0xbdc25f1d	-0.09490798
2	0xbdb380de	-0.08764814
3	0x3e027d8d	0.12743206
4	0x3e053974	0.13010198
5	0xbd8925d0	-0.06696665
6	0xbdb0ca24	-0.08632305
7	0x3e44bc73	0.19212513
8	0xbe5593f6	-0.20857224
9	0xbe06a21f	-0.13147782
10	0x3e0d33e2	0.13789323
11	0xbe3d3554	-0.18477374
12	0x3d979264	0.07400969
13	0x3e6e318a	0.23261085
14	0xbdab14d6	-0.083535835
15	0x3e561122	0.20904973
16	0x3d875605	0.06608204
17	0x3e0bc6f6	0.13650116
18	0x3db3048d	0.08741102
19	0xbd89f823	-0.067367814
20	0x3d781fc3	0.060577165
21	0x3e2dfd0e	0.16991064
22	0x3dd84490	0.10559952
23	0xbdc424a6	-0.09577303
24	0x3df38cca	0.11892088
25	0x3e1b51f3	0.1516798
26	0xbd8aef9e	-0.067839846
27	0x3e2968cd	0.16543885
28	0x3e1b8a7c	0.15189546
29	0x3e1e3d31	0.1545303
30	0xbd997cd9	-0.07494516
31	0x3dca1381	0.09867001
32	0x3d8c4839	0.06849713
33	0x3df2399e	0.11827396
34	0xbdd5941a	-0.10428639
35	0x3dc6dae2	0.09709717
36	0xbe056c6d	-0.13029642
37	0x3d9ee61f	0.07758736
38	0xbe15695f	-0.14590977
39	0xbd9f0b0d	-0.0776578
40	0xbe42db2e	-0.19028923
41	0x3e1445ac	0.14479703
42	0x3dd0b547	0.10190826
43	0xbd9024e3	-0.070382856
44	0xbdf9789b	-0.12181207
45	0x3d9c64c7	0.07636409
46	0x3dbcf052	0.09225525
47	0xbdfda4e4	-0.12384966
48	0xbe8dd45b	-0.27701077
49	0xbe056445	-0.13026531
50	0xbd8cebfe	-0.068809494
51	0xbde4cf68	-0.11172372
52	0x3d9ece4c	0.07754192
53	0x3e10776e	0.14108059
54	0xbe89e8c6	-0.26935405
55	0xbe0bb13c	-0.13641828
56	0xbe443062	-0.19159082
57	0xbe3100d5	-0.17285474
58	0xbe019523	-0.12654547
59	0xbe458bc7	-0.19291602
60	0xbe48e6bd	-0.1961927
61	0x3e2569c6	0.1615363
62	0xbe64ae21	-0.2233205
63	0xbdce9bae	-0.10088287
64	0x3e7b07c6	0.24514684
65	0xbdb9f043	-0.090790294
66	0x3e8d6cfc	0.2762221
67	0x3e5181a6	0.20459613
68	0x3d9965ee	0.07490145
69	0xbe2b22ef	-0.16712545
70	0xbdd87dd7	-0.10570877
71	0x3e184fda	0.14874211
72	0x3df49f2e	0.119444236
73	0xbe24ab20	-0.16080904
74	0xbe52d5a6	-0.20589313
75	0x3e26ae8b	0.1627752
76	0x3db09a4b	0.08623179
77	0x3df3f4ca	0.11911924
78	0x3e3c3ca8	0.18382514
79	0xbd83926d	-0.06424413
80	0x3deb1f19	0.11480541
81	0x3dcfc675	0.101452745
82	0x3e1ce526	0.15321788
83	0xbdc3f705	-0.095685996
84	0x3df79cd8	0.120904624
85	0xbe3e3b50	-0.18577313
86	0xbd9fcc46	-0.07802634
87	0x3da4d036	0.080475256
88	0x3e09c991	0.13455798
89	0x3e1fb4b2	0.15596274
90	0x3e123f62	0.14281991
91	0xbdf37379	-0.11887259
92	0x3e51af73	0.20477085
93	0x3e0443f7	0.12916552
94	0x3de325e3	0.11091211
95	0x3d91716b	0.07101711
96	0xbdfc2f5a	-0.12313719
97	0x3dc3907f	0.09549045
98	0x3e0935b2	0.1339939
99	0xbe2b0fc2	-0.1670523
100	0x3e48f3c7	0.19624244
101	0xbe01d831	-0.12680127
102	0xbe3dada7	-0.18523274
103	0x3e1ee61e	0.1551747
104	0x3da569f0	0.080768466
105	0x3e2f25b7	0.17104231
106	0xbdf71c40	-0.12065935
107	0x3e117b4c	0.1420719
108	0xbe3ce4f1	-0.18446709
109	0xbe1703d2	-0.14747551
110	0xbe490b74	-0.19633275
111	0x3da062e0	0.07831359
112	0x3db75f23	0.08953693
113	0xbe15adb9	-0.14617051
114	0x3e49ff5c	0.19726318
115	0xbd8b02e3	-0.0678766
116	0xbdcdedb7	-0.10055106
117	0x3e45c4fa	0.19313422
118	0x3db48c21	0.0881579
119	0xbe54939a	-0.2075943
120	0x3e88d24d	0.26722947
121	0x3db163f0	0.0866164
122	0xbe6377e2	-0.222137
123	0x3db12931	0.08650435
124	0x3d87f946	0.06639342
125	0xbe33cb7a	-0.17558089
126	0x3e19ee1e	0.15032241
127	0xbe2dc706	-0.16970453
