RL/PPO_agent_model.pt (torch, 75479 bytes, 6 tensors)

weight f4 [128, 6]
0	0xbd313e9e	-0.043272607
1	0xbd7c4308	-0.061587363
2	0xbccdf48b	-0.025141021
3	0xbcc5c022	-0.024139468
4	0xbd88a8d2	-0.06672825
5	0xbd33cc94	-0.043896273
6	0xbd0768c1	-0.033058885
7	0x3cbb6f29	0.022880154
8	0x3e766f4f	0.24065898
9	0x3d9d99d0	0.07695353
10	0x3dc45948	0.095873415
11	0x3e12675e	0.14297244
12	0x3e258f77	0.16168009
13	0xbdb32625	-0.0874751
14	0x3c6ad495	0.01433291
15	0xbd494125	-0.049134392
16	0xbe3b0351	-0.18262984
17	0x3d5caefb	0.053877812
18	0xbd6680ba	-0.056275107
19	0x3d00bddf	0.031431075
20	0xbd1085a8	-0.035283715
21	0x3dbb5821	0.09147669
22	0xbd924017	-0.071411304
23	0x3e260075	0.16211112
24	0x3d0a77e5	0.033805747
25	0x3e0456a7	0.1292368
26	0xbd6658ce	-0.056237034
27	0x3c8195e5	0.015818546
28	0x3c44b378	0.012005679
29	0xbcbedcf2	-0.023298714
30	0x3da7ffe2	0.08203103
31	0x3da38a25	0.07985333
32	0xbdd97a52	-0.10619034
33	0x3e107b90	0.14109635
34	0xbbaced6d	-0.005277327
35	0xbb888bba	-0.0041670473
36	0x3bbb3c0f	0.0057139467
37	0x3c230762	0.009950491
38	0x3c7a90b4	0.015293289
39	0x3e352a18	0.17691839
40	0x3d383127	0.04496875
41	0x3db29402	0.087196365
42	0xbe033ca8	-0.12816107
43	0x3e0c5c54	0.13707095
44	0x3a97c7be	0.0011579914
45	0xbd474109	-0.048646007
46	0xbdd0a161	-0.101870306
47	0xbd2672fc	-0.040637
48	0x3e0ae389	0.1356336
49	0xbde13a95	-0.10997502
50	0xbd3b7f34	-0.045775607
51	0xbd2d82e9	-0.042361174
52	0x3cd2bd6d	0.02572509
53	0x3dce44a1	0.10071684
54	0x3dbea353	0.093084954
55	0x3dcfbc48	0.10143334
56	0x3c65d207	0.014027125
57	0x3da77051	0.081757195
58	0x3d2e69cd	0.04258137
59	0x3d60d5fd	0.054891575
60	0x3ce89346	0.028390538
61	0x3cba6490	0.02275303
62	0xbd4e13a2	-0.050311692
63	0x3dbcb959	0.0921504
64	0x3dd8aa31	0.105793364
65	0x3dd35e0d	0.10320673
66	0xbbd25019	-0.00641824
67	0xbda0bea9	-0.078488655
68	0xbc3aab27	-0.011393345
69	0xbbcf2b54	-0.006322304
70	0x3d78a01d	0.06069957
71	0xbd8a2021	-0.06744409
72	0x3dac9bf7	0.084281854
73	0xbd587678	-0.052847356
74	0x3d645c82	0.055752285
75	0xbd889bb1	-0.06670321
76	0x3d401a51	0.046900097
77	0x3da4dd64	0.080500394
78	0xbc811135	-0.015755275
79	0x3dab2bf2	0.08357991
80	0x3e27739c	0.16352695
81	0xbc43993a	-0.0119383875
82	0x3d81ee95	0.06344334
83	0xbd8516b4	-0.06498471
84	0x3d980db8	0.07424492
85	0xbe4f60b0	-0.20251727
86	0x3db29e5d	0.08721612
87	0xbdb30ec7	-0.08743053
88	0xbd2cd5f3	-0.042196225
89	0x3cefe79e	0.029285248
90	0xbc655c69	-0.013999083
91	0x3cd4e02c	0.0259858
92	0xbe0b030d	-0.13575383
93	0xbe4fb8fe	-0.20285413
94	0xbdbfa5ac	-0.09357771
95	0x3c01a98c	0.007913958
96	0x3e09ab3d	0.13444228
97	0x3ddc0d89	0.10744769
98	0x3d1f462e	0.038885288
99	0x3dbd7202	0.09250261
100	0xba4d8508	-0.00078399526
101	0x3e0b6826	0.13613948
102	0xbe8e4555	-0.2778727
103	0x3d2186f1	0.03943533
104	0xbe0c648e	-0.13710234
105	0x3d4117f1	0.047141973
106	0xbc3a8781	-0.011384846
107	0x3e046723	0.12929969
108	0xbcfbb820	-0.030727446
109	0xbc72b0a0	-0.0148126185
110	0xbd4bde52	-0.049772568
111	0x3cd23a79	0.025662648
112	0x3da812b0	0.08206689
113	0x3d828d9f	0.06374668
114	0xbc9d7ae4	-0.019223638
115	0x3de3276c	0.110915035
116	0x3d32d200	0.043657303
117	0xbd221951	-0.039574925
118	0xbddbecce	-0.10738526
119	0x3e2e7d44	0.17039973
120	0x3d7adeb5	0.061247546
121	0xbd60731f	-0.054797288
122	0x3d81617f	0.06317424
123	0xbd40f3cd	-0.047107507
124	0xbcc5e231	-0.024155708
125	0xbdd53c14	-0.104118496
126	0xbd2504ac	-0.04028766
127	0x3de6aa01	0.112628944
128	0x3dbf64a6	0.09345369
129	0xbd8d8077	-0.06909268
130	0xbd07586c	-0.03304331
131	0x3c685bdc	0.014182057
132	0x3ce591e0	0.02802366
133	0x3d960688	0.073254645
134	0xbd29dfe0	-0.04147327
135	0xbdb350b8	-0.0875563
136	0x3e1e5e7e	0.15465733
137	0x3d2a2ca4	0.04154648
138	0xbdcaa8b7	-0.09895461
139	0x3de2c489	0.11072642
140	0x3d924be2	0.0714338
141	0x3d2c4753	0.042060208
142	0xbd70c184	-0.0587783
143	0x3d12edd4	0.03587134
144	0xbd688438	-0.05676672
145	0x3c92b2f8	0.017907605
146	0x3de653a0	0.11246419
147	0xbd4636f3	-0.048392247
148	0x3da0ea77	0.078572206
149	0x3c4f2d67	0.012645102
150	0xbe137ac6	-0.14402303
151	0x3d19f5bc	0.037587866
152	0xbdb8c8c5	-0.09022669
153	0xbd14d728	-0.036338
154	0xbd59ad7f	-0.053143974
155	0x3ceb70df	0.028740345
156	0xbd82602b	-0.06365999
157	0xbd9d494f	-0.07679998
158	0xbe308cab	-0.1724116
159	0xbdd8b25a	-0.10580893
160	0xbd0b3476	-0.033985578
161	0x3e117bca	0.14207378
162	0xbe7c3eb4	-0.24633294
163	0xbda15ade	-0.0787866
164	0x3d886276	0.06659405
165	0x3c6710f5	0.014103164
166	0xbdb96d74	-0.0905408
167	0x3d5ca21c	0.053865537
168	0xbdb38604	-0.08765796
169	0x3d2efb7d	0.042720307
170	0xbe2f956b	-0.17146842
171	0xbd9b09f9	-0.075702615
172	0xbd42a41a	-0.04751978
173	0xbd8175ff	-0.06321334
174	0x3d632476	0.055454694
175	0xbde1d03f	-0.11026048
176	0xbd82a07c	-0.06378266
177	0x3933d892	0.00017151449
178	0xbd2102fd	-0.03930949
179	0xbd75f290	-0.06004578
180	0xbd532157	-0.051545467
181	0x3d68015d	0.056641925
182	0x3dac4743	0.084120296
183	0xbdd98e49	-0.10622842
184	0x3cbd63e9	0.02311893
185	0xbe09bc24	-0.13450676
186	0xbd404938	-0.046944827
187	0x3da761d9	0.0817296
188	0xbcb9b37d	-0.022668594
189	0xbcb24ee3	-0.021766132
190	0x3e18a173	0.14905338
191	0xbdc8bec4	-0.09802011
192	0x3d5773ac	0.052600548
193	0xbde54414	-0.111946255
194	0xbd3e76cc	-0.046500012
195	0xbdba3a90	-0.09093201
196	0x3df6523a	0.12027402
197	0xbca6bc23	-0.020353382
198	0x3dedad5f	0.116053335
199	0x3e4591d4	0.1929391
200	0x3d1cec1b	0.038311105
201	0x3dd213ae	0.1025766
202	0xbddeae71	-0.10873116
203	0xbe0bcddc	-0.13652748
204	0x3d54c8ec	0.051949427
205	0x3e102bc7	0.140792
206	0xbd15dde5	-0.03658857
207	0xbd23800f	-0.039917048
208	0x3d318401	0.04333878
209	0xbda9e2da	-0.082952216
210	0xbd2ceac7	-0.04221609
211	0xbdb6d037	-0.089264326
212	0xbd91a45d	-0.07111428
213	0xbda3ef95	-0.08004681
214	0x3d95e813	0.07319655
215	0xbd13a6c6	-0.03604772
216	0x3d6962fb	0.05697916
217	0xbd407128	-0.046982914
218	0x3d207e46	0.039182924
219	0xbe06af75	-0.13152869
220	0xbdf4e229	-0.11957199
221	0x3cd822e4	0.026383825
222	0xbdda838f	-0.10669624
223	0x3dcdbc2b	0.10045656
224	0xbc22a505	-0.009927039
225	0x3da7efb7	0.08200019
226	0xbdd9de55	-0.106381096
227	0xbcc91c8a	-0.024549741
228	0x3d55fbf6	0.05224224
229	0xbdb124ad	-0.086495735
230	0x3db0cac7	0.08632427
231	0x3cb9cba5	0.022680113
232	0xbcb54c5b	-0.022131136
233	0x3c8babde	0.017049726
234	0x3d569ed3	0.05239756
235	0xbd7e3839	-0.062065337
236	0xbd8dea3a	-0.06929441
237	0xbe63f84e	-0.2226269
238	0xbbff9718	-0.007799994
239	0x3d8689e9	0.06569273
240	0xbd244b66	-0.040110968
241	0xbd349eaf	-0.044096645
242	0xbe34fbe9	-0.17674221
243	0x3e634969	0.22195973
244	0xbd1b6e2a	-0.037946858
245	0xbcd37516	-0.025812667
246	0x3e23a2de	0.15980098
247	0xbdb97601	-0.090557106
248	0xbdc3dbc3	-0.095634006
249	0x3d584898	0.052803606
250	0x3cc88fa9	0.024482565
251	0xba57cb13	-0.00082318595
252	0xbe17f682	-0.14840129
253	0xbd623e00	-0.05523491
254	0xbe00dd75	-0.12584479
255	0x3da40580	0.080088615

bias f4 [128]
0	0xbc0d94b2	-0.008641409
1	0x3ad828ca	0.0016491648
2	0xbb18b7cf	-0.0023302918
3	0x3abdadea	0.0014471386
4	0x3c307f2e	0.0107725095
5	0x3c88c27f	0.016694305
6	0xb9b63f5d	-0.00034760954
7	0xbc4812d3	-0.012211519
8	0x3b2dba9f	0.002650894
9	0x3c14bd3e	0.009078322
10	0x3bc4d483	0.0060067787
11	0xbaf984a0	-0.0019036718
12	0x3c51f0ab	0.012813727
13	0xba0bbf1d	-0.00053309073
14	0xbba88237	-0.005142476
15	0xbc95711f	-0.018242417
16	0x398e6588	0.00027159997
17	0xbbdd3235	-0.00675037
18	0xb998285d	-0.00029021772
19	0x3b73020c	0.0037080077
20	0xba5dd6f5	-0.0008462512
21	0x3b125367	0.0022327544
22	0x3c092ce7	0.008372522
23	0x3ba271f8	0.004957434
24	0x3c0191a2	0.007908257
25	0xbc6e3a45	-0.01454026
26	0xbc758158	-0.014984451
27	0x3c03c11e	0.008041648
28	0x3af2b96b	0.0018518394
29	0xbc996fe9	-0.01873012
30	0xbbdbba98	-0.0067055933
31	0x3b82dc54	0.0039935503
32	0xbbd0aac5	-0.0063680136
33	0x3bc6eccd	0.0060707093
34	0x3c4a8c35	0.0123625295
35	0xb958d13f	-0.00020677315
36	0xbbc8ffc1	-0.006134004
37	0xbc4a9f63	-0.012367102
38	0x3c247db0	0.010039732
39	0x3b834cd2	0.0040069604
40	0xbb1d823f	-0.0024033932
41	0xbb919dd4	-0.0044438634
42	0xbb14e17c	-0.0022717407
43	0xbbede4e3	-0.0072599514
44	0xba1276d0	-0.00055871624
45	0xbbac79e9	-0.0052635563
46	0xbc22ca63	-0.009935948
47	0x3bb1332b	0.005407711
48	0xbb9ed514	-0.0048471782
49	0x3ba97d2c	0.0051723924
50	0xbb2178ae	-0.002463858
51	0xbbc03e06	-0.005866769
52	0xbb18d068	-0.002331758
53	0xbbdae86c	-0.006680539
54	0x3c24b7c4	0.010053579
55	0x3b9dedc9	0.004819606
56	0x3b6ea6e7	0.00364154
57	0xbb304d52	-0.0026901555
58	0x3c866cec	0.01640936
59	0x3b176f98	0.0023107287
60	0x3b4fe8cc	0.003172445
61	0x3b3a140d	0.00283933
62	0x3abf3fba	0.0014591136
63	0x3ba94804	0.0051660556
64	0xba8b9671	-0.0010649693
65	0xbb8aae88	-0.0042322315
66	0x3bc3c713	0.005974659
67	0xbbebe9f9	-0.0071995226
68	0x3b91018c	0.004425233
69	0xbbea0b02	-0.0071424255
70	0xbc3f0434	-0.011658717
71	0xbab0e9cd	-0.0013497412
72	0x3ba85955	0.0051376023
73	0x3abf7161	0.0014605933
74	0xbb75c226	-0.0037499755
75	0xbb9f7927	-0.0048667374
76	0xbbe94bff	-0.007119655
77	0x3aa2f36a	0.0012432162
78	0xbc2ca128	-0.0105364695
79	0x3c85c4bd	0.016329164
80	0xbbbb3d3a	-0.005714086
81	0xbb9bcce9	-0.004754652
82	0xbc035f17	-0.008018277
83	0x3bc39020	0.005968109
84	0x3bfe065f	0.0077522243
85	0xbba7c7f1	-0.0051202704
86	0xbbe66dcc	-0.007032132
87	0xbc4434d8	-0.01197549
88	0x3c12c828	0.008958854
89	0xbba35d35	-0.0049854764
90	0x3c25aaf0	0.010111555
91	0x3c186d9e	0.0093034785
92	0x3aee289a	0.0018170059
93	0x3c03f15e	0.008053152
94	0x3c28bd5c	0.010299053
95	0xbaf3b5c7	-0.0018593603
96	0xbb22cf6d	-0.0024842874
97	0x3b88375b	0.0041569895
98	0x3ac1c21d	0.0014782582
99	0xbc139cbd	-0.009009537
100	0x386a0c93	5.5801658e-05
101	0xbc697ff7	-0.014251701
102	0xb97bf7cf	-0.00024029541
103	0x3ba9931b	0.005175007
104	0xbb5eb944	-0.0033984939
105	0xbbd3b6c2	-0.0064609954
106	0xbbad969b	-0.0052974946
107	0x3c53db2e	0.0129306745
108	0x3b4c0060	0.0031128153
109	0xbaa1a568	-0.001233262
110	0xba52213f	-0.00080158183
111	0xbb3f7fc7	-0.0029220448
112	0x3b2c1bd5	0.0026261706
113	0x3c2a9d15	0.010413428
114	0xbb5d008e	-0.0033722254
115	0xbc0dbbad	-0.008650702
116	0xbc2b551b	-0.010457302
117	0xbc17b3aa	-0.009259144
118	0x3adc8230	0.0016823467
119	0xbaad7bfe	-0.0013235805
120	0xbc5fae65	-0.013652419
121	0xbbba120b	-0.0056784204
122	0x3c051f06	0.008125072
123	0xbc6284b1	-0.013825581
124	0xbbb2e32d	-0.0054592104
125	0x3c08dd4a	0.008353541
126	0xbaa7722f	-0.0012775118
127	0x39e0dcab	0.0004288902

weight f4 [128, 128]
0	0x3d31590b	0.04329781
1	0x39852ca2	0.0002540099
2	0x3d999652	0.074993744
3	0xbcdd5880	-0.02701974
4	0xbd2c46fd	-0.042059887
5	0xbdd31aae	-0.10307823
6	0x3cfd7b57	0.030942602
7	0xbdeca4c1	-0.11554862
8	0xbdc1e736	-0.09467928
9	0xbda85da1	-0.08220983
10	0xbd06b5bc	-0.03288816
11	0xbd88fea9	-0.066891976
12	0x3e189656	0.14901099
13	0x3af0e642	0.0018379169
14	0xbc7a932a	-0.015293876
15	0x3d98482a	0.07435639
16	0xbd4ce6ea	-0.050024904
17	0xbd7666a1	-0.06015647
18	0xbd494066	-0.04913368
19	0x3d0c10bc	0.034195647
20	0xbd8c72e4	-0.06857851
21	0xbdc68907	-0.09694105
22	0xbd4bb5e3	-0.049734008
23	0x3c27bab1	0.010237382
24	0x3c34836d	0.0110176625
25	0xbd7ec105	-0.062195797
26	0x3dbb33b2	0.091407195
27	0x3ca65be1	0.020307483
28	0x3e5f46d6	0.21804366
29	0x3e194de9	0.14971127
30	0xbd080df6	-0.03321644
31	0x3bd2d07d	0.006433545
32	0x3dc52072	0.09625329
33	0xbc2178a6	-0.009855425
34	0xbd3e3169	-0.04643384
35	0xbb12ac2f	-0.0022380461
36	0xbe3737cf	-0.17892383
37	0xbdb3eb0b	-0.08785065
38	0xbbc5dd40	-0.006038338
39	0xbdaf821e	-0.0856974
40	0x3e065558	0.13118494
41	0xbdb9d0c8	-0.09073025
42	0x3d261509	0.040547404
43	0x3db4cc9e	0.0882809
44	0xbdd9aab3	-0.106282614
45	0x3c30aed1	0.010783867
46	0xbd535008	-0.051589996
47	0x3bda3461	0.006659076
48	0xbe26b99f	-0.16281746
49	0xbe2370f4	-0.15961057
50	0x3d6ce4f3	0.05783553
51	0x3e4b02e1	0.19825317
52	0x3d95d8b5	0.07316724
53	0x3d006fe3	0.031356703
54	0x3cf2aaf3	0.02962253
55	0x3bb4ed19	0.0055214283
56	0xbc805938	-0.015667543
57	0x3d22a1f8	0.039705247
58	0xbd8735bc	-0.06602046
59	0x3c8c13a9	0.017099218
60	0x3ddbf246	0.10739569
61	0xbcdf7534	-0.027277566
62	0xbe019d52	-0.12657669
63	0xbdad0902	-0.08448984
64	0x3e06fc8b	0.13182275
65	0x3de841ba	0.11340661
66	0xbd609e34	-0.054838374
67	0x3c8fd8d7	0.017559452
68	0xbd7a4a80	-0.061106205
69	0xbc394c31	-0.011309669
70	0x3de692c9	0.11258466
71	0x3b9a02be	0.004700034
72	0xbe1c20e0	-0.15246916
73	0xbdbddd35	-0.092707075
74	0x3d48bc79	0.049007867
75	0x3e30b1f2	0.17255381
76	0x3d98da0b	0.074634634
77	0x3df15878	0.11784452
78	0xbcfbe2f0	-0.03074786
79	0xbdcde192	-0.1005279
80	0xbe0d0b6c	-0.13773888
81	0xbd0b7620	-0.0340482
82	0x3dc7324c	0.0972639
83	0xbc856cfc	-0.01628732
84	0x3ca2db40	0.019879937
85	0xbde2c064	-0.11071852
86	0x3dfe6574	0.124216944
87	0xbe276d00	-0.16350174
88	0x3d4f7d17	0.050656404
89	0xbdeacd91	-0.1146499
90	0x3d76e11d	0.06027328
91	0x3d621b25	0.05520167
92	0xbd1ebca9	-0.03875414
93	0xbd5ebc39	-0.054378722
94	0x3d293af9	0.041316006
95	0xbcada599	-0.021197127
96	0xbc36cc1b	-0.011157061
97	0xbe4b86c6	-0.1987563
98	0x3d41ce8b	0.047316115
99	0xbe296727	-0.16543256
100	0x3c43b8b3	0.011945891
101	0xbc871d92	-0.016493592
102	0x3ca26dd2	0.019827757
103	0x3d8488ef	0.064714305
104	0x3da2de38	0.07952541
105	0xbcb78ad2	-0.022405062
106	0x3e0f4875	0.13992484
107	0xbdc61bc5	-0.09673265
108	0x3e0fcfd8	0.1404413
109	0x3e48f818	0.1962589
110	0xbd05e37b	-0.032687645
111	0xbd40aeba	-0.047041632
112	0xbdb9e75a	-0.0907733
113	0x3d8e9d15	0.06963555
114	0xbe517455	-0.20454533
115	0x3d7a3f74	0.06109567
116	0x3d8e7526	0.06955938
117	0x3c9e4aa7	0.019322706
118	0x3d07bdb1	0.03313989
119	0x3de55308	0.111974776
120	0xbd151287	-0.036394622
121	0x3d31bec3	0.043394815
122	0x3c0d86f8	0.008638136
123	0x3d7c688e	0.06162315
124	0xbe13adb3	-0.1442173
125	0xbe19d827	-0.15023862
126	0xbcb36f5e	-0.02190369
127	0xbdb27a7a	-0.08714767
128	0xbd9340aa	-0.07190068
129	0x3c6700c0	0.0140993
130	0x3e33cd10	0.17558694
131	0xbc6aa605	-0.014321809
132	0xbd392a5a	-0.045206405
133	0xbbf9280f	-0.0076036523
134	0x3d4958e5	0.049157042
135	0x3d40f7f7	0.047111478
136	0xbe05fe09	-0.13085188
137	0x3bb883e7	0.0056309584
138	0xbda83e79	-0.08215041
139	0xbdf4d5f2	-0.11954869
140	0xbdd0fef5	-0.10204879
141	0xbda68009	-0.081298895
142	0xbb808194	-0.003921697
143	0x3db5ed6a	0.08883174
144	0x3ce60d22	0.028082434
145	0xbcc5dd9b	-0.024153521
146	0x3d98133c	0.07425544
147	0x3d97dc08	0.074150145
148	0xbd6c29c3	-0.057657015
149	0x3d357e30	0.044309795
150	0x3daf066d	0.085461475
151	0x3d52cc86	0.05146458
152	0xbc3808c4	-0.011232559
153	0xbe20e746	-0.15713224
154	0xbd8e6ab7	-0.06953948
155	0xbd6afcdf	-0.057370063
156	0xbcb3f307	-0.02196647
157	0x3d09b515	0.03361996
158	0xbd95d38c	-0.0731574
159	0xbd8ff016	-0.07028215
160	0xbcd50773	-0.026004529
161	0x3c0b31e4	0.008495782
162	0xbdaed13a	-0.085360005
163	0x3d92dc41	0.07170916
164	0x3ddd4e98	0.10806006
165	0xbdce0bae	-0.100608215
166	0x3d70f5c5	0.058828134
167	0x3dd32ca6	0.103112504
168	0xbb2eac1d	-0.002665288
169	0x3dc8fbf5	0.09813682
170	0xbda5d8e7	-0.080980115
171	0xbdedb084	-0.11605933
172	0xbd41f1c4	-0.047349706
173	0xbe0d5820	-0.13803148
174	0x3dd48c14	0.1037828
175	0xbc55d705	-0.013051753
176	0xbbd5f8f3	-0.006529921
177	0xbda50d3d	-0.080591656
178	0x3d07b83b	0.03313468
179	0xbd8318c3	-0.06401207
180	0xbdc6d819	-0.09709186
181	0x3dc8e332	0.09808959
182	0x3d79898b	0.060922187
183	0xbdb43dbc	-0.088008374
184	0xbe21e9a6	-0.15811786
185	0xbe7e50ee	-0.2483556
186	0xbcb9a27e	-0.02266049
187	0xbd85e233	-0.06537285
188	0xbadc7e25	-0.0016822262
189	0x3cfeb73b	0.03109323
190	0x3d98cf2b	0.07461389
191	0xbd515da2	-0.051114686
192	0x3d9f884d	0.07789669
193	0x3d040af0	0.032236993
194	0x3d92b6a3	0.071637414
195	0xbc82e5c7	-0.015978707
196	0xbe08ac2f	-0.13346933
197	0xbdb81f54	-0.0899035
198	0xbe4edb61	-0.20200874
199	0xbcb41d3c	-0.021986596
200	0xbe18e691	-0.14931704
201	0x3bd90340	0.006622702
202	0x3d4e16b1	0.05031461
203	0xbd48bfe4	-0.049011126
204	0x3db5569c	0.0885441
205	0x3dbfc032	0.0936283
206	0x3e881589	0.2657893
207	0xbd64eba9	-0.055888806
208	0xbd81249f	-0.06305813
209	0x3db40148	0.08789307
210	0xbd98e35e	-0.07465242
211	0xbddd5d55	-0.10808817
212	0x3d256ca4	0.04038681
213	0x3de99006	0.114044234
214	0xbd79c68a	-0.060980357
215	0xbe02465f	-0.12722157
216	0xbc71a762	-0.01474938
217	0xbd00c7a8	-0.031440407
218	0x3b15a052	0.0022831154
219	0xbdb1b5ec	-0.08677277
220	0x3dec1dd2	0.11529125
221	0x3d705a9c	0.05868016
222	0x3d988214	0.074466854
223	0x3d807b9e	0.06273578
224	0xbde07e52	-0.10961594
225	0xbe482c32	-0.19548109
226	0xbe4d3130	-0.20038295
227	0x3b54d764	0.0032477016
228	0xbd4915a3	-0.0490929
229	0xbe8af305	-0.27138534
230	0xbe1f36b8	-0.15548217
231	0x3d14a11e	0.036286466
232	0xbc95fbb9	-0.018308507
233	0x3dc37f6c	0.09545788
234	0x3d44a5a0	0.048009515
235	0x3b8c5bb2	0.004283392
236	0xbc286b66	-0.010279512
237	0xbaf103c0	-0.0018387958
238	0x3cb1225f	0.021622835
239	0xbaa83292	-0.0012832454
240	0xbc1df079	-0.009639853
241	0x3d1688eb	0.03675167
242	0x3bdfaf3d	0.00682631
243	0xbd63a2f7	-0.055575337
244	0xbd481397	-0.048846807
245	0x3d608f38	0.054824084
246	0x3df668eb	0.1203173
247	0xbdbb8d2f	-0.09157788
248	0xbc508c5f	-0.01272878
249	0xbd37d334	-0.044879153
250	0xbda96919	-0.08271999
251	0xbda7c865	-0.08192519
252	0x3d3fae3b	0.04679702
253	0xbd863d6a	-0.065546826
254	0xbd0f498d	-0.034982253
255	0x3d8c064f	0.06837141

bias f4 [128]
0	0xbbe02acf	-0.0068410407
1	0xba04b8d2	-0.0005062941
2	0x3a8f2ef6	0.001092403
3	0x3b5a4749	0.003330665
4	0x3b812b80	0.003941953
5	0x398e9f5c	0.00027203083
6	0xba8ee20e	-0.001090111
7	0x3ab7ae36	0.0014013711
8	0x3b91de60	0.004451558
9	0xbb4728b6	-0.0030389256
10	0xba8a2974	-0.0010540918
11	0xbb3d6988	-0.0028902013
12	0xbb2da23f	-0.0026494411
13	0x3adec96b	0.0016997283
14	0x3b3140af	0.002704661
15	0xbb318b1f	-0.002709098
16	0xbbf84881	-0.0075770025
17	0x3c095913	0.008383053
18	0x3c0d9044	0.008640353
19	0x3c00cce4	0.00786135
20	0x3a806d2d	0.0009798162
21	0x3b8592b8	0.004076328
22	0xbbb1fe6e	-0.0054319417
23	0x3b5411ae	0.003235917
24	0x3b9c8d9b	0.004777623
25	0xbbee0bfd	-0.0072646127
26	0xbb762ce0	-0.0037563369
27	0xbbc99fa4	-0.006153064
28	0xbbb686ad	-0.005570254
29	0xbb6dd64c	-0.003629106
30	0xba8410ac	-0.0010075769
31	0x3b78e405	0.0037977707
32	0xbb8c24bc	-0.00427684
33	0x3be28623	0.006912963
34	0x3bc61d6a	0.006045987
35	0xbb54d3b3	-0.0032474815
36	0xbba27f31	-0.00495901
37	0xb9e40964	-0.00043494545
38	0xbb0234e1	-0.0019867944
39	0x3a9a791a	0.0011785359
40	0x3bc3bcbe	0.0059734276
41	0x3af82e8c	0.001893477
42	0x3b718deb	0.0036858271
43	0x38b3d1c8	8.57446e-05
44	0x3b8cd3b8	0.0042977
45	0xbba8ce59	-0.0051515517
46	0x3b88cb30	0.0041746125
47	0xbb897cd9	-0.004195791
48	0x3a8c6420	0.0010710992
49	0x3a97adba	0.001157216
50	0xbc4e65c0	-0.012597501
51	0x3c25988a	0.010107169
52	0xbb62cd97	-0.0034607404
53	0x3be16741	0.006878764
54	0xbac49796	-0.0014998789
55	0xbb76cfcd	-0.003766048
56	0x3c07cdb9	0.008288794
57	0xb8d9391c	-0.00010358004
58	0x3bad0c3d	0.005281
59	0x3b5a365c	0.003329656
60	0x3b3be470	0.0028670095
61	0xbaab619e	-0.0013075357
62	0x3bbb399c	0.0057136547
63	0x3b9fd7d7	0.004878025
64	0x3b851687	0.0040615234
65	0xbb990bde	-0.004670604
66	0x3bb78350	0.0056003705
67	0xbb849477	-0.0040460187
68	0x3b521a5d	0.003205917
69	0xbbbd5fa9	-0.005779226
70	0x3c330467	0.010926343
71	0x3bb262bb	0.0054438985
72	0xbaa05e48	-0.0012235129
73	0xb9b50efc	-0.00034534174
74	0xbc61ca06	-0.013781076
75	0xbb9fe742	-0.004879863
76	0x3b40f209	0.002944114
77	0xbbb98118	-0.005661141
78	0x3b09d390	0.0021030642
79	0x3b522ba0	0.003206946
80	0xbb5428fe	-0.0032373066
81	0x3b59c501	0.0033228996
82	0x3ba6e33a	0.0050930055
83	0xba3ad4b2	-0.0007127031
84	0x3aabe245	0.0013113698
85	0x3a56e202	0.000819713
86	0xbc0828a2	-0.008310469
87	0x3b053338	0.0020324718
88	0x3b5f56d1	0.0034078846
89	0x3b8ee718	0.0043610446
90	0xbb6f771f	-0.0036539508
91	0xba13dc76	-0.0005640456
92	0x3b9ad0d2	0.0047246004
93	0xb95631ab	-0.00020427133
94	0xbb90d69f	-0.004420116
95	0x3ba5baea	0.0050576823
96	0xb9dfb270	-0.0004266682
97	0xb9f72bd7	-0.00047144174
98	0x3b9829db	0.0046436614
99	0x3a625dd6	0.00086351985
100	0x3b9485f3	0.0045325696
101	0xbb8f4680	-0.004372418
102	0x3c13e499	0.00902667
103	0x3ae530f7	0.0017485906
104	0xba3459e8	-0.0006879852
105	0xbaa80e43	-0.0012821633
106	0x3b73f639	0.0037225618
107	0xbb198fe7	-0.002343172
108	0x39656ce9	0.00021879714
109	0xbbaa880a	-0.0052042054
110	0xbb35c56c	-0.002773608
111	0x3be870a1	0.0070935045
112	0xbb862fe5	-0.004095065
113	0x388d5cf1	6.7407156e-05
114	0x3b5296c1	0.0032133313
115	0xbbc38c67	-0.005967665
116	0x3b8bf428	0.004271049
117	0xbb476caa	-0.003042976
118	0x3c11578a	0.008870969
119	0xbb00f9f0	-0.0019680224
120	0x3a006ffd	0.00048995
121	0x3b72451b	0.003696746
122	0xbaffc5c3	-0.0019513894
123	0xbb87c8a0	-0.0041437894
124	0xb860d9b0	-5.36085e-05
125	0x3ae5023c	0.0017471979
126	0x3b2319ba	0.002488716
127	0x3b7a9483	0.0038235493

weight f4 [6, 128]
0	0x3cdf7274	0.027276255
1	0xbe54036c	-0.2070443
2	0xbd138839	-0.036018584
3	0x3d2468c5	0.04013898
4	0xbc13abcf	-0.00901313
5	0xbe220b5d	-0.15824647
6	0xbd92794e	-0.07152043
7	0xbd150ae3	-0.036387336
8	0x3d9c2eea	0.07626136
9	0x3d8d2c92	0.06893267
10	0xbc94bea0	-0.018157303
11	0xbd7d7601	-0.061880115
12	0x3c1ab327	0.009442127
13	0x3d65aaaf	0.05607098
14	0xbe5df215	-0.21674378
15	0xbb8baab9	-0.004262295
16	0xbe0d900a	-0.13824478
17	0xbe39d322	-0.18146947
18	0xbe01799a	-0.12644044
19	0x3d46d7cb	0.04854564
20	0xbb5a54e3	-0.0033314757
21	0xbdc3bd09	-0.0955754
22	0xbcd0858b	-0.025454303
23	0xbd8e973a	-0.06962438
24	0xbd417f55	-0.047240574
25	0xbd5fd53a	-0.054646708
26	0xbe2dd85e	-0.16977069
27	0x3c9d7a1d	0.019223267
28	0x3cfde611	0.030993493
29	0x3d291021	0.041275147
30	0xbd8179fc	-0.06322095
31	0x3d9fc015	0.078003086
32	0xbe441a7c	-0.19150728
33	0xbde1e486	-0.110299155
34	0xbd1c02db	-0.03808866
35	0x3bad9f15	0.005298505
36	0xbc920185	-0.01782299
37	0xbd8f59fb	-0.06999584
38	0x3d2f605c	0.042816505
39	0xbd76abb7	-0.060222354
40	0xbdb1cfc8	-0.08682209
41	0xbb9c8dd8	-0.0047776513
42	0xbe53708f	-0.20648406
43	0x3c3956c0	0.011312187
44	0xbc571231	-0.013126896
45	0xbe21bfd9	-0.1579584
46	0x3e5d9554	0.21638995
47	0x3d209e84	0.039213672
48	0x3d65a68c	0.056067035
49	0x3d91e2a6	0.07123308
50	0xbd31c108	-0.04339698
51	0x3c1624b4	0.009164024
52	0xbe1b406e	-0.15161297
53	0x3d288aef	0.041148122
54	0xbd6e218e	-0.05813747
55	0xbcb9eeb9	-0.02269684
56	0xbac40f21	-0.0014958122
57	0x3ce7d3fa	0.02829932
58	0x3e072b28	0.13200057
59	0xbd170484	-0.03686954
60	0x3e1c78f5	0.15280516
61	0xbe08164c	-0.13289756
62	0x3d5ab3a6	0.053393982
63	0xbd2b469f	-0.041815396
64	0x3d18ad23	0.03727449
65	0xbdad1d52	-0.08452858
66	0xbdf02f20	-0.117277384
67	0xbdac6c10	-0.08419049
68	0x3ddc2bc4	0.10750535
69	0xbcd2c8f5	-0.02573059
70	0x3db4fe97	0.08837622
71	0x3d2f149e	0.04274427
72	0x3d0362bb	0.03207658
73	0xbd470cfe	-0.048596375
74	0x394cd709	0.00019535063
75	0x3d447efd	0.047972668
76	0x3d486ccf	0.048931893
77	0x3cf38076	0.02972434
78	0xbd2469ec	-0.040140077
79	0x3d8661fa	0.06561656
80	0xbd0371fe	-0.032091133
81	0x3bccf0c2	0.0062542865
82	0xbdcf53fc	-0.101234406
83	0x3c97ec98	0.018545434
84	0x3ce3629b	0.02775698
85	0x3d8c3cca	0.06847532
86	0xbe661ca9	-0.2247187
87	0x3dabd9d7	0.08391159
88	0xbdae09de	-0.08497976
89	0x3df0e374	0.11762133
90	0xbcd247f2	-0.025669072
91	0xbd925af4	-0.07146254
92	0xbd4633d8	-0.048389286
93	0x3d21b8ec	0.039482996
94	0xbd2182f7	-0.03943154
95	0x3c07c36c	0.008286338
96	0x3d999b62	0.0750034
97	0xbe3b4378	-0.18287456
98	0x3d69cfb8	0.05708286
99	0x3d60780f	0.054801997
100	0xbcab8447	-0.020937098
101	0x3df99afd	0.12187765
102	0xbd2314ca	-0.039814748
103	0x3c9b4ff0	0.018959016
104	0x3d3889dc	0.045053348
105	0xbda34c9f	-0.07973599
106	0xbdc4f583	-0.0961714
107	0x3d9fb882	0.07798864
108	0x3c1c1334	0.009526063
109	0xbd9711b8	-0.073764265
110	0x3cb90ba7	0.022588564
111	0xbc861d4b	-0.01637139
112	0xbde40e25	-0.1113551
113	0xbd98f3da	-0.07468386
114	0xbda2f959	-0.079577155
115	0xbbb93a70	-0.0056527182
116	0x3c48ba9d	0.012251523
117	0x3e4bdaa7	0.19907628
118	0xbcb1ef84	-0.021720655
119	0x3d507e9e	0.050902
120	0xbda320d9	-0.079652496
121	0x3d4aff16	0.049559675
122	0xb9e0c10a	-0.00042868435
123	0x3d361fd8	0.044463962
124	0x3d0e9ea8	0.034819275
125	0xbcf09950	-0.02936998
126	0xbe26edfe	-0.16301724
127	0x3c8d635a	0.017259289
128	0xbe088413	-0.13331632
129	0x3d97539d	0.07388995
130	0xbdae49ed	-0.08510194
131	0xbd153429	-0.036426697
132	0xbdedf3b5	-0.11618749
133	0xbc1c4029	-0.009536781
134	0xbe172747	-0.14761077
135	0xbce61550	-0.028086334
136	0xbd6614c4	-0.056172147
137	0x3dd32971	0.10310639
138	0x3daa896f	0.08326995
139	0x3ddd5a2d	0.10808215
140	0xbd26d438	-0.04072973
141	0xbcddb9e4	-0.027066179
142	0xbd64fe52	-0.0559066
143	0x3c6dcfb4	0.014514852
144	0x3d576aab	0.05259196
145	0xbdbc22e7	-0.091863446
146	0xbda3334c	-0.079687685
147	0x3bf35e09	0.0074269813
148	0xbd31d27f	-0.043413635
149	0x3c9b8538	0.018984422
150	0xbd425060	-0.047439933
151	0x3d770134	0.06030388
152	0x3d67716b	0.05650465
153	0x3dadd6c1	0.08488227
154	0xbc314765	-0.010820244
155	0x3d5c43da	0.053775646
156	0xbcfd06b4	-0.030886985
157	0x3dc99ff3	0.09844961
158	0xbd484427	-0.04889312
159	0x3d9c416b	0.07629665
160	0x3df2a861	0.11848522
161	0xbda052cb	-0.078282915
162	0xbd0de43c	-0.03464149
163	0x3d4f28fd	0.0505762
164	0xbd76e7fd	-0.060279835
165	0x3d4cffce	0.05004864
166	0xbc48ac52	-0.012248116
167	0xbe091592	-0.13387135
168	0xbd613c83	-0.05498935
169	0xbdedafa4	-0.116057664
170	0x3e3d2775	0.18472083
171	0x3e062a66	0.13102111
172	0xbe131dce	-0.14366838
173	0x3de4c6a8	0.11170703
174	0xbd4714f1	-0.048603956
175	0x3dae0903	0.084978126
176	0xbd26469f	-0.040594693
177	0xbc918849	-0.017765181
178	0xbca21b44	-0.019788392
179	0x3dabe56d	0.08393369
180	0xbd891b40	-0.06694651
181	0x3d6c844f	0.057743367
182	0xbd80814b	-0.06274661
183	0x3d333c75	0.04375883
184	0xbc60edee	-0.013728602
185	0x3c8fe953	0.017567312
186	0x3cebdba9	0.028791266
187	0xbdd8df08	-0.10589415
188	0xbd9b7bf0	-0.075919986
189	0x3e102022	0.14074758
190	0x3e287fb4	0.16454965
191	0x3d7dea3c	0.06199096
192	0xbdd1ef5b	-0.102507316
193	0x3dbc9ee2	0.09209992
194	0x3e1208c5	0.14261158
195	0x3d3de74c	0.04636316
196	0x3c35a6fb	0.0110871745
197	0x3dd4af7a	0.10385032
198	0x3ddb79d4	0.10716596
199	0xbda87a40	-0.08226442
200	0x3aff9752	0.0019500053
201	0xbe0f1ccd	-0.1397583
202	0xbd33fff2	-0.04394526
203	0xbe228389	-0.15870489
204	0xbd063d08	-0.032773048
205	0x3e062281	0.130991
206	0x3dd8cb32	0.105856314
207	0x3bc99c45	0.006152662
208	0xbc0b2350	-0.008492306
209	0xbd28c426	-0.041202687
210	0xbd11f7e1	-0.035636786
211	0x3d1a17da	0.037620403
212	0xbdb86024	-0.09002712
213	0x3c1e7d60	0.009673446
214	0x3bec6b14	0.007214913
215	0xbda9a4fc	-0.082834214
216	0x3dfcaf4c	0.12338123
217	0x3d27ec32	0.040996738
218	0xbcfc1e33	-0.030776119
219	0xbe0ab69d	-0.13546224
220	0xbc3c46a8	-0.011491455
221	0xbd9a2f4f	-0.07528555
222	0xbd83790e	-0.06419574
223	0xbd739981	-0.059472565
224	0x3df2bb18	0.118520916
225	0xbe175c52	-0.14781311
226	0x3ba27a0f	0.004958398
227	0xbcf30c8c	-0.029669069
228	0x3de94bf9	0.11391444
229	0xbb6db220	-0.00362695
230	0x3cdeeeeb	0.027213534
231	0xbda41a75	-0.08012859
232	0x3da29d0c	0.079401106
233	0xbe287c63	-0.164537
234	0xbcc3aef3	-0.023887133
235	0x3dd531ee	0.10409914
236	0xbc5763c3	-0.013146344
237	0x3d9572df	0.072973005
238	0x3dc9ba97	0.09850042
239	0xbe23d947	-0.16000853
240	0x3c8a889f	0.01691085
241	0x3cac0dcc	0.021002673
242	0xbdd7b3b8	-0.105323255
243	0xbdb76278	-0.08954328
244	0xbe2c6e47	-0.16838942
245	0x3d85761b	0.065166675
246	0xbd65b873	-0.056084108
247	0xbe7cab86	-0.24674806
248	0xbdc12b5c	-0.09432098
249	0x3d8d0928	0.06886512
250	0x3de23058	0.11044377
251	0x3ce05301	0.02738333
252	0xbcb2e2ae	-0.021836605
253	0x3d952d51	0.07284034
254	0xbd02d294	-0.031939104
255	0x3db0c626	0.08631544

bias f4 [6]
0	0x3b0056eb	0.0019583057
1	0xb8a164ac	-7.69583e-05
2	0x3b654849	0.0034985712
3	0xbb853b5a	-0.004065913
4	0xba94c4ec	-0.0011350191
5	0x3bb41aab	0.005496343
