RL/PPO_critic_model.pt (torch, 72919 bytes, 5 tensors)

weight f4 [128, 6]
00000000: a134 f7bb a39e 3e3d d0f7 59bc ef4a 0c3e
00000010: 1fb3 e73d 7de6 ccbd 5922 6cbd 9adc 0f3d
00000020: b878 3fbd 0857 cc3d e9de b63d 773a 1d3e
00000030: e769 0a3d e88f d23d e8d0 063e acfe e43c
00000040: 3a00 563d ad0e 853c 9ddf 01be f3e1 00be
00000050: 43ec 2bbe 34a5 84bd 0ca3 923d 58e0 b83c
00000060: b485 60bc 3cec 003e a8d1 b83d c804 323d
00000070: 158c 76bc 2ee7 7c3d 28b9 a23b 2036 afbd
00000080: 5f79 51bc ad6a b2bd 65c7 d4bb 40ba 9d3c
00000090: baf2 023e 896f 87bd 17e2 babd 5bf0 c83d
000000a0: 0adc 703d 1d26 043e df40 873d 822b 67be
000000b0: 27a1 f9bd aa23 8bbd 5024 97bd a599 0a3d
000000c0: b8a0 debc e194 72be 47a9 053e b3c1 883c
000000d0: 1e6b 28bc 984a 1d3d 2649 91bd dfab 433c
000000e0: 74bf 1fbd cf35 c2bd 4f37 073d b798 84bd
000000f0: 30c6 d53d 69ad 6f3d 9e26 2abd 6bd9 d43d
00000100: 6cc6 40bc bb3d 093b c9a6 8abc c3ed 65bd
00000110: 1ca1 c1bd 3cd0 1bbd 2ce2 313c 7545 9dbd
00000120: eab0 1abe 2417 b1bc 63fb 99bd 2b17 cd3d
00000130: cc33 f6bd 8d49 143d 0e07 8c3c 10a0 e63d
00000140: 3b11 0e3d 5ee6 3e3d 9ca0 5fbc 8b68 8abb
00000150: 141c 153c ec09 803d 8baf b83d 161d 033e
00000160: a322 bfbd 21c1 b23c 51fb 78bd 6175 3d3c
00000170: 0e6d 35be 8d24 81bd 2496 0fbd 4f5b 433d
00000180: b613 693c d3d2 1cbe d11f 55bc 5971 07bd
00000190: 6a38 ffbd 425f b63d 91b5 36be 3363 efbd
000001a0: adce 84bd a8b7 19bd ec17 08be 3650 453d
000001b0: 022a 6a3e 1a14 21bb 6658 d0bb d0e7 17be
000001c0: b433 a0bd bd51 593e bddd 013d 6b52 cbbd
000001d0: ad01 ca3b 9689 f6bd 19ec f13c 29f1 3dbe
000001e0: 196d a83d 8071 94bd 08fa 343d 44f0 953d
000001f0: 4bb8 8d3d bfc2 d03c 1bd9 27be ddb8 c7bd
00000200: ec73 763d fa8d f63c f696 20bd 3a49 dbbd
00000210: 5acb 6d3d 535d fa3d ba64 113c 9d78 dabd
00000220: 9715 1c3e 5cdd 3b3e b72e a9bd 0b90 3d3e
00000230: 5bf2 72bd 3c6a e4bd 1e1e cd3d 4522 ee3d
00000240: 3b8e 913c 9033 90bd 7a90 10be 6cfe a6bd
00000250: 0afd c2bd e8c8 d3ba 5eb5 41bd 8899 5c3d
00000260: 71b8 8a3d 0307 043e 9b6b 24bd 4fda 83bd
00000270: e8ed 4f3d d0dc 0bbe 1b32 15be a0d1 15bd
00000280: a380 b1bd 155e 26bd 0cab 15be e1ec d03c
00000290: d2c9 9d3c 6da3 48bb c352 a4bd e8d1 c5bd
000002a0: 0064 98bc 9279 77bd ccd1 123e 26c2 85bd
000002b0: cbbc a8bd fa02 983c 7e95 87bc 7da7 183d
000002c0: 0701 a5bc a488 68bd bc58 8e3c 3baa aa3c
000002d0: 65ab 353c 3ac0 a43c 077e 9fbd 93eb b83c
000002e0: 5dd2 cdbd b68a 2fbe e79d 513d 2ad4 853d
000002f0: a546 b53d 1ae7 84bd 40cf ff3c 7738 0dbc
00000300: 4a20 41bd 12c8 e83b 9ab7 85bd 55cb 533d
00000310: 4d09 b23d 4b79 023e a9b2 67bd 2233 71bd
00000320: 9ce0 e53d 3c5e 96bd a8e3 2cbe 587e 643c
00000330: b075 b9bd 5c5c 5abe 34b4 04be 8c00 a53b
00000340: 9848 5e3d 10a1 b0bb be0d fabb 58ff a2bd
00000350: 0298 5a3c 2989 e93a 987d 71be 900f 14bd
00000360: f2f6 12be 5e98 ecbc 7200 cd3c 7f54 47be
00000370: eadf a03d 8177 c33d a8e0 ba3d caff 85bd
00000380: a41c 9d3c 1d98 1cbe 3d4c 87bd 6b10 3dbd
00000390: 4039 45bb 7951 343d ccc9 233e 04f6 993d
000003a0: 377c 7e3d e0a1 da3d c8b1 0d3d 83d6 11be
000003b0: b4d0 58bd 90fb 4cbe ff5b 8c3b 679e 1dbe
000003c0: 5c12 2ebb d943 4bbd 7bf6 083e 4444 88bb
000003d0: e6bd 603c aad0 083e ed2a 1dbe aa98 343d
000003e0: e69b b9bd aa1d eebd c026 2dbe 48d1 e93c
000003f0: 59de 02bd b35b 8bbd 331a 5cbc 26aa 32bd
-0.0075441157 0.046538007 -0.013303712 0.1370046 0.113134615 -0.100049 -0.057649944 0.03512249
-0.046745986 0.099775374 0.089292355 0.15354334 0.033792403 0.10281354 0.13165629 0.027953468
0.05224631 0.01624235 -0.12682958 -0.12586193 -0.16789345 -0.064768225 0.07160005 0.022567913
-0.013703752 0.12590116 0.09024364 0.04346159 -0.015048047 0.061743908 0.00496592 -0.085552454
-0.012785285 -0.08711753 -0.0064934962 0.01925385 0.12787905 -0.066130705 -0.091251545 0.09811469
0.058803596 0.12905164 0.0660417 -0.2257519 -0.121889405 -0.06793912 -0.07379973 0.033837933
-0.027176246 -0.23689605 0.13052855 0.016693925 -0.010279445 0.038401216 -0.0709403 0.011942833
-0.039000943 -0.094829194 0.03301173 -0.064744405 0.10438192 0.058514986 -0.041540734 0.10393032
-0.011766057 0.0020941335 -0.016925232 -0.05613495 -0.09454557 -0.038040385 0.010857146 -0.076792635
-0.1510655 -0.02161748 -0.07518651 0.100141846 -0.12021598 0.036202956 0.017093208 0.11260998
0.0346844 0.046606414 -0.013649132 -0.0042238883 0.009100933 0.062518924 0.09017857 0.12804064
-0.09332778 0.021820607 -0.06078655 0.01156363 -0.17717382 -0.063058 -0.035055295 0.0476945
0.014225891 -0.15314798 -0.013008074 -0.03306708 -0.12461932 0.08904888 -0.178427 -0.116888426
-0.06484733 -0.037528664 -0.13290375 0.0481722 0.22867587 -0.0024578632 -0.006358194 -0.14834523
-0.078223616 0.21222587 0.031705607 -0.09927829 0.0061647505 -0.12037961 0.029531525 -0.18549027
0.08223934 -0.07248211 0.04418376 0.07321218 0.06919917 0.025483487 -0.16391413 -0.09752057
0.060169145 0.030096997 -0.039206468 -0.10707326 0.05805526 0.122248314 0.008874113 -0.106675364
0.15242611 0.1834616 -0.08260863 0.1851198 -0.05931316 -0.11153075 0.1001551 0.1162763
0.017768016 -0.07041085 -0.14117613 -0.08153996 -0.095209196 -0.0016157897 -0.047292106 0.053857356
0.06773461 0.128933 -0.040141683 -0.064381234 0.050763994 -0.13658452 -0.14569895 -0.036576867
-0.08667114 -0.040617067 -0.1461603 0.025503578 0.019261274 -0.0030614987 -0.08023598 -0.09659177
-0.018602371 -0.060418673 0.14337844 -0.065311715 -0.082391344 0.018556107 -0.016550776 0.037269104
-0.020142091 -0.056770936 0.017376296 0.020833125 0.011088227 0.020111192 -0.0778771 0.022573268
-0.10049889 -0.17142758 0.051175978 0.06534608 0.08851365 -0.064893916 0.031226754 -0.008619419
-0.047149934 0.0071039284 -0.0652916 0.051707584 0.0869318 0.12741582 -0.056566868 -0.058886655
0.112244815 -0.073421925 -0.16883719 0.013946138 -0.0905565 -0.21324295 -0.12959367 0.0050354656
0.05426845 -0.005390294 -0.0076310327 -0.07958859 0.013341906 0.0017817366 -0.23583066 -0.036147654
-0.14352015 -0.028881248 0.025024626 -0.19465826 0.07855208 0.09544278 0.09124881 -0.065429285
0.019178696 -0.15292402 -0.06606338 -0.046158236 -0.0030093938 0.04402301 0.15994948 0.07517627
0.06213018 0.106754065 0.034593374 -0.14241986 -0.05293341 -0.20017838 0.0042834277 -0.15392457
-0.0026561236 -0.04962525 0.13375275 -0.0041585285 0.01371715 0.13360849 -0.15348406 0.044090904
-0.090629384 -0.11626752 -0.16909313 0.028542176 -0.03195033 -0.068045996 -0.013433981 -0.043619297

bias f4 [128]
00000000: 07f5 d73c b832 b63b b555 4e3c 5050 cdbc
00000010: 41d9 d43c cf04 d9bc 2f02 213d 7476 0bbd
00000020: 988b e1bc 97a6 cbbc 6c3c bd3c 484c c6bc
00000030: 653d 05bd b3c3 dd3c 9cec f83c dfbc e0bc
00000040: da86 8e3a 27a6 88bb 22d2 213c 25ba cabc
00000050: 87c1 9f3c b8b5 f5bc 8c55 aa3c 1a5a 123d
00000060: 1e4f a7bc f4f9 db3c 0c2e dfbb d0f3 a3bc
00000070: eff4 b23c c4ee 863c 723f d4bc d230 0c3d
00000080: cf87 f43c dc50 013c 95e7 f5bc a223 64bc
00000090: a7c4 d5bc ae20 0bbd e7b9 173c 39be 56bc
000000a0: 0bf0 e53c 987a 11bc 7fc2 c1bc 6627 cebc
000000b0: e123 b43c 1976 cf3b afd6 133d 51bb 603c
000000c0: 8fe6 08bd 3d57 84bc f3dd e6b9 39cc 9bbc
000000d0: 2906 febc 9b21 873c 2183 d9bc 2b8b 0dbd
000000e0: 891b 9f3c 8c7b 353c ee15 df3c 4259 0bbd
000000f0: 33c3 493c 3f71 953c d327 dc3c 74f7 e93c
00000100: e42c aebc ee4d aebc 7db9 d83c c0b4 5bbc
00000110: 82d8 323c 9e05 f9bc e473 11bd c979 c63c
00000120: b11c f6bc 855d e33c 89ae db3c 1ff5 653c
00000130: 1d76 473c 11f9 d2bb d70c 893c 784e 0f3d
00000140: f612 74bb 242d a8bc 4f1a 38bb 8d47 c7bc
00000150: 38e5 c0bc b562 0db9 4a08 95bc 944c c33b
00000160: e033 8abc 3b05 6f3c f6b4 c3bc 411d 6ebc
00000170: a111 d43c db7f c13c e225 9039 ba5a 05bd
00000180: cd22 b23c b774 c1bc 5452 843c 2ef1 bdbc
00000190: 9413 f2bc 24d7 cc3c 3a1d fd3c 2e06 113d
000001a0: 2520 c93c 5fb8 e8bc 7535 06bd 2da1 dcbc
000001b0: d85e b53c a859 0dbd 7096 af3b 4306 5a3c
000001c0: 6e8b 6e3b 543e aebc 9345 8ebc ea57 e8bc
000001d0: c519 0fbd 9b2d 203c fc8a 0ebd 5003 b6bc
000001e0: f0d3 f63c e0b8 073d 1ed2 b8bc d8df 953c
000001f0: ff11 cd3c ac77 13bd ba6d f4bb f4bf 92bc
0.026361955 0.0055602454 0.012593676 -0.02506271 0.025982501 -0.02649155 0.039308723 -0.034048513
-0.027532384 -0.02485971 0.0231001 -0.024206296 -0.032529254 0.027070856 0.030386262 -0.02743381
0.0010873929 -0.0041701975 0.00987676 -0.024746964 0.01950146 -0.029993877 0.020792745 0.03573046
-0.020423468 0.026852585 -0.006810909 -0.02001372 0.021845309 0.016471274 -0.02590916 0.034226246
0.029849915 0.0078928135 -0.030017653 -0.013924511 -0.026094748 -0.033966713 0.009260631 -0.013106876
0.028068563 -0.008879326 -0.023652313 -0.025165271 0.021989765 0.006331217 0.03609341 0.013716535
-0.033423003 -0.01615488 -0.00044034384 -0.01901828 -0.031008797 0.016495517 -0.026551785 -0.03455655
0.01942231 0.011076819 0.027232137 -0.03402067 0.0123146055 0.018242477 0.026874458 0.028560378
-0.02126164 -0.021277394 0.026455635 -0.013409793 0.010915877 -0.030398186 -0.035510913 0.024227994
-0.030042978 0.027754555 0.026816623 0.014035492 0.0121741565 -0.0064383824 0.016729755 0.034986943
-0.0037242747 -0.020529337 -0.0028091853 -0.02432611 -0.0235468 -0.00013483579 -0.01819243 0.0059600566
-0.016870439 0.014588649 -0.02389 -0.014533342 0.025887312 0.023620537 0.00027494045 -0.032557227
0.02174511 -0.023615224 0.016152538 -0.023186292 -0.029550351 0.02500493 0.030897725 0.035406284
0.02455146 -0.028408227 -0.032765824 -0.026932323 0.022139952 -0.03450933 0.0053585097 0.013307157
0.0036399025 -0.021269955 -0.01736716 -0.028362233 -0.034936685 0.009776498 -0.034800515 -0.022218376
0.030130357 0.033135295 -0.02256113 0.018295214 0.025032995 -0.0360028 -0.0074593695 -0.017913796

weight f4 [128, 128]
00000000: 1ebb e33c 263f f13d bd6c 64bc 3583 8a3d
00000010: e7b3 963d a406 d0bd a3ec 053e 784c 53be
00000020: 914a 76bd 8d26 143d 1f2f dd3d 0342 7fbd
00000030: 8020 48be aee3 92bd 66f4 f33d dcdf ecbc
00000040: 1e98 ee3d b69b fcbb c4cd 603d 54e4 30bd
00000050: d2e1 aabd 653d 9d3d 7cb9 93bd 8963 113d
00000060: a7f9 903d 7220 cf3d 952f 8a3d 129f 673c
00000070: 3d1e 0a3d b7c6 aebd 18d1 a8bd 4ba7 d03d
00000080: e533 093d 8b54 a63d c200 363d 646d 23be
00000090: 23d9 c5bd 3ab0 9dbd d6bb 80bd 2a8b 923d
000000a0: d1e9 a23d e041 a1bd e81d 953d a2e4 113e
000000b0: f7d3 943c 84eb 003e 273b 5f3c 2800 e93d
000000c0: 706e 67bd ee9a 7739 90b7 a53d b8ef bfbd
000000d0: f184 d33c 5593 643b d3d5 b3bc 7b9f 9b3d
000000e0: 82a4 c93d 05ba 073c e2e0 63bd 1a5b cfbd
000000f0: 50a0 abb8 f013 93bb d2de dcb9 5e36 c3bd
00000100: 99a6 b13d 401f 09be 0811 433e 019a c0bd
00000110: 4e6c a93c 3a4f 91bd 4309 d0bd f056 c9bd
00000120: 5651 d9bd 6551 73bb 9a09 cbbc 2e05 c1bd
00000130: ec53 213d 2d71 b6bd bdc3 173e bfcd e63c
00000140: dff1 a6bd 58f1 1bbb 66d1 a63e 6375 7cbc
00000150: 3480 953d a21a 85bd 59d9 32bb b1fe 1d3e
00000160: d9d4 acbd 4058 ce3b efc9 0bbb f9c6 96bc
00000170: eaeb 213e 2ab7 9cbc bec5 113e ef4e bf3d
00000180: 5a6f 16be de68 c93d 70c4 0a3d 3d91 07be
00000190: 7f05 473c e617 8cbc 8490 3ebe 67e2 42bc
000001a0: 7e98 453e 287e 6a3d 7485 42bd 5c67 3fb9
000001b0: b65e 02bc 405a ad3c 0f3a e43d 3e8f 36bd
000001c0: 2e2f d6bd 349c cc3c 9636 d2bc aa98 a1bd
000001d0: 6583 27be 8dc9 743d 2935 85bc 536a 2ebe
000001e0: 8104 323c 918a 20bd 4e88 913c 53f1 943d
000001f0: e35c c5bc adda 33be 45e7 c3b9 d1a3 16be
00000200: e872 d4bd 873c 203d 6a7f 00be 476b c8bd
00000210: fccf e6bc 064a e1bc de68 adbd aa17 073e
00000220: 0206 aebc 48cc 4dbc f364 bc3c 251a 62bd
00000230: ef7d 103e d439 15be 016c 553a c204 773d
00000240: 9dd4 ed3d d979 c23c c37a b1bd dd06 923e
00000250: 70f4 88be 5222 473d 62d0 ba3d 3fbc 033d
00000260: cca6 0fbd 0ddb 91bd adfc 1a3d 35b9 c5bc
00000270: 2b54 fc3d 7a65 c7bd ec77 863d 6325 2fba
00000280: 6f1b 56bd e414 433d 7685 8a3c bad6 0e3e
00000290: 383b c7bc 3c8f bf3d 2d44 7abd 8114 83bd
000002a0: 25cb 143e 5d3b 0dbb 03a8 dbbb 6fcf a93d
000002b0: 8213 fabc 38ae 2d3d 08bb 393d 45b3 1e3d
000002c0: 8991 223e 3199 7cbd cbae 55bc ad5b d03d
000002d0: 4154 803d 0c8d c4bd da2e ac3d 3c30 b93d
000002e0: d3e1 19bd 349f 6e3d 10f6 41be c673 10bc
000002f0: 895a 0e3e 9446 013e 836d 263d 9445 acbd
00000300: cd46 b1bd 17f2 ca3d 5a97 3c3c 45b0 d9bc
00000310: 9b08 a3bd e4fb 0b3e be91 0cbd 318b 9dbd
00000320: afb7 9abc 00bc 47bd 8ee3 bfbd 2021 71be
00000330: ad1d febc 06d4 e63d 3447 4ebd af07 f5bc
00000340: 4f68 b23d eeb5 36bd 14e8 523d 8b7e 813b
00000350: 8f0a 9f3d 1ce4 f8bd 8a93 d73d 13e6 2dbd
00000360: 930e 0abe e265 74bc c124 6dbc c6e7 223c
00000370: 99c4 8cbd 506f 6f3d 614c 52bd 1393 8cba
00000380: e684 1dbe 76ef 01be 2d56 003d ab75 233c
00000390: 5ee1 023c ed83 b13d 9027 f0bd fb75 6c3d
000003a0: 3351 c8bd 9353 85bc 29cf 1a3d 9d7d 223e
000003b0: 0620 9ebd 6811 a03d 5dbd 35be 13ec 92bd
000003c0: 1bf5 843d 9382 34be ad13 a5bd 1b6c 083e
000003d0: 563c a33c f493 28bc 7ca9 2d3e d5bf 023e
000003e0: 211b f0bc 0366 2c3e d4bf a93c d719 cd3d
000003f0: f76d 3abd 0e53 493b ed69 d83c ff08 ed3c
0.027799185 0.11779623 -0.013941941 0.06763307 0.073585324 -0.101575166 0.13078551 -0.2063464
-0.060129706 0.036169577 0.10800003 -0.062318813 -0.19543648 -0.07172333 0.1191185 -0.028915338
0.11650108 -0.007708992 0.054883733 -0.0431865 -0.08343853 0.07677726 -0.07213113 0.035495315
0.070788674 0.1011361 0.06747357 0.014137046 0.033720244 -0.085339956 -0.082430065 0.101881586
0.033496756 0.08121594 0.044434316 -0.15959698 -0.09660556 -0.07699628 -0.06285827 0.0715545
0.07954753 -0.07873893 0.07281095 0.14247373 0.018167479 0.12589842 0.013624943 0.11376983
-0.056501806 0.00023613471 0.080916524 -0.093718946 0.025820227 0.0034877856 -0.021952545 0.07598778
0.098458305 0.008284097 -0.055634387 -0.10124798 -8.183776e-05 -0.0044884607 -0.00042127684 -0.09531854
0.08674354 -0.13390827 0.19049466 -0.09404374 0.020681527 -0.070951894 -0.101580165 -0.09831035
-0.10611217 -0.0037127372 -0.024784852 -0.09424816 0.039386675 -0.08908305 0.14820762 0.02817428
-0.08151602 -0.0023794975 0.32581633 -0.015408847 0.072998434 -0.064992204 -0.0027290194 0.15429188
-0.08439035 0.0062971413 -0.0021330079 -0.018405424 0.1581265 -0.019130308 0.14235589 0.09341227
-0.14690915 0.09834455 0.033878744 -0.13238998 0.012147306 -0.01710124 -0.18609816 -0.011894799
0.19296452 0.05724922 -0.047490552 -0.00018253684 -0.007957151 0.021161199 0.11143886 -0.0445702
-0.104582176 0.024976827 -0.025660794 -0.078904465 -0.16358717 0.059762526 -0.0162607 -0.17032747
0.010865332 -0.039194647 0.01776519 0.072725914 -0.024092143 -0.17563887 -0.00037365608 -0.14710928
-0.10373479 0.039120223 -0.12548605 -0.097860865 -0.028175347 -0.027501117 -0.084672675 0.13192621
-0.0212431 -0.0125609115 0.022997355 -0.055200715 0.1411054 -0.14572841 0.0008141399 0.06030727
0.116128184 0.023739742 -0.08665993 0.2852086 -0.2674899 0.048616715 0.09121777 0.032161947
-0.03507118 -0.07121859 0.037838627 -0.024136165 0.12320741 -0.09736152 0.06565842 -0.0006681291
-0.052272256 0.047627345 0.016909342 0.13949099 -0.02432023 0.09353492 -0.061100174 -0.06400395
0.14530618 -0.0021550276 -0.006703378 0.08291518 -0.03052688 0.042402476 0.045344383 0.038745183
0.1587583 -0.061669532 -0.013042162 0.10173736 0.0626607 -0.09597215 0.08407374 0.09042403
-0.03756888 0.058257297 -0.18941522 -0.008816665 0.13901724 0.1262458 0.040631782 -0.084117085
-0.08656082 0.09909456 0.011510694 -0.02657331 -0.07960626 0.13670307 -0.034318678 -0.07692564
-0.018886415 -0.048763275 -0.093695745 -0.23547792 -0.03102001 0.11270909 -0.050360873 -0.02991089
0.087113015 -0.044607095 0.05149086 0.0039518527 0.07765686 -0.121528834 0.10526188 -0.042455744
-0.13482122 -0.014916869 -0.014474095 0.009942954 -0.068734355 0.058455765 -0.05134237 -0.0010724984
-0.15382728 -0.12689003 0.031332184 0.009976785 0.007988302 0.08667741 -0.11726296 0.057729702
-0.097811125 -0.016275203 0.03779522 0.1586823 -0.07720952 0.0781582 -0.17748018 -0.07173934
0.06492063 -0.17627935 -0.080603935 0.13322489 0.019926231 -0.010289181 0.16959184 0.1276849
-0.029309811 0.1683579 0.020721354 0.10014694 -0.045515027 0.003071967 0.026417697 0.028934954

bias f4 [128]
00000000: 3c56 ad3c 750c 9ebc f975 0abd 216e b9bc
00000010: ce71 bebc b8af b13c 2419 b13c 440e 02bd
00000020: 001e fb3c 95d7 023d afbb 9fbc 3be1 edbc
00000030: 9049 b23c e5fe b7bc 2c2f 0fbd db7c 953c
00000040: fa45 0c3d c447 73bc 7d05 9d3c aca6 dc3c
00000050: 476a de3c 1d3c b63c 0965 b03c 55ba d1bc
00000060: 1fd6 f53c d136 babc 4115 91bc 6200 b23c
00000070: 2b34 a13c 52cb 97bc 63c1 0e3d 2e57 bbbc
00000080: 6dfb 133d f1ff b7bc ae0d c03c aa3d c9bc
00000090: 5d3a e8bc fbb2 be3c b55d c2bc 6c2a dc3c
000000a0: c0f2 01bd d38e fcbc 38ae b0bc 6609 b33c
000000b0: 729c ad3c f249 9dbc 9bfe f63c 5b72 f1bc
000000c0: 74b8 a63c ff42 f23c 2dbc 8ebc 26fd f0bc
000000d0: 25ef b3bc d441 a63c aedb a9bc 7901 983c
000000e0: 3f60 ae3c 0627 8c3c 7639 a7bc 62c2 bbbc
000000f0: 0b6a 12bd 5ce3 ea3c 2889 a1bc 3453 dbbc
00000100: 7bf7 ebbc 859b ecbc 3848 f3bc e737 013d
00000110: 8310 dc3c 3538 103d 5f63 523c 1315 b93c
00000120: d37a 793c 9d02 ff3c 3d46 1abd a346 c1bc
00000130: c1a2 8ebc 06fb 92bc 0c51 0cbd 1c00 953c
00000140: a7cc ce3c 87d8 10bd c42e a9bc c68f cdbc
00000150: c446 f23c 5420 b1bc f25d da3c 0509 df3c
00000160: b415 b63c ce1c bdbc c13b 683c 5b59 c63c
00000170: 2a04 c6bc 3f88 9cbc 6906 c33c 86b7 24bd
00000180: 2ded bbbc 269a 73bc 0743 23bc d54c d4bc
00000190: 09b5 cdbc 7eb8 b1bc 4227 19bd fcc7 ebbc
000001a0: bda0 ddbc 0063 073d 5538 ddbc c06a 9f3c
000001b0: c87d f43c 20b0 f9bc 7c8a dbbc 153b d0bc
000001c0: bf7d ce3c 83e5 02bd eacf de3c ef5d d5bc
000001d0: 841a fabc c9aa 8ebc 49cb d3bc c72a ef3c
000001e0: 966e e5bc 8a4c b33c 5c04 be3c 00f1 f7bc
000001f0: eccb ae3c e9ce cdbc 6320 9b3c 4cf4 ec3c
0.021159284 -0.01929305 -0.033803914 -0.022635521 -0.023247626 0.021690235 0.021618433 -0.031751886
0.030653954 0.031943876 -0.019498674 -0.029038062 0.021763593 -0.02246041 -0.034957096 0.018248012
0.034246422 -0.014848653 0.019167656 0.026934944 0.027150286 0.022245461 0.021532552 -0.025601545
0.030009327 -0.022731217 -0.01771033 0.021728698 0.019678196 -0.018529568 0.034852397 -0.022868719
0.03612845 -0.02246091 0.023444023 -0.024565537 -0.028348142 0.023278704 -0.023726324 0.026875697
-0.031725645 -0.030829823 -0.021567449 0.021855067 0.021192763 -0.019200299 0.030150702 -0.029473474
0.020351626 0.029572962 -0.017423714 -0.029417586 -0.021964619 0.020295061 -0.020734634 0.01855539
0.021286128 0.017108452 -0.020413142 -0.022919837 -0.03574566 0.028672867 -0.019718722 -0.026773073
-0.028804531 -0.028882751 -0.029697523 0.031547453 0.026863342 0.035209853 0.012841075 0.022593057
0.0152270375 0.031129176 -0.03766464 -0.023593253 -0.017411591 -0.017941963 -0.03425698 0.018188529
0.02524407 -0.035362747 -0.020652182 -0.02509297 0.02957476 -0.02162186 0.026656125 0.02722598
0.022227146 -0.023085024 0.014174403 0.02421253 -0.024171907 -0.019107936 0.023806768 -0.040214084
-0.022940243 -0.014868295 -0.009964711 -0.025915543 -0.025110738 -0.021694418 -0.037390955 -0.028781883
-0.027054185 0.033053398 -0.0270044 0.019460082 0.029845133 -0.03047949 -0.026799433 -0.025418798
0.025206445 -0.03195716 0.02719875 -0.026045768 -0.030530222 -0.017415421 -0.02585377 0.029195203
-0.028006833 0.021887083 0.023195438 -0.030266285 0.021337472 -0.025123077 0.018936342 0.028925084

weight f4 [1, 128]
00000000: 38a1 b7bd dcb0 223e 63cd 913d 840f e13d
00000010: 2618 f43d 911c f1bd 515e f2bd 577c ff3d
00000020: 192e 9ebd ad99 0ebe d165 623e d340 183e
00000030: 199a d7bd 0678 2d3e 7e2a 203e 3a8a 3cbe
00000040: 0ca6 00be c36c 813e 9325 e1bd a33c 07be
00000050: 599d 9fbd 169f 65be 1f4e 25be 0d3e 5d3e
00000060: 49af abbd 7171 113e 9bc8 473e d13d 7cbe
00000070: b4d1 2abe 29cc 353e c88b 8bbd 3be8 713e
00000080: a691 fcbd af9f 113e 1f77 65be 823f b93d
00000090: c085 6f3e 2385 b9bd e61a 0d3e 6038 02be
000000a0: fd66 c23d f201 cc3d 3983 123e f435 f2bd
000000b0: b57f 18be 4262 223e 5c1a d0bd 0259 f63d
000000c0: d0eb eebd 9309 04be 50e0 723e 63b0 953d
000000d0: 2414 393e 51cb ddbd 17b2 1a3e 00fb 2fbe
000000e0: 692a 30be 36cd 69be d773 2e3e 79b5 433e
000000f0: d8c7 c13d 9988 38be 9581 9d3e 6942 b73d
00000100: 586e 003e b915 073e db5f cb3d e477 d5bd
00000110: 8a31 d7bd 5dff 83bd 4f80 1abe 0b2a 2ebe
00000120: 616f 19be 625d 9abd f70a 803d 3c44 d63d
00000130: 5a24 203e 961b 823e 8d88 993d 82a8 ebbd
00000140: b6b4 8dbd 83f5 913d a7d6 f73d ecbe e13d
00000150: 44cb acbd c0ac 0c3e 4bcc 97bd 06e6 92bd
00000160: 1508 febd 9e0c 233e 3835 5fbd e3cc 32be
00000170: df9f c93d e1b2 ca3d 3684 44be 6f4c c03d
00000180: a8ce 1a3e 36ba 1a3e 64fd 5a3d 9bcf 983d
00000190: 2caf f23d 1bb7 923e fbcb b23d 250e 053e
000001a0: 7739 d23d 56e5 31be ed2d cd3d e035 62be
000001b0: fc9d 04be 877a 823d a74d f93d eb87 c63d
000001c0: 5cc7 b8bd 551d ae3d a7f5 a9bd 22c0 a13d
000001d0: 63d9 ae3d 307a 043e 77ff 993d 75f1 efbd
000001e0: 7067 b93d af3d 17be 7ddc 34be c800 c83d
000001f0: 2264 0ebe 5768 a53d 1775 57be 37d3 17be
-0.08966297 0.15887779 0.071192525 0.109892875 0.119186684 -0.11773027 -0.11834396 0.12474888
-0.07723636 -0.1392581 0.22109152 0.14868478 -0.10527439 0.16940317 0.1564121 -0.18412104
-0.12563342 0.2527829 -0.10993495 -0.13206725 -0.077936836 -0.22423968 -0.16143082 0.21605702
-0.08383042 0.1420343 0.19510119 -0.24632956 -0.16681558 0.17753662 -0.068137705 0.23623745
-0.12332468 0.1422107 -0.22408722 0.09045316 0.23390865 -0.09058597 0.13779792 -0.12716818
0.094923 0.099613085 0.1430787 -0.11826697 -0.14892466 0.15857795 -0.10161278 0.12028696
-0.116660714 -0.12894277 0.23718381 0.07309034 0.1807409 -0.10829795 0.15106998 -0.17185593
-0.17203678 -0.22832188 0.17036377 0.19112195 0.09461945 -0.18020858 0.30762926 0.089482136
0.12542093 0.1319188 0.09930392 -0.10423258 -0.10507496 -0.06445191 -0.15088008 -0.17008226
-0.14983894 -0.075373426 0.062520914 0.104622334 0.15638867 0.2541167 0.07496748 -0.1150675
-0.069192335 0.07126906 0.121014886 0.110227436 -0.08437207 0.13737774 -0.07412013 -0.0717278
-0.12403885 0.15922782 -0.054494113 -0.1746097 0.09844946 0.098974 -0.1919106 0.093895786
0.15117896 0.15110096 0.05346431 0.074614726 0.11849818 0.28655323 0.087303124 0.12993677
0.10264867 -0.17372641 0.10018525 -0.22090864 -0.12950891 0.063710265 0.12173014 0.09693893
-0.090224 0.085016884 -0.082988076 0.078979746 0.08537557 0.12937236 0.07519429 -0.11715976
0.09052932 -0.14769624 -0.17662235 0.09765774 -0.13905385 0.08076542 -0.2104076 -0.14826666
