RL/PPO_agent_model.pt (torch, 72407 bytes, 6 tensors)

weight f4 [128, 4]
0	0x3d8e7c54	0.069573075
1	0xbcaf8e06	-0.021430027
2	0xbcd53a37	-0.026028736
3	0x3db37a82	0.08763601
4	0x3dc2fc9f	0.0952084
5	0xbc905ffc	-0.017623894
6	0x3dab8a70	0.08376014
7	0xbd35833d	-0.04431461
8	0xbda128ac	-0.07869086
9	0x3df9239d	0.12164996
10	0x3d18d93f	0.037316557
11	0xbe19f0ac	-0.15033215
12	0x3d1d9b41	0.03847814
13	0x3b61c72f	0.0034450998
14	0x3cc054c6	0.023477923
15	0x3e310479	0.17286862
16	0xbdf4460e	-0.11927424
17	0xbdbe5e5a	-0.0929534
18	0x3d58c823	0.05292524
19	0x3cdc7878	0.026912913
20	0x3e083216	0.13300356
21	0xba905ef9	-0.0011014632
22	0x3dfaaef4	0.12240401
23	0xbda4c2a1	-0.08044935
24	0xba9d41aa	-0.0011997719
25	0x3d8d10ae	0.06887947
26	0xbe30a7fa	-0.17251578
27	0xbcf12d11	-0.029440435
28	0x3de13736	0.10996859
29	0xbd2689e7	-0.040658858
30	0xbe10d59d	-0.14143987
31	0xbd53ff16	-0.05175694
32	0x3dce6f17	0.100797825
33	0x3da7d1e1	0.08194328
34	0xbd7ff3f3	-0.062488507
35	0xbd9cd618	-0.07658023
36	0xbc9110d4	-0.01770822
37	0xbc912784	-0.017719038
38	0xbd3a2e5a	-0.04545436
39	0x3ddf0fa2	0.108916536
40	0xbd279871	-0.040916864
41	0x3e259940	0.16171741
42	0xbd9228a3	-0.07136657
43	0xbc08d671	-0.008351908
44	0x3ba14fc1	0.0049228375
45	0xbd3999d3	-0.045312714
46	0x3dc2d724	0.09513691
47	0x3e0d953a	0.13826457
48	0xbe3c0400	-0.18360901
49	0xbdd47e18	-0.10375613
50	0x3d0e0ab5	0.03467818
51	0xbcd0e2f3	-0.025498843
52	0xbe1148e3	-0.1418796
53	0x3e130c66	0.14360198
54	0x3e1ba148	0.15198243
55	0x3d2eee0c	0.042707488
56	0x3cfa3b0f	0.03054574
57	0xbd484966	-0.048898123
58	0xbddcb4be	-0.10776661
59	0x3d66fbba	0.05639241
60	0xbd97053b	-0.073740445
61	0xbc8cb884	-0.017177828
62	0xbc4727e9	-0.012155511
63	0x3d4baca1	0.04972518
64	0xbd8657d8	-0.065597236
65	0xbd87c16f	-0.066286914
66	0xbd52d0c3	-0.051468622
67	0x3d20e635	0.039282043
68	0xbc2b3317	-0.0104491925
69	0xbd9392d5	-0.0720574
70	0x3da708e0	0.0815599
71	0xbd1286cb	-0.03577308
72	0xbe30c2dd	-0.17261834
73	0x3cbf32fc	0.023339741
74	0xbdb18667	-0.08668213
75	0x3d917389	0.07102115
76	0xbe31adb9	-0.17351426
77	0xbdbe2590	-0.09284508
78	0x3df5a76a	0.11994822
79	0xbc34cf09	-0.011035689
80	0xbdbb6d39	-0.09151692
81	0x3e16b6d1	0.14718176
82	0x3d88c409	0.06678016
83	0xbca464fa	-0.02006768
84	0x3dc4a7ce	0.09602319
85	0x3d815af3	0.06316175
86	0x3dda6a81	0.10664845
87	0xbe04fd66	-0.12987289
88	0x3dee44ad	0.116341926
89	0xbe48bac9	-0.19602503
90	0xbc0894f7	-0.008336297
91	0xbcbc5848	-0.022991315
92	0xbde1be27	-0.11022597
93	0x3d84f79a	0.06492539
94	0xbd5b46a1	-0.053534154
95	0x3e14c823	0.14529471
96	0x3d8268c6	0.0636764
97	0xbd87fde0	-0.0664022
98	0x3d649989	0.055810485
99	0xbba7f462	-0.0051255682
100	0x3d9fcd82	0.078028694
101	0x39832ed7	0.00025021165
102	0xbb62695a	-0.0034547658
103	0xbe5204b5	-0.20509608
104	0x3e011eed	0.12609453
105	0x3e20dbd6	0.15708861
106	0xbd3c4477	-0.04596373
107	0x3d1ac7fa	0.03778837
108	0x3d291575	0.04128023
109	0xbba4e68e	-0.005032367
110	0x3d6e2662	0.058142073
111	0xbda69241	-0.081333645
112	0x3c245b0c	0.010031473
113	0xbd266ae6	-0.04062929
114	0xbd41503c	-0.047195658
115	0x3bed49f5	0.0072414824
116	0xbdaa31d2	-0.08310284
117	0x3dd0e765	0.10200385
118	0x3bc3cdfa	0.005975482
119	0x3d09e6ef	0.0336675
120	0x3d154783	0.036445152
121	0x3d411988	0.04714349
122	0xbdd3f533	-0.103495024
123	0xbd487752	-0.048941918
124	0x3d8976bf	0.06712102
125	0xbe25e8c5	-0.16202076
126	0x3cc3686d	0.023853505
127	0x3daf308d	0.08554182
128	0x3d10509b	0.03523312
129	0xbe0f3fe4	-0.13989216
130	0xbe0547e1	-0.13015701
131	0xbe1d174c	-0.15340918
132	0xbdb839a6	-0.089953706
133	0x3c64f7ba	0.013975078
134	0x3e2f06dd	0.17092462
135	0xbd9ee5bf	-0.07758664
136	0x3db8953d	0.0901284
137	0x3dace3bc	0.084418744
138	0x3df92463	0.12165143
139	0x3cc012ad	0.023446405
140	0x3cb75ae7	0.022382213
141	0x3d9ff25a	0.07809897
142	0xbc56935e	-0.0130966585
143	0x3d82bf8e	0.063841924
144	0x3dd13188	0.102145255
145	0xbbba78cc	-0.0056906696
146	0x3d34d547	0.04414871
147	0x3d3b5519	0.045735452
148	0x3dce55ab	0.100749336
149	0x3d3780a0	0.0448004
150	0x3bdc54d3	0.006723979
151	0xbd3d4306	-0.046206497
152	0xbdc89c39	-0.09795422
153	0x3c09705f	0.008388608
154	0x3d036e22	0.032087453
155	0xbe4ff859	-0.20309581
156	0xbdddad3a	-0.10824056
157	0x3cc5463b	0.02408134
158	0x3e1b72d7	0.15180527
159	0xbc9aa838	-0.018879041
160	0xbd3cff51	-0.046141926
161	0xbc88b808	-0.016689315
162	0xbe31be7c	-0.1735782
163	0xbd43c6b2	-0.047796912
164	0xbd896fcc	-0.06710777
165	0xbdecdf48	-0.11566025
166	0xbd31c40f	-0.043399867
167	0xbde3c537	-0.111216
168	0xbd8ba87a	-0.06819244
169	0xbdd2f4a7	-0.1030057
170	0xbdb5ff00	-0.08886528
171	0x3da0220c	0.07818994
172	0xbdc04216	-0.09387605
173	0xbd3d43e6	-0.04620733
174	0xbd27229f	-0.0408045
175	0xbc94c9cd	-0.018162632
176	0x3d7b00c5	0.06128003
177	0x3931acdd	0.00016944432
178	0xbd1b45cd	-0.037908364
179	0x3df78f9f	0.120879404
180	0x3d647f9d	0.055785764
181	0x3def348f	0.11679947
182	0x3d20b1e3	0.039232146
183	0x3cd8d405	0.026468286
184	0xbd2066ca	-0.039160527
185	0x3d28d71d	0.041220773
186	0xbbdcc9e6	-0.0067379354
187	0xbe3ef8b3	-0.18649559
188	0xbb283d16	-0.0025671176
189	0x3daa9f10	0.0833112
190	0x3c37e14e	0.01122315
191	0xbd79634e	-0.06088572
192	0x3d86cba0	0.06581807
193	0xbd804d58	-0.06264752
194	0xba72fe65	-0.0009269475
195	0xbc52349a	-0.012829924
196	0xbda7d194	-0.08194271
197	0x3d40757b	0.046987038
198	0xbd82abc6	-0.063804194
199	0xbc2cd9ff	-0.010550021
200	0x3d2a46ea	0.041571535
201	0xbe001812	-0.12509182
202	0x3d06a847	0.032875326
203	0x3e5a4eda	0.21319142
204	0xbcde7831	-0.027156921
205	0x3e52a7b0	0.2057178
206	0xbd9d2bf2	-0.076743975
207	0xbb9b5286	-0.004740062
208	0x3d892a8f	0.066975705
209	0x3cc9be94	0.024627008
210	0x3df14cc4	0.1178222
211	0xbdc73bb8	-0.09728187
212	0xbe0185b6	-0.12648663
213	0x3e0a5ae0	0.13511229
214	0x3df7bf81	0.12097073
215	0xbcd37367	-0.025811864
216	0xbe38255d	-0.17983003
217	0xbe0e53e1	-0.13899185
218	0x3e5ad0d8	0.2136873
219	0xbce96f50	-0.02849546
220	0xbd7264d0	-0.059178174
221	0x3db26ae9	0.08711798
222	0xbc9cc3bc	-0.019136302
223	0xbd799660	-0.060934424
224	0x3dd8eb1c	0.105917186
225	0x3d29ea12	0.041482992
226	0x3d635624	0.055502072
227	0xbe0f3fe8	-0.13989222
228	0x3e1aabf7	0.15104662
229	0xbdf08811	-0.117447026
230	0xbce56176	-0.028000575
231	0x3c36d0f6	0.011158219
232	0xbd891326	-0.066931054
233	0x3ac185a8	0.0014764564
234	0x3daea184	0.085269004
235	0xbd2d702c	-0.042343304
236	0xbc950d5e	-0.01819485
237	0xbce0b206	-0.027428638
238	0xbd891e82	-0.06695272
239	0xbd8ba2ee	-0.06818186
240	0xbd0d660f	-0.03452116
241	0xbe0d2153	-0.13782243
242	0xbd9d7bfa	-0.07689662
243	0x3d13f332	0.0361206
244	0x3d827ed5	0.063718475
245	0x3de044cb	0.10950621
246	0xbc232324	-0.009957109
247	0x3d97c02c	0.07409701
248	0xbe2f6c96	-0.17131266
249	0x3d47150e	0.048604064
250	0x3db7955f	0.08964037
251	0xbceab258	-0.028649494
252	0xbe0aa125	-0.13538034
253	0xbcc2c0ec	-0.023773633
254	0x3dc9e371	0.09857834
255	0xbc301f98	-0.01074972

bias f4 [128]
0	0x3a0db20d	0.0005405255
1	0xba069e80	-0.00051353127
2	0x39e0ab4b	0.00042852233
3	0xb9f4431f	-0.00046589316
4	0x3a05fb56	0.00051109993
5	0xba08acdd	-0.0005213747
6	0x39b7dee4	0.00035070546
7	0xb9efe2c1	-0.00045754577
8	0xb9fd41b6	-0.0004830488
9	0xb99813bc	-0.00029006402
10	0xba097a75	-0.0005244383
11	0xba0e566d	-0.00054297486
12	0x39f974cf	0.0004758001
13	0xba211302	-0.0006144495
14	0xb9ec1bb7	-0.00045034077
15	0x3a091f84	0.00052308314
16	0xb9cdc23f	-0.00039245372
17	0xba00b712	-0.0004910092
18	0xba07b255	-0.0005176415
19	0x3a0079ff	0.00049009913
20	0xba232bfa	-0.00062245096
21	0xba0230e3	-0.0004966391
22	0x3a16eb07	0.00057570677
23	0x389121e0	6.9204485e-05
24	0x39b29fab	0.00034069768
25	0x39b7d395	0.0003506212
26	0x3a0c596b	0.00053539005
27	0xba0ea7c2	-0.0005441868
28	0xb9d0113e	-0.00039685698
29	0xba494a59	-0.000767862
30	0x3a06c519	0.0005141064
31	0x39f34ba4	0.00046404928
32	0x3a0ba00c	0.0005326278
33	0xba1f6e44	-0.00060817995
34	0xb97c0fdd	-0.00024038502
35	0xba04f65d	-0.00050721114
36	0xba037e35	-0.000501606
37	0xb9f84716	-0.0004735521
38	0x39e6f70a	0.00044053077
39	0xba2fd16e	-0.00067069277
40	0xba06ed78	-0.000514708
41	0xba077190	-0.00051667634
42	0xb9fc2c32	-0.00048098114
43	0xba0bf840	-0.00053394213
44	0xb9f43f23	-0.00046586347
45	0xba0f7d84	-0.00054737204
46	0x39e5b106	0.00043810176
47	0xbaa7b848	-0.0012796009
48	0x3a4d738a	0.0007837346
49	0xba071bce	-0.00051539845
50	0x39d083c1	0.00039771016
51	0x39dc27f2	0.00041991431
52	0xba1590d9	-0.0005705483
53	0xba021b1b	-0.00049631455
54	0xba188fbc	-0.0005819758
55	0xba05cc06	-0.0005103949
56	0xba3810cf	-0.00070215476
57	0xb9ebb3a1	-0.00044956527
58	0xba385cd0	-0.0007032873
59	0xb9d3e586	-0.00040416064
60	0xb9fb5a70	-0.00047941832
61	0xba05fce9	-0.0005111234
62	0xba18026a	-0.00057986996
63	0x3a00290c	0.0004888929
64	0x3a0c5455	0.00053531426
65	0x3a053e71	0.0005082852
66	0x3a01d4cc	0.00049526687
67	0x3a0d4971	0.0005389667
68	0x3a031275	0.0005000004
69	0x3a072f90	0.00051569287
70	0x3a1d21f0	0.0005994132
71	0x3a0f0040	0.00054550543
72	0xb9f8d68e	-0.00047462102
73	0xba010914	-0.0004922312
74	0xb9ecb050	-0.0004514479
75	0x39b18bc8	0.00033864216
76	0x3a09c220	0.0005255062
77	0x39f107e8	0.00045972993
78	0xb9f082b5	-0.00045873752
79	0x3a021762	0.0004962591
80	0x39ecc445	0.0004515966
81	0x3a0f7752	0.0005472797
82	0xba18f632	-0.0005835026
83	0x39e9ca08	0.00044591748
84	0x39e36806	0.00043374317
85	0xba0cec79	-0.00053758133
86	0xb99768e7	-0.00028879123
87	0xba14af8c	-0.00056719105
88	0xba004661	-0.00048933
89	0x39e4ed29	0.00043664247
90	0xba024cbe	-0.0004970542
91	0xba0822b6	-0.00051931606
92	0x3a0f3d38	0.00054641394
93	0xba160ac1	-0.00057236484
94	0x3a016b34	0.0004936934
95	0x3a16cb91	0.00057523797
96	0xba12afcf	-0.00055956555
97	0xb9ee6eb0	-0.00045477366
98	0xb9976662	-0.00028877245
99	0x3a18a469	0.0005822839
100	0xb93f62ae	-0.0001825194
101	0xb9f268e0	-0.00046235975
102	0x3a0e2b5d	0.0005423332
103	0xb95d61a5	-0.00021112578
104	0x3a03340c	0.0005005009
105	0xb9fab0b7	-0.0004781538
106	0x3a21369f	0.0006149802
107	0xb973283d	-0.00023189276
108	0x3802cc8f	3.1184925e-05
109	0x3a081aba	0.0005191971
110	0x394f1a43	0.00019750842
111	0xba1994cd	-0.000585866
112	0x3a08d3c6	0.0005219545
113	0x39fc0b8e	0.00048073794
114	0xb9f8ec38	-0.00047478243
115	0xba62d0dc	-0.00086523383
116	0xb9f3331f	-0.0004638666
117	0x39bdf345	0.0003623014
118	0xb9f6f329	-0.00047101945
119	0x39e40b09	0.0004349577
120	0xba4d8b6d	-0.00078409055
121	0x39fdee35	0.00048433398
122	0x39c2c417	0.00037148662
123	0x39c4cdcf	0.00037537373
124	0xba08f5ef	-0.0005224635
125	0x39eb5f0b	0.00044893505
126	0x3a17ffdd	0.00057983195
127	0xba1833ee	-0.0005806078

weight f4 [128, 128]
0	0x3d4bdfdf	0.049774047
1	0xbdf998f7	-0.12187379
2	0xbd98ca6b	-0.07460483
3	0xbe0ce0bc	-0.13757604
4	0x3d909ac5	0.0706077
5	0x3dc62032	0.096741095
6	0xbc8ad764	-0.01694841
7	0x3da1edbc	0.07906672
8	0xbda34c40	-0.07973528
9	0xbc78cb3b	-0.015185173
10	0x3d62a75f	0.0553354
11	0x3d646314	0.05575855
12	0xbd983317	-0.074316196
13	0x3d6c86fc	0.05774592
14	0xbdd68da6	-0.10476236
15	0xbdfd2e0b	-0.123622976
16	0xbdf55da5	-0.11980752
17	0xbdc08b69	-0.094015904
18	0x3b690e18	0.003556138
19	0x3e2124bd	0.15736671
20	0x3dc61980	0.096728325
21	0x3b95fca7	0.0045772376
22	0xbd1d6453	-0.038425755
23	0xbdba4749	-0.09095628
24	0xbe0a8896	-0.13528666
25	0xbd19c147	-0.03753784
26	0x3d1adbe0	0.037807345
27	0x3e2f0563	0.17091899
28	0x3d8cc128	0.06872779
29	0x3c028fd3	0.007968861
30	0xbe0c7a32	-0.13718489
31	0x3d1d9f4b	0.03848199
32	0xbd97d704	-0.07414058
33	0x3d33d604	0.043905273
34	0xbcdbf6f3	-0.026851153
35	0xbdb5727b	-0.08859726
36	0xbd78c17d	-0.0607314
37	0xbcb4b246	-0.022057664
38	0xbdec13bf	-0.11527204
39	0x3dd88d14	0.105737835
40	0x3d2a5f00	0.041594505
41	0x3e0d5ddc	0.13805336
42	0x3caff633	0.021479702
43	0x3e05cfa1	0.13067485
44	0x3bc3a211	0.0059702476
45	0xbd8b5edf	-0.068052046
46	0x3e1df429	0.15425171
47	0xbb8bdd09	-0.004268293
48	0x3cbbe692	0.022937093
49	0xbcf80b30	-0.030278772
50	0x3e12b35b	0.14326231
51	0x3b817304	0.0039504785
52	0xbd40346b	-0.04692499
53	0x3d6a62fd	0.05722331
54	0xbd80aa71	-0.06282509
55	0xbd402095	-0.046906073
56	0xbd803167	-0.06259423
57	0x3b17a772	0.0023140577
58	0x3e02ee49	0.12786211
59	0x3c4020a8	0.011726536
60	0xbd774ce0	-0.060376048
61	0xbb668c02	-0.0035178666
62	0xbd1a4239	-0.03766081
63	0xbd82073f	-0.06349038
64	0x3d28ddef	0.041227277
65	0x3e0ad4b3	0.13557701
66	0xbdaa4244	-0.083134204
67	0xbd2cb0f1	-0.042160932
68	0xbcecffc0	-0.028930545
69	0xbdc0a0b1	-0.094056495
70	0xbda0ea75	-0.07857219
71	0x3ced278e	0.028949525
72	0x3dedc4ad	0.116097786
73	0x3da984be	0.08277272
74	0xbd8a3276	-0.06747906
75	0xbd3c9bd1	-0.046047036
76	0x3e13aa81	0.14420511
77	0xbd5e258b	-0.054235023
78	0x3d2c7065	0.042099375
79	0xbd0e3509	-0.034718547
80	0xbdc577c8	-0.09641987
81	0xbcfc4444	-0.03079427
82	0xbd63c2e9	-0.055605803
83	0x3d6320cf	0.05545121
84	0x3d6cf49a	0.057850458
85	0x3cdedc7e	0.027204748
86	0x3d103fff	0.03521728
87	0xbb93a84f	-0.004506148
88	0x3d18163c	0.03713058
89	0xbd36e8ab	-0.044655483
90	0xbe12598a	-0.14291969
91	0x3e54ef9a	0.20794526
92	0xbdfd2c54	-0.123619705
93	0xbe14e3d4	-0.14540035
94	0xbdc654d1	-0.09684146
95	0x3d8346e8	0.06410009
96	0x3cd28fcb	0.025703331
97	0xbe11231c	-0.1417355
98	0xbd8ee374	-0.06976977
99	0xbdf419c3	-0.11918976
100	0x3e7ae3e8	0.24501002
101	0x3d82b1f8	0.06381601
102	0xbe25a4f0	-0.161762
103	0xbd64b0b2	-0.055832572
104	0xbd3d6096	-0.04623469
105	0xbc8ab92f	-0.016934006
106	0xbdcd72d6	-0.10031669
107	0xbdb4012b	-0.08789285
108	0x3d951ddd	0.072810866
109	0x3b742f54	0.0037259655
110	0x3dca1e51	0.09869064
111	0x3da93481	0.082619675
112	0xbd5879c3	-0.052850496
113	0x3d91d241	0.07120181
114	0xbe2e91fc	-0.17047876
115	0xbc6040f6	-0.013687363
116	0xbdcb49ca	-0.099261835
117	0x3e3aef6b	0.18255393
118	0xbd1cf908	-0.038323432
119	0x3e04b429	0.1295935
120	0x3db17505	0.08664898
121	0x3c8f9787	0.017528309
122	0xbd2cb427	-0.042163994
123	0x3dfa2401	0.122138985
124	0xbe056557	-0.1302694
125	0xbc9ffe6b	-0.019530496
126	0xbdc61a96	-0.096730396
127	0x3dbaa7d1	0.0911404
128	0xbd07a221	-0.033113603
129	0xbc029b83	-0.007971647
130	0x3df6a78e	0.12043677
131	0x3c96aee1	0.018393936
132	0x3e385004	0.17999274
133	0x3d6b7ad8	0.0574902
134	0x3d8aa754	0.067701966
135	0x3d905ec9	0.07049329
136	0xbd8914c9	-0.066934176
137	0xbd8f9ebe	-0.070126995
138	0x3d257088	0.04039052
139	0xbddb32b2	-0.10703029
140	0xbd9dd81b	-0.077072345
141	0x3d899234	0.06717339
142	0xbcb03f66	-0.021514606
143	0x3dc28d04	0.09499553
144	0xbd047737	-0.032340255
145	0xbe3604da	-0.17775288
146	0x3d59e188	0.0531936
147	0x3d00904e	0.03138762
148	0x3cafd6f4	0.021464802
149	0xbd0acc39	-0.03388617
150	0xbd65ecb2	-0.056133933
151	0x3d93af3b	0.07211157
152	0x3d8df1f2	0.06930913
153	0xbcca2d45	-0.02467979
154	0xbdacce34	-0.084377676
155	0xbe06ac9d	-0.13151784
156	0xbe47fa74	-0.19529134
157	0xbd84cc19	-0.06484241
158	0xbd8e463e	-0.069469914
159	0x3d691a73	0.05690999
160	0xbc196897	-0.009363315
161	0xbe348d2d	-0.1763198
162	0xbd573cd1	-0.052548233
163	0xbc19305e	-0.009349911
164	0xbdc4a00f	-0.09600841
165	0xbd553dea	-0.052061
166	0xbe57814d	-0.21045418
167	0x3dfbecb8	0.1230101
168	0x3d82aaf6	0.063802645
169	0x3e1503c1	0.14552213
170	0x3cbf411c	0.023346476
171	0xbe45ab24	-0.19303566
172	0x3df7578e	0.120772466
173	0x3dbb7d43	0.09154751
174	0xbe0a8f06	-0.13531122
175	0x3db962f0	0.09052074
176	0xbcb589e7	-0.022160484
177	0xbc4c0ef2	-0.012454735
178	0xbd8121be	-0.06305264
179	0xbb9d647c	-0.0048032384
180	0xbd97ce89	-0.0741244
181	0xbd2a29ae	-0.041543655
182	0xb839c583	-4.4291384e-05
183	0x3b643ada	0.0034825117
184	0xbddd9b32	-0.10820617
185	0xbb7c74a8	-0.003852168
186	0xbb2d6440	-0.0026457459
187	0x3df297a1	0.11845327
188	0x3c68e65c	0.014215078
189	0xbbdda55c	-0.006764097
190	0x3dab7329	0.083715744
191	0xbb488de2	-0.0030602147
192	0x3d91c25a	0.07117148
193	0xbd44fa42	-0.048090227
194	0xbd52086d	-0.051277567
195	0x3dc4a501	0.096017845
196	0xbe359f36	-0.17736515
197	0xbd39dbbd	-0.045375574
198	0xbdae2287	-0.08502679
199	0x3e75214e	0.23938486
200	0xbd945417	-0.07242601
201	0x3d74232f	0.059603866
202	0x3d67ceef	0.05659383
203	0x3d96ecc6	0.0736938
204	0x3da2799d	0.07933352
205	0xbd0c0b3d	-0.034190405
206	0xbc8fe9fe	-0.01756763
207	0xbd085e4e	-0.03329306
208	0xbde9d8aa	-0.114182785
209	0xbca8a5b3	-0.020586824
210	0x3d26427c	0.04059075
211	0x3c45f2ce	0.012081815
212	0x3d786bff	0.060649868
213	0x3bb3bc1f	0.0054850723
214	0xbe139c6d	-0.1441514
215	0x3cc0fb13	0.023557222
216	0x3d836780	0.064162254
217	0x3af8de55	0.0018987159
218	0xbcdefdbf	-0.027220605
219	0x3c01b44f	0.007916524
220	0xbd982891	-0.074296124
221	0xbd4f3af9	-0.05059335
222	0x3d4015c2	0.04689575
223	0x3e3f55d5	0.18685086
224	0xbbf87da2	-0.007583336
225	0x3db24e98	0.08706397
226	0x3dad604f	0.08465635
227	0x3dd09a11	0.10185636
228	0xbda0ae43	-0.07845738
229	0x3d1a1e44	0.03762652
230	0xbe1f8ab1	-0.1558025
231	0x3dca06b5	0.098645605
232	0xbe04c9e0	-0.12967634
233	0x3d9465b8	0.07245964
234	0x3e232bed	0.15934725
235	0xbd68f0ac	-0.056870148
236	0xbdc220a7	-0.09478884
237	0x3c94104b	0.018074175
238	0xbdd3bda4	-0.103389055
239	0x3e3721ea	0.17884031
240	0xbb9ad018	-0.0047245137
241	0x3dc060c8	0.093934596
242	0xbccb3465	-0.024805257
243	0xbe034985	-0.12821014
244	0x3dab6208	0.08368307
245	0xbe209732	-0.15682676
246	0xbddb9e43	-0.107235454
247	0xbd5c2436	-0.05374547
248	0x3d553f58	0.052062362
249	0xbd1a5ea1	-0.0376879
250	0x3c411322	0.011784347
251	0xbdaec27c	-0.08533189
252	0xbda6481e	-0.08119224
253	0xbd4eaff2	-0.050460763
254	0x3cea7ee7	0.028624965
255	0xbdc40bbd	-0.095725514

bias f4 [128]
0	0xba057c4a	-0.0005092068
1	0xba05df5b	-0.000510683
2	0xba097079	-0.0005242895
3	0xba0452cc	-0.0005047738
4	0xb9dcf66e	-0.00042145274
5	0x3a04e419	0.00050693896
6	0xba08d5ae	-0.0005219829
7	0x3a0b6496	0.00053174177
8	0x3a04d9df	0.0005067866
9	0x3a067c42	0.000513021
10	0x3a07fc31	0.0005187421
11	0x3a09b414	0.0005252969
12	0x3a0a69a5	0.00052800245
13	0x3a0a98fc	0.00052870787
14	0xb9fab52b	-0.00047818696
15	0x3a07ca6f	0.0005180006
16	0x39ff2a60	0.00048668962
17	0xb9f231a8	-0.00046194834
18	0x3a0a04bc	0.00052649877
19	0x3a00412a	0.00048925227
20	0x3a0ac820	0.0005294103
21	0x396e32b0	0.00022716331
22	0xba098716	-0.00052462646
23	0xba085e9d	-0.0005202087
24	0xb9f53a02	-0.0004677326
25	0x3a09f27e	0.00052622694
26	0x3a06e683	0.0005146043
27	0xba0d704b	-0.0005395456
28	0x3a0a8705	0.00052844017
29	0x3a052f33	0.00050805806
30	0xba005ab3	-0.0004896328
31	0x3a070d0b	0.0005151785
32	0x3a085e48	0.0005202037
33	0x3a0a7ebd	0.00052831677
34	0x3a0a9305	0.000528619
35	0xba086b5f	-0.0005203988
36	0xb9fab165	-0.00047815885
37	0xba0584bb	-0.0005093326
38	0x3a0c2ad2	0.0005346957
39	0x3a05359b	0.0005081535
40	0x3a0b5be3	0.00053161214
41	0xba09e861	-0.00052607624
42	0xba0d8f42	-0.000540007
43	0xb9e6539b	-0.0004393131
44	0xba06e9c2	-0.0005146527
45	0xba098958	-0.0005246601
46	0xba0a0f2c	-0.0005266543
47	0xba0b688e	-0.0005318009
48	0x3a04f226	0.00050714833
49	0x3a029889	0.0004981836
50	0xb9f5f550	-0.00046912814
51	0x3a0d4bbf	0.000539001
52	0x3a07ea4f	0.0005184756
53	0x3a0a026e	0.0005264644
54	0xba02ce4a	-0.0004989846
55	0xb9df3628	-0.00042574224
56	0xba09d8d7	-0.0005258447
57	0xba0adc63	-0.00052971224
58	0x3a0922f9	0.00052313466
59	0xba0a2932	-0.0005270421
60	0x39fd5e22	0.00048326055
61	0x3a0e3107	0.0005424176
62	0xba030e66	-0.0004999399
63	0xba0b6f52	-0.0005319017
64	0xb9fb298b	-0.00047905403
65	0xba0cb2aa	-0.0005367199
66	0x3a0b48f6	0.0005313301
67	0xba0aeae8	-0.0005299286
68	0x3a088c4e	0.00052088953
69	0x3a10448e	0.00055033795
70	0x3a0b03ba	0.00053029845
71	0xba0ba2fa	-0.00053267146
72	0x3a073b71	0.0005158699
73	0x3a0929f9	0.00052323897
74	0x3a0bd014	0.0005333435
75	0x3a07d485	0.0005181509
76	0xba02e6cb	-0.0004993497
77	0x3a060e66	0.000511384
78	0x39f9bdce	0.00047634396
79	0x3a072e8b	0.0005156777
80	0xba0a3908	-0.00052727805
81	0x3a09ac81	0.00052518403
82	0xba09a334	-0.00052504544
83	0xba093d10	-0.0005235234
84	0xba09b5f5	-0.0005253249
85	0xba042bfc	-0.00050419546
86	0x3a09be7c	0.00052545196
87	0x39fe6cee	0.00048527814
88	0x39ff475e	0.00048690563
89	0xba0ab9da	-0.0005291976
90	0xba0b1343	-0.00053052994
91	0x3a08f75f	0.00052248494
92	0xba0a635a	-0.0005279087
93	0xba07ccbd	-0.00051803497
94	0x3a048519	0.00050552335
95	0x39fb6a63	0.00047953715
96	0x3a0acfdc	0.00052952557
97	0x3a12bbc2	0.0005597436
98	0x39fb7d2d	0.00047967714
99	0x3a0c4e01	0.00053521997
100	0x39f207d0	0.00046163658
101	0x3a0ad4bb	0.00052959815
102	0x3a06d197	0.00051429257
103	0x3a099c8a	0.00052494614
104	0xba02c4ce	-0.00049884326
105	0xba056f73	-0.00050901546
106	0x39f0c177	0.0004592051
107	0xba03207a	-0.0005002093
108	0x3a072d5a	0.0005156599
109	0x3a0cce15	0.0005371285
110	0x3a066d59	0.00051279884
111	0x3a0bb764	0.00053297565
112	0xb9fd2297	-0.00048281692
113	0x3a06c0c0	0.00051404163
114	0x3a0c6046	0.0005354922
115	0x39f0bd63	0.0004591747
116	0xba04924e	-0.00050572015
117	0x3a074c58	0.00051612174
118	0xba11d4fc	-0.0005563048
119	0x3a090dda	0.00052281993
120	0xba0b2223	-0.0005307516
121	0xba03a251	-0.00050214404
122	0x3a0a76fd	0.0005282013
123	0x39ffe0ac	0.00048804784
124	0xba0e3c3d	-0.00054258463
125	0x3a04c75b	0.00050651067
126	0xba07f609	-0.00051865034
127	0xba0c6e65	-0.0005357026

weight f4 [2, 128]
0	0xbcf3e996	-0.029774468
1	0xbe09e8ff	-0.13467787
2	0xbc8d5477	-0.01725219
3	0xbd1f3cb5	-0.038876254
4	0xbd98005d	-0.07421944
5	0xbc081490	-0.008305684
6	0xbd1f743e	-0.038929217
7	0x3e062d77	0.13103281
8	0x3d3fb31d	0.046801675
9	0x3d8536e7	0.065046124
10	0xbd173020	-0.03691113
11	0x3e1ff55a	0.15620938
12	0x3c9a327f	0.018822907
13	0x3d04309f	0.03227293
14	0xbc3c62ad	-0.0114981355
15	0x3d0646fb	0.032782536
16	0x3d948564	0.07252005
17	0x3e2ddfef	0.16979955
18	0x3d4e7fbd	0.05041479
19	0x3dd1211f	0.102113955
20	0xbd2067d0	-0.039161503
21	0xbc8410d1	-0.0161213
22	0xbd0fbd9f	-0.035092946
23	0x3d4c87aa	0.049934067
24	0x3b407fbe	0.0029373015
25	0x3c711dd1	0.014716581
26	0x3ddd493c	0.10804984
27	0x3df016af	0.117230766
28	0x3c96733c	0.018365495
29	0x3d9b45ca	0.075816706
30	0xbd5deeab	-0.05418269
31	0x3de2611d	0.11053679
32	0x3c2a067a	0.010377521
33	0x3d795c68	0.06087914
34	0x3d91d353	0.07120385
35	0xbda2a2f2	-0.079412356
36	0xbcc60e80	-0.024176836
37	0xbc466a84	-0.012110356
38	0x3d924525	0.071420945
39	0x3dcbabb6	0.09944861
40	0x3d8581fb	0.065189324
41	0xbdb4bcd7	-0.08825081
42	0x3c562874	0.013071168
43	0x3b7e06bd	0.003876134
44	0x3dfd9c65	0.123833455
45	0xbda8a6b5	-0.08234922
46	0xbe04516d	-0.12921686
47	0x3da24c3e	0.07924698
48	0x3d98ce80	0.07461262
49	0x3e122603	0.14272313
50	0xbd3a18a8	-0.04543367
51	0x3dc0ed3c	0.09420249
52	0x3d9fd64f	0.07804548
53	0xbb5a7a30	-0.003333699
54	0xbd94fcf8	-0.072748125
55	0x3c4a2399	0.012337589
56	0x3d13bad6	0.036066853
57	0xbe09bc7f	-0.13450812
58	0x3de24fd9	0.11050386
59	0xbd843869	-0.06456072
60	0x3d82d51c	0.06388304
61	0x3e4af0ca	0.19818416
62	0xbb8e76c7	-0.0043476555
63	0xbe36ee98	-0.17864454
64	0xbe2def09	-0.16985716
65	0x3b0f1ca8	0.0021837149
66	0x3e5d7f85	0.21630676
67	0xbc9b96b4	-0.01899276
68	0xbbef88b0	-0.0073099956
69	0x3d399ad5	0.045313675
70	0x3e155f6d	0.14587183
71	0xbdfa6bf2	-0.1222762
72	0x3bdf3a8c	0.0068123993
73	0x3e316882	0.17325023
74	0x3dcfe1d7	0.101504974
75	0x3ddbd6e3	0.10734346
76	0xbda8e0b2	-0.08245982
77	0xbd55d590	-0.052205622
78	0x3cde6f3e	0.027152654
79	0x3d6ff2c7	0.05858114
80	0xbd7f4c77	-0.062328782
81	0x3d49a2aa	0.049227394
82	0xbda8ef99	-0.082488246
83	0xbd814988	-0.06312853
84	0xbdcfc3a9	-0.10144741
85	0xbdab721c	-0.08371374
86	0x3e9954c1	0.29947475
87	0x3cf8118a	0.0302818
88	0xbe04f14b	-0.12982671
89	0xbc7bb784	-0.015363578
90	0xbdde97df	-0.10868811
91	0x3dceb7ce	0.10093652
92	0xbd31d1fb	-0.043413144
93	0xbdc9a187	-0.09845262
94	0x3d376da5	0.0447823
95	0xbd167ddd	-0.036741126
96	0x3c20c846	0.009813374
97	0x3dcb2668	0.09919435
98	0x3cebe600	0.028796196
99	0x3e31dd57	0.1736959
100	0x3baec5e2	0.005333648
101	0xbcd0e801	-0.025501253
102	0x3d8bab73	0.06819811
103	0x3d008232	0.031374164
104	0xba0e36e5	-0.000542505
105	0xbd86e890	-0.065873265
106	0x3d67d282	0.05659724
107	0xbc9d812b	-0.019226631
108	0x3d0560c3	0.032562982
109	0x3cbda333	0.023149109
110	0x3daf4a1f	0.08559059
111	0x3cdc0b9e	0.026861008
112	0xbdb1b459	-0.08676977
113	0x3d3ad561	0.04561365
114	0x3d9be0a0	0.07611203
115	0x3e17958e	0.14803144
116	0xbe5a5b0c	-0.21323794
117	0x3d62c30f	0.055361804
118	0x3ca1d89a	0.019756604
119	0x3da9b525	0.08286504
120	0x3d104481	0.03522158
121	0xbd0df742	-0.03465963
122	0x3d9243e5	0.07141856
123	0xbca4428c	-0.020051263
124	0xbe071a25	-0.13193567
125	0xbd759eb1	-0.059965793
126	0xbdf7d1c3	-0.12100556
127	0xbe05e499	-0.13075484
128	0xbc19a916	-0.009378692
129	0xbd82e3ad	-0.06391082
130	0x3dcccc5e	0.099999174
131	0x3b7b40a2	0.0038338085
132	0x3dc47fef	0.09594714
133	0xbdecfaaa	-0.11571248
134	0x3e1d3651	0.15352751
135	0xbd628e06	-0.055311225
136	0x3bae5b8e	0.0053209728
137	0x3cae486e	0.021274772
138	0xbe001c7f	-0.1251087
139	0xbe55516b	-0.2083184
140	0xbcb8bf71	-0.022552224
141	0xbdb28db4	-0.08718434
142	0xba938c18	-0.0011256961
143	0x3a935321	0.0011239984
144	0xbd24b15a	-0.040208198
145	0x3e369a57	0.17832313
146	0xbdf1697b	-0.11787697
147	0x3b77aefa	0.0037793503
148	0xbde89fd3	-0.11358609
149	0xbc8e770a	-0.017390747
150	0x3de265c7	0.11054569
151	0x3e1cc894	0.1531089
152	0x3db0874e	0.08619557
153	0xbd664fab	-0.05622832
154	0xbcbf8cd9	-0.023382591
155	0x3e172971	0.14761902
156	0xbbf82f79	-0.0075740186
157	0x3cfedc01	0.031110765
158	0x3c950761	0.018191995
159	0xbde1f10f	-0.110323064
160	0xbd754d0c	-0.05988793
161	0xbd84fc9b	-0.06493493
162	0xbdbbfd59	-0.091791816
163	0x3c1b58ba	0.009481603
164	0x3dea1cbf	0.11431264
165	0x3d272f43	0.040816557
166	0x3ce97037	0.028495891
167	0x3d5d4a12	0.054025717
168	0xbd3428d5	-0.043984253
169	0x3d4dbfff	0.05023193
170	0x3e20301a	0.1564335
171	0x3c41fb2c	0.011839669
172	0x3e337b00	0.1752739
173	0x3cf66ee5	0.030082176
174	0xbd4cce8f	-0.050001677
175	0x3e97b982	0.2963372
176	0x3caf2517	0.02137999
177	0xbce78dd0	-0.028265864
178	0x3e0b87d6	0.13626036
179	0xbcaf63b9	-0.021409856
180	0x3d26ba4e	0.040705018
181	0xbd0ac5c2	-0.033880003
182	0x3d8646ce	0.06556474
183	0x3cb224a6	0.021745991
184	0x3e0442b6	0.12916073
185	0xbd82845d	-0.063729025
186	0x3d0b49eb	0.03400604
187	0xbae1a458	-0.0017215116
188	0x3b1a381f	0.0023531986
189	0x3bb0a043	0.0053901984
190	0x3d094ff2	0.033523507
191	0x3cd3c726	0.025851797
192	0x3c329da0	0.010901839
193	0x3e14d29c	0.14533466
194	0x3d3e8895	0.046516974
195	0xbac4f8b8	-0.0015027737
196	0xbda953eb	-0.08267959
197	0x3c8789cb	0.016545197
198	0xbd1f9561	-0.03896082
199	0xbda274aa	-0.07932408
200	0xbe000762	-0.12502816
201	0x3c0c4a08	0.008562572
202	0xbe54b43a	-0.20771876
203	0x3d5f701a	0.054550268
204	0x3c06d919	0.008230471
205	0xbdf393d4	-0.1189343
206	0xbd4f523f	-0.050615545
207	0x3c25a5f7	0.01011037
208	0x3d1e9f6d	0.03872626
209	0xbd8f9620	-0.07011056
210	0x3d5c6c8a	0.05381445
211	0x3e34be57	0.17650734
212	0xbbb959bd	-0.0056564496
213	0xbc17fdad	-0.00927679
214	0x3c80ceb7	0.01572357
215	0xbac01c3d	-0.0014656853
216	0xbe1a3d40	-0.15062428
217	0x3e143f62	0.14477304
218	0x3dfbe146	0.12298827
219	0xbd76dbdb	-0.060268264
220	0x3e170985	0.14749725
221	0xbc8157c0	-0.015788913
222	0xbe09225c	-0.13392013
223	0xbd46ee98	-0.048567384
224	0xbe16a2af	-0.14710496
225	0x3cce3f1d	0.02517658
226	0x3c32ab6a	0.010905126
227	0xbdd7a9aa	-0.10530408
228	0xbd98e37c	-0.07465264
229	0xbdcf5db5	-0.10125295
230	0xbde1b3fc	-0.110206574
231	0xbdda81c3	-0.10669281
232	0x3d9d8696	0.07691686
233	0xbd4368e0	-0.04770744
234	0x3d3e2e09	0.04643062
235	0x3c9ae322	0.018907133
236	0xbd98d965	-0.0746334
237	0xb5c7b91f	-1.4880533e-06
238	0x3d7a7baa	0.06115309
239	0xbe0019c7	-0.12509833
240	0x3d2bce53	0.041944813
241	0xbba6b157	-0.0050870585
242	0xbcffd03c	-0.031227224
243	0x3d26ecd4	0.0407532
244	0xbcc6c649	-0.024264472
245	0xbd55a2e0	-0.052157283
246	0x3d2fa606	0.04288294
247	0x3d80ddcc	0.062923044
248	0x3e6d4ebd	0.23174568
249	0x3ccea841	0.025226714
250	0x3d6fd9b4	0.058557227
251	0xbdbaf53c	-0.09128806
252	0x3c84516e	0.01615211
253	0xbe0f9a2a	-0.14023653
254	0xbc2a05a5	-0.010377322
255	0x3e10bd6e	0.14134762

bias f4 [2]
0	0x3a0c04cf	0.00053412927
1	0xba0c04cf	-0.00053412927
