RL/PPO_critic_model.pt (torch, 72919 bytes, 5 tensors)

weight f4 [128, 6]
0.09715208 0.03406898 -0.126925 -0.12466924 0.086232536 -0.18403427 -0.13697809 0.01625332
0.031176962 -0.1057774 -0.095775425 0.07049608 -0.024461528 -0.10212658 -0.02708927 -0.0019540282
0.023690015 -0.21083339 0.05366797 -0.09065033 -0.074421525 -0.13343945 -0.002869751 -0.012004962
0.13890168 0.04225969 0.014132366 0.17091525 0.028451204 -0.02691282 0.10087317 -0.027476165
-0.030262388 0.03719281 0.13937835 0.19809932 0.12980522 0.13020314 -0.03285995 -0.04002974
0.22811635 -0.06006835 -0.07599867 0.046265665 -0.02091221 -0.09591084 -0.058961317 -0.103040494
0.07743254 0.054400045 0.124754116 0.06740987 0.07038165 -0.030993907 -0.09468737 -0.002112466
-0.026519146 -0.14708091 0.014616334 -0.012229312 -0.002386394 -0.16210635 -0.078071944 -0.006897443
0.09534717 -0.14495489 0.07097589 0.06981824 -0.16877761 -0.27454636 -0.051103257 -0.08576859
-0.1601857 -0.040132646 0.15441099 -0.11690515 -0.0034962099 -0.09508497 -0.10637431 -0.007085136
-0.056309424 -0.030362412 0.014632131 -0.0381453 0.030121917 -0.004281518 0.049313925 -0.0010364857
0.03672268 0.09026145 0.039717223 -0.012900733 -0.016549135 0.13284741 0.15912858 -0.09155595
-0.019498933 0.08667331 -0.09925401 0.21283379 -0.07812535 0.11365464 0.09849973 -0.05379924
0.15872408 0.098573565 -0.077756554 0.05283222 0.07074622 -0.05669356 -0.22219749 0.043934282
-0.018265454 -0.11109938 0.007095651 0.15653747 0.050559256 -0.10023141 -0.06223066 0.0885238
0.09054079 -0.09055657 0.06691522 0.091406696 0.10505108 0.055185225 0.07996929 0.069351986
-0.031092083 0.045104876 0.04235752 -0.02549277 0.06300974 -0.03206097 -0.05931322 -0.056708388
-0.030878842 -0.06676494 -0.0959266 0.09884365 -0.0025103032 -0.037944987 -0.11674772 -0.059899975
-0.038699932 -0.059260733 -0.01812948 -0.05222032 -0.03337495 -0.08071229 0.00021469523 -0.038364556
-0.026289545 -0.08090952 -0.016849453 -0.03899404 -0.055585008 -0.095756166 0.12755387 0.06841178
-0.103890955 0.03268708 0.06564462 0.06937557 -0.048787195 -0.015719904 -0.14078991 -0.01498138
-0.037288927 -0.0673982 0.14310555 0.0019813888 -0.0882463 -0.20817211 -0.21275148 0.0061104978
-0.056547176 0.017720511 -0.059883345 -0.07342452 -0.05812068 -0.07788893 -0.10495989 0.019434676
-0.14278242 0.0089713745 -0.017313657 0.21852401 0.02549806 0.06897371 0.19669528 0.29892388
0.12503591 -0.07496215 0.082349986 0.025032546 -0.06446561 -0.14598392 0.105565935 0.144735
-0.049721226 -0.13451886 -0.022268387 -0.10715473 -0.0025468857 -0.0070860568 -0.12814133 0.059664942
-0.09932918 -0.07756458 0.029355995 0.05651758 0.0897272 0.092641056 -0.08320697 -0.036411207
0.04782558 0.061869763 -0.17390867 0.15856372 0.112525 0.09937076 -0.061217863 -0.08134745
0.09488778 0.009135207 0.06934753 -0.22828303 0.059168857 -0.034785863 0.15745896 -0.046458706
0.15606818 0.011219612 -0.0010697293 -0.08579351 -0.028332992 0.091052316 0.023816591 -0.061690975
-0.060007982 -0.07225732 -0.16240819 -0.19238518 -0.0422804 -0.03531575 -0.07223689 -0.04933511
0.08414215 0.03774227 -0.024996841 -0.08992306 0.09210703 0.025440022 0.05735298 0.009996759
00000000: abf7 c63d ea8b 0b3d a1f8 01be 9652 ffbd
00000010: af9a b03d 7b73 3cbe fc43 0cbe af25 853c
00000020: d466 ff3c d2a1 d8bd e825 c4bd 4060 903d
00000030: 8b63 c8bc be27 d1bd 51ea ddbc 270f 00bb
00000040: 9011 c23c b5e4 57be f2d2 5b3d e1a6 b9bd
00000050: 506a 98bd 5aa4 08be 6f12 3cbb 76b0 44bc
00000060: 3e3c 0e3e 7f18 2d3d 708b 673c 6804 2f3e
00000070: 8012 e93c 4678 dcbc 9896 ce3d b215 e1bc
00000080: d4e8 f7bc 7d57 183d 33b9 0e3e 8cda 4a3e
00000090: a9eb 043e f953 053e 2898 06bd 3af6 23bd
000000a0: 5597 693e 3b0a 76bd 31a5 9bbd 1181 3d3d
000000b0: 1550 abbc e76c c4bd 6c81 71bd e506 d3bd
000000c0: f494 9e3d 95d2 5e3d 167f ff3d 300e 8a3d
000000d0: 4124 903d efe6 fdbc 74eb c1bd 4c71 0abb
000000e0: ae3e d9bc 619c 16be 5979 6f3c 745d 48bc
000000f0: 0c65 1cbb 35ff 25be 2fe4 9fbd f203 e2bb
00000100: 6145 c33d 0e6f 14be cf5b 913d defc 8e3d
00000110: 0ad4 2cbe 5791 8cbe a651 51bd 71a7 afbd
00000120: b807 24be 2162 24bd ea1d 1e3e f86b efbd
00000130: ab20 65bb e9bb c2bd c6da d9bd 6e2a e8bb
00000140: b6a4 66bd 98ba f8bc 9bbb 6f3c 3f3e 1cbd
00000150: 3dc2 f63c fa4b 8cbb 66fd 493d b0da 87ba
00000160: 856a 163d ffda b83d 87ae 223d 995d 53bc
00000170: 0d92 87bc 2709 083e 9af2 223e b081 bbbd
00000180: 3abc 9fbc c781 b13d b045 cbbd 1af1 593e
00000190: 2f00 a0bd c4c3 e83d 3aba c93d 985c 5cbd
000001a0: 9188 223e f0e0 c93d d43e 9fbd 9966 583d
000001b0: 65e3 903d 8237 68bd bd87 63be 6ff4 333d
000001c0: 6fa1 95bc 1288 e3bd a282 e83b 5c4b 203e
000001d0: 3917 4f3d 2046 cdbd 94e5 7ebd f74b b53d
000001e0: 736d b93d b975 b9bd d90a 893d 6f33 bb3d
000001f0: 0525 d73d e709 623d f0c6 a33d 6a08 8e3d
00000200: d3b4 febc e4bf 383d 147f 2d3d 37d6 d0bc
00000210: 400b 813d 5d52 03bd 6bf2 72bd 0e47 68bd
00000220: a0f5 fcbc 0fbc 88bd 2a75 c4bd 8a6e ca3d
00000230: e683 24bb 346c 1bbd 6e19 efbd ad59 75bd
00000240: d283 1ebd 62bb 72bd 4684 94bc f9e4 55bd
00000250: 2cb4 08bd 7c4c a5bd d01f 6139 2724 1dbd
00000260: 2c5d d7bc e4b3 a5bd dd07 8abc 37b8 1fbd
00000270: 1bad 63bd cf1b c4bd 7b9d 023e 7a1b 8c3d
00000280: c8c4 d4bd e3e2 053d b070 863d c714 8e3d
00000290: 15d5 47bd 07c7 80bc 3b2b 10be 7674 75bc
000002a0: 46bc 18bd 1108 8abd 438a 123e 30da 013b
000002b0: 7aba b4bd 122b 55be 86db 59be 923a c83b
000002c0: 039e 67bd 9b2a 913c 3d48 75bd 985f 96bd
000002d0: f30f 6ebd 3b84 9fbd 36f5 d6bd 7835 9f3c
000002e0: 8e35 12be acfc 123c 5fd5 8dbc c2c4 5f3e
000002f0: 4fe1 d03c 1742 8d3d 7d6a 493e 8d0c 993e
00000300: 6a09 003e c185 99bd 1ca7 a83d 0e11 cd3c
00000310: 8c06 84bd cf7c 15be f432 d83d 6935 143e
00000320: 7ca8 4bbd 50bf 09be 316c b6bc f073 dbbd
00000330: a7e9 26bb 2732 e8bb 7b37 03be 3a63 743d
00000340: 196d cbbd 2eda 9ebd fc7b f03c fa7e 673d
00000350: e5c2 b73d 98ba bd3d 6a68 aabd eb23 15bd
00000360: c1e4 433d 266b 7d3d 1d15 32be 875e 223e
00000370: 8273 e63d e682 cb3d 95bf 7abd 7e99 a6bd
00000380: 8654 c23d d6ab 153c 1406 8e3d 07c3 69be
00000390: 0b5b 723d 9f7b 0ebd ec3c 213e 7c4b 3ebd
000003a0: 56d0 1f3e 77d2 373c 2936 8cba 82b4 afbd
000003b0: 971a e8bc a379 ba3d 031b c33c adaf 7cbd
000003c0: eeca 75bd a5fb 93bd 554e 26be 9f00 45be
000003d0: 362e 2dbd 3fa7 10bd eff0 93bd 9d13 4abd
000003e0: b852 ac3d a397 1a3d 2dc6 ccbc 9529 b8bd
000003f0: 9ca2 bc3d 9867 d03c f5ea 6a3d 72c9 233c

bias f4 [128]
-0.039109495 -0.034463406 -0.036543347 -0.032303523 0.03381501 0.011309233 0.02909559 -0.032772467
0.03599237 0.0048351795 -0.035793804 -0.015738254 -0.0426436 -0.03222228 0.027783567 0.035264056
0.038223602 0.013729807 -0.03910786 0.02528693 0.034458626 0.033563778 -0.029859133 -0.025712894
-0.03191831 -0.031461857 -0.014819792 -0.00975886 -0.024701 -0.033734035 -0.032351285 0.016107544
0.0060121724 -0.029223314 -0.041859567 0.0056275977 0.033219036 -0.014772874 0.03813788 -0.025201576
-0.0014117932 -0.031715177 0.02906963 -0.03129715 0.034123946 -0.03213413 0.017802201 0.042280413
-0.032622732 -0.03242246 0.033408824 -0.008836557 -0.02391714 -0.027005788 0.02544398 0.025939573
0.031489763 0.036117855 -0.036680046 0.036476888 -0.019571315 -0.032288548 -0.015983958 -0.033785425
0.04839929 0.025895573 -0.014242832 0.039178696 0.034843575 -0.025059741 0.010217125 0.027119849
0.026049413 -0.038731422 0.020459572 0.0034809234 0.005812687 -0.03531364 0.0396689 -0.035923656
-0.036816776 0.009372507 -0.045341376 0.037904758 -0.02886418 0.031543214 0.036216717 0.03824728
0.02456642 0.039009366 0.017962554 -0.012567384 0.035326954 0.017252943 -0.0015992126 -0.03292737
0.040428836 -0.035399288 -0.028485961 -0.033217106 -0.014270437 0.02172555 0.025561027 -0.03171295
-0.02624563 -0.010921158 0.027939903 0.028686 -0.03420142 0.030303815 0.035630215 0.029720249
-0.020830665 -0.031176403 -0.03354733 -0.039155528 0.038613535 0.036327645 0.044439983 0.037563305
-0.034367897 0.032897208 0.032717302 -0.008989698 0.013581739 -0.03910939 0.026669102 -0.027623238
00000000: 4731 20bd 8029 0dbd 7aae 15bd b350 04bd
00000010: 9c81 0a3d 5c4a 393c e059 ee3c 6c3c 06bd
00000020: bc6c 133d 6d70 9e3b 869c 12bd 83ed 80bc
00000030: 0eab 2ebd 82fb 03bd 5d9a e33c 0b71 103d
00000040: 5a90 1c3d fcf2 603c 902f 20bd 8926 cf3c
00000050: 7d24 0d3d 2c7a 093d 249b f4bc d9a3 d2bc
00000060: c6bc 02bd 26de 00bd b6ce 72bc a0e3 1fbc
00000070: c059 cabc b32c 0abd c882 04bd f8f3 833c
00000080: c201 c53b bb65 efbc f074 2bbd b667 b83b
00000090: af10 083d ed09 72bc 7736 1c3d 8973 cebc
000000a0: eb0b b9ba c6e7 01bd 6f23 ee3c 7131 00bd
000000b0: 8dc5 0b3d 149f 03bd ecd5 913c 3a2e 2d3d
000000c0: 6a9f 05bd 6acd 04bd b1d7 083d 35c7 10bc
000000d0: e1ed c3bc 3e3b ddbc e56f d03c 3a7f d43c
000000e0: 69fb 003d 51f0 133d d13d 16bd ca68 153d
000000f0: 0654 a0bc ff40 04bd caf0 82bc 9662 0abd
00000100: 553e 463d f422 d43c c45a 69bc d779 203d
00000110: 23b8 0e3d 164a cdbc ba65 273c 722a de3c
00000120: 9465 d53c d7a4 1ebd d59a a73c 3420 643b
00000130: 5a78 be3b 09a5 10bd db7b 223d af24 13bd
00000140: 30cd 16bd 258f 193c e1b7 39bd 0542 1b3d
00000150: 9374 ecbc 7533 013d fb57 143d 2ea9 1c3d
00000160: 843f c93c 49c8 1f3d 3526 933c 6ee7 4dbc
00000170: ffb2 103d 0b56 8d3c ac9c d1ba dade 06bd
00000180: b598 253d d8fe 10bd 645b e9bc a90e 08bd
00000190: 8dce 69bc c8f9 b13c 5c65 d13c 70e5 01bd
000001a0: 1301 d7bc a8ee 32bc 39e2 e43c e7fe ea3c
000001b0: ca16 0cbd b53f f83c fdf0 113d e177 f33c
000001c0: 12a5 aabc a865 ffbc ed68 09bd 8c61 20bd
000001d0: 3a29 1e3d 4ccc 143d b306 363d fbdb 193d
000001e0: 5ac5 0cbd 39bf 063d 9402 063d 8749 13bc
000001f0: f185 5e3c 2b31 20bd 2979 da3c 214a e2bc

weight f4 [128, 128]
-0.16031392 0.028941175 -0.10433274 -0.08625485 0.029082483 0.14756954 0.09995325 -0.033325348
0.13097417 -0.11869262 -0.03703785 0.09217013 0.09514538 -0.07649248 0.08571302 -0.054110892
-0.20196521 0.043673534 -0.08331621 -0.041005973 -0.14203529 -0.0055818236 -7.6887845e-06 0.120852284
-0.08976973 0.021561265 -0.1699336 -0.11349523 -0.07516621 -0.11607263 -0.07737371 0.031418785
0.003781987 -0.075744875 -0.043931253 0.006755179 0.081506 -0.16556457 0.11424493 -0.012205343
0.13788617 -0.04431024 0.000837444 -0.031154405 -0.057671405 -0.056512825 0.14897458 0.14907753
0.010422297 -0.008026791 -0.10875876 -0.11542102 -0.16954093 -0.047495607 0.028895648 -0.013617105
-0.11799418 0.13735972 -0.0053113094 0.093342796 -0.08020024 -0.04294342 -0.15664147 0.060350783
0.14058454 0.045255486 0.021240791 0.08906113 0.1929642 0.037824184 -0.05470739 0.003847343
0.036094263 -0.08534331 0.092717014 0.12709613 0.06358164 -0.007594288 0.03241009 -0.018380389
0.08834209 -0.033515982 -0.030119779 0.16807243 -0.24063282 -0.17067297 -0.17120853 0.09035295
-0.0874925 0.16232708 0.008840363 0.05367835 -0.12139771 -0.004845035 0.067415714 -0.0950079
-5.7135523e-05 0.016368376 0.017204246 -0.14379533 -0.16574323 -0.092136286 -0.11902997 -0.13881317
-0.042229846 -0.053527758 0.00079896726 0.014348065 -0.0344338 0.11559975 -0.030731006 0.062524825
0.09071611 -0.068175614 -0.08192361 -0.061194148 0.04747448 -0.008804093 0.069757216 0.005331715
0.12459716 0.15401374 0.0017140661 0.0110632 -0.053454936 0.111560196 0.023257542 0.0352548
-0.09750467 -0.02801132 -0.08560556 0.023815025 0.0061633703 -0.08308667 0.18270014 -0.0134024285
0.013926213 0.16427164 -0.14961734 -0.04984271 0.091625065 -0.10594161 0.01951025 -0.0396711
-0.08458148 -0.10552992 0.06522086 0.036661826 -0.047562137 0.12186954 -0.015725361 -0.25617683
-0.094880775 0.051430684 -0.26156634 -0.16533732 -0.100127384 0.03480826 0.027381541 0.016625993
0.0076345694 0.04539445 -0.08147344 0.089253195 -0.007118788 -0.0395218 -0.10290915 0.03787863
-0.0100830365 0.10465867 0.028233824 0.05047646 0.02001621 -0.09390414 0.057966612 0.07784343
0.049789112 -0.11896953 0.03849655 -0.033729922 -0.21993978 0.040116783 -0.002546087 0.035128877
0.0763857 0.02975989 0.07867773 0.082568124 0.05071507 -0.016626552 0.06587823 -0.13658197
0.032399464 -0.21946374 -0.07720684 0.040002033 -0.13171725 -0.0025604982 0.16353297 0.010466325
0.16688856 0.050304227 0.04318582 0.10984458 -0.09174201 -0.07392847 0.040576678 -0.087538786
0.027923578 -0.05291625 -0.16330184 0.06890681 0.03482423 -0.070164524 0.077616565 0.017213056
0.15683128 0.08967616 -0.024786884 0.051564902 0.11561354 -0.023860794 0.08266899 -0.0064510824
-0.04976456 0.045908004 -0.08141892 -0.095326185 -0.035596013 -0.029772975 0.0006625383 -0.05089897
0.09366949 0.018313944 -0.014583082 0.039777875 0.01088223 0.074315526 0.033762172 0.12176408
-0.13646784 0.033944946 0.093447946 -0.028311618 -0.033109594 0.053622525 0.12162535 0.041787446
0.025240285 -0.1366886 0.18898487 0.0064391103 0.0246522 -0.11033996 0.1944841 -0.16531609
00000000: 5529 24be 0b16 ed3c 67ac d5bd 62a6 b0bd
00000010: 633e ee3c 781c 173e 4ab4 cc3d 2980 08bd
00000020: 181e 063e 1e15 f3bd 00b5 17bd b1c3 bc3d
00000030: 95db c23d 17a8 9cbd 4f8a af3d 62a3 5dbd
00000040: f8cf 4ebe 05e3 323d b0a1 aabd e1f5 27bd
00000050: b371 11be bbe7 b6bb 14ff 00b7 6781 f73d
00000060: 31d9 b7bd 40a1 b03c 1303 2ebe 3070 e8bd
00000070: bef0 99bd 7db7 edbd 1c76 9ebd fcb0 003d
00000080: 36db 773b 2120 9bbd 42f1 33bd 8c5a dd3b
00000090: 9eec a63d c289 29be 3ff9 e93d ebf8 47bc
000000a0: 0832 0d3e a77e 35bd ea87 5b3a 8637 ffbc
000000b0: da38 6cbd fe79 67bd cb8c 183e c8a7 183e
000000c0: 48c2 2a3c cd82 03bc eabc debd db61 ecbd
000000d0: 239c 2dbe c18a 42bd 91b6 ec3c 471a 5fbc
000000e0: efa6 f1bd 07a8 0c3e 7e0a aebb 822a bf3d
000000f0: 0640 a4bd 71e5 2fbd 9f66 20be 6232 773d
00000100: 65f5 0f3e d15d 393d 2b01 ae3c af65 b63d
00000110: 6898 453e 88ed 1a3d db14 60bd b423 7c3b
00000120: 94d7 133d 79c8 aebd 6be2 bd3d 7d25 023e
00000130: 1737 823d 81d9 f8bb 71c0 043d 7892 96bc
00000140: b3ec b43d 0e48 09bd c1bd f6bc 2e1b 2c3e
00000150: 7368 76be e5c4 2ebe 4a51 2fbe f80a b93d
00000160: 452f b3bd 1239 263e 2bd7 103c d4dd 5b3d
00000170: 5d9f f8bd 19c3 9ebb 4011 8a3d 8093 c2bd
00000180: cda4 6fb8 f916 863c ebef 8c3c 153f 13be
00000190: 98b8 29be f3b1 bcbd fcc5 f3bd 0a25 0ebe
000001a0: 34f9 2cbd ec3f 5bbd c971 513a 2514 6b3c
000001b0: 750a 0dbd 90bf ec3d 97bf fbbc 040d 803d
000001c0: 5ec9 b93d a89f 8bbd 91c7 a7bd b7a6 7abd
000001d0: 9a74 423d 0b3f 10bc dfdc 8e3d abb5 ae3b
000001e0: cc2c ff3d c7b5 1d3e 84aa e03a 6d42 353c
000001f0: 90f3 5abd ac79 e43d 9a86 be3c 5667 103d
00000200: 87b0 c7bd ff77 e5bc f851 afbd ba17 c33c
00000210: 19f6 c93b 5829 aabd bf15 3b3e dc95 5bbc
00000220: c52a 643c d336 283e 4a35 19be df27 4cbd
00000230: eca5 bb3d eaf7 d8bd f6d3 9f3c 2a7e 22bd
00000240: 0e39 adbd 1220 d8bd 8492 853d b62a 163d
00000250: 84d0 42bd bd96 f93d 79d2 80bc 9c29 83be
00000260: da50 c2bd fba8 523d 06ec 85be 304e 29be
00000270: 960f cdbd 1b93 0e3d 414f e03c 3c33 883c
00000280: 692b fa3b 88ef 393d 8cdb a6bd 61ca b63d
00000290: b944 e9bb 9ce1 21bd 08c2 d2bd 9f26 1b3d
000002a0: 5233 25bc 4957 d63d 9f4a e73c 68c0 4e3d
000002b0: 09f9 a33c d050 c0bd 666e 6d3d 606c 9f3d
000002c0: abef 4b3d 4ca6 f3bd 8fae 1d3d 6328 0abd
000002d0: e537 61be 7f51 243d 40dc 26bb 4ce3 0f3d
000002e0: 1b70 9c3d 03cb f33c ca21 a13d 7a19 a93d
000002f0: 9bba 4f3d 6834 88bc 2aeb 863d 25dc 0bbe
00000300: 4db5 043d 1abb 60be 9f1e 9ebd 2cd9 233d
00000310: e3e0 06be 08ce 27bb 3075 273e f37a 2b3c
00000320: d6e4 2a3e ce0b 4e3d 9de3 303d 32f6 e03d
00000330: 3ce3 bbbd cf67 97bd bb33 263d 8947 b3bd
00000340: fdbf e43c b6be 58bd 9938 27be 031f 8d3d
00000350: daa3 0e3d 6bb2 8fbd 6ff5 9e3d 6502 8d3c
00000360: 6198 203e 22a8 b73d dd0d cbbc b835 533d
00000370: cbc6 ec3d b677 c3bc 5c4e a93d 9a63 d3bb
00000380: ecd5 4bbd 080a 3c3d f6be a6bd 603a c3bd
00000390: 20cd 11bd 74e6 f3bc 31ae 2d3a 707b 50bd
000003a0: cad5 bf3d 2007 963c e1ed 6ebc 20ee 223d
000003b0: 614b 323c bd32 983d 344a 0a3d 725f f93d
000003c0: 3abe 0bbe db09 0b3d a361 bf3d c4ed e7bc
000003d0: ed9d 07bd 4ba3 5b3d b616 f93d 5029 2b3d
000003e0: b7c4 ce3c 19f8 0bbe 4085 413e 2cff d23b
000003f0: 69f3 c93c ebf9 e1bd d726 473e 9f48 29be

bias f4 [128]
0.025703195 0.030690012 -0.020946847 0.021876778 0.026348662 -0.027007181 -0.04179695 0.021512534
-0.02265074 -0.029451698 -0.032065753 0.040985998 0.033785943 -0.018680437 -0.018999489 -0.040960055
-0.028759297 0.024131538 -0.024604224 -0.021137243 -0.023040324 -0.027836846 0.02869667 -0.020757422
0.032156788 0.026728997 -0.02764503 0.01943091 0.028623074 -0.02508302 -0.029484957 0.02771916
-0.02785659 -0.02545356 0.021948554 0.01681746 -0.022072954 0.02833068 0.021223878 -0.028140826
0.026230952 -0.025493357 -0.025002006 0.028942226 0.026911346 0.02761775 -0.024460267 -0.021631928
0.027558947 -0.027859673 -0.029823545 -0.025527308 0.018803397 -0.025496267 -0.0483406 0.025292536
-0.033383906 -0.027381564 0.023519719 -0.026674112 0.023735603 -0.021158772 -0.022414176 0.024438558
0.020356515 0.03138313 -0.028535664 0.025617737 0.049352456 -0.028285075 0.035911918 -0.02409855
0.026315907 -0.02038026 -0.033969253 -0.024276586 0.032771084 0.024429962 -0.031222224 0.027045611
-0.022214578 0.021822806 0.02479528 -0.0188637 0.016346462 -0.030302016 0.024097567 -0.031149052
0.030574128 0.025374325 0.033447124 -0.027258683 0.019121155 0.03045454 -0.026108008 -0.027933534
-0.025454104 0.024157729 0.01976783 0.022319337 0.022196768 0.021819534 -0.019969082 -0.034644924
-0.018707111 0.027713386 0.021898335 0.028494542 -0.028914161 -0.02366518 -0.035572466 -0.022243425
-0.028365804 -0.023651147 0.029121952 -0.020251142 0.031941243 -0.03391577 0.02563999 -0.037584703
0.022501953 -0.027770339 -0.029501041 -0.023734432 0.023358013 0.024586644 0.027998073 0.02156911
00000000: 828f d23c 9f69 fb3c b998 abbc ee36 b33c
00000010: 26d9 d73c 2a3e ddbc 4733 2bbd 0e3b b03c
00000020: 0b8e b9bc b044 f1bc 6157 03bd efe0 273d
00000030: 2163 0a3d b707 99bc d1a4 9bbc bbc5 27bd
00000040: 9e98 ebbc 81af c53c cc8e c9bc 0328 adbc
00000050: 10bf bcbc 190a e4bc 4715 eb3c 780b aabc
00000060: d6b6 033d c5f6 da3c d477 e2bc 922d 9f3c
00000070: f07a ea3c e87a cdbc 708a f1bc 4b13 e33c
00000080: 8133 e4bc fc83 d0bc 74cd b33c c5c4 893c
00000090: 57d2 b4bc be15 e83c b3dd ad3c 9787 e6bc
000000a0: 4be2 d63c 72d7 d0bc 02d1 ccbc 3f18 ed3c
000000b0: 2f75 dc3c 9f3e e23c e660 c8bc 7135 b1bc
000000c0: 4dc3 e13c f839 e4bc 8250 f4bc a51e d1bc
000000d0: 9509 9a3c 8cdd d0bc cb00 46bd 4b32 cf3c
000000e0: 90bd 08bd 4d4f e0bc 6dac c03c ab83 dabc
000000f0: 2b71 c23c 2955 adbc ef9d b7bc 5f33 c83c
00000100: b5c2 a63c 998b 003d a0c3 e9bc 4adc d13c
00000110: cd25 4a3d 1ab6 e7bc 6018 133d 536a c5bc
00000120: 7594 d73c 81f4 a6bc 5823 0bbd b1df c6bc
00000130: f93a 063d 5821 c83c c0c5 ffbc c28e dd3c
00000140: 59fb b5bc bec5 b23c 791f cb3c 0c88 9abc
00000150: 04e9 853c ef3b f8bc 4368 c53c 4c2c ffbc
00000160: 9876 fa3c d1dd cf3c daff 083d 9a4d dfbc
00000170: f8a3 9c3c cd7b f93c 76e0 d5bc ded4 e4bc
00000180: 2085 d0bc 6ee6 c53c 25f0 a13c 0bd7 b63c
00000190: ffd5 b53c e1be b23c 3396 a3bc d6e7 0dbd
000001a0: a83f 99bc 2f07 e33c 2364 b33c 636d e93c
000001b0: 64dd ecbc 7bdd c1bc 6fb4 11bd d837 b6bc
000001c0: 675f e8bc 0dc0 c1bc 2991 ee3c b9e5 a5bc
000001d0: d2d4 023d 43eb 0abd f50a d23c 6bf2 19bd
000001e0: 0456 b83c 9f7e e3bc 2bac f1bc b66e c2bc
000001f0: 4e59 bf3c ee69 c93c 375c e53c b4b1 b03c

weight f4 [1, 128]
-0.090716 -0.10216996 0.17867121 -0.14212565 -0.14650647 0.09781049 0.06194406 -0.17215782
0.09908872 0.12909241 0.089305855 -0.05447734 -0.09912015 0.12860073 0.21625844 0.059042152
0.088390514 -0.1933049 0.102943026 0.13789746 0.09354231 0.20732749 -0.13700429 0.2386057
-0.065230876 -0.11804509 0.13462918 -0.18794806 -0.113131575 0.17238311 0.08302882 -0.08366053
0.17876406 0.11909523 -0.21889473 -0.19447102 0.08281922 -0.10902373 -0.23959923 0.16559708
-0.16370866 0.061528437 0.1573879 -0.108438075 -0.17302382 -0.16552158 0.084282264 0.12966363
-0.10960609 0.14138708 0.06730259 0.14706217 -0.13404915 0.13171409 0.112067305 -0.09841121
0.09381975 0.090130866 -0.18974781 0.14462377 -0.08875983 0.15393822 0.30456203 -0.13356243
-0.115582265 -0.154268 0.15280013 -0.16007768 -0.068801984 0.1268983 -0.07499338 0.08294808
-0.10127653 0.20972204 0.08711962 0.1604057 -0.06430797 -0.17573802 0.10085677 -0.123341724
0.14948831 -0.20538966 -0.062413022 0.19368109 -0.27205268 0.09875391 -0.2001798 0.07929689
-0.088119075 -0.07700247 -0.07667874 0.09825158 -0.11488002 -0.08198874 0.12981099 0.13360754
0.25383475 -0.15549485 -0.17603248 -0.23729147 -0.16567038 -0.16360596 0.31827962 0.07429698
0.19354375 -0.10711787 -0.07929342 -0.090674914 0.19100463 0.14900212 0.07408722 0.09460711
0.07877648 0.06451899 -0.10761392 0.20480585 -0.090142354 0.112681024 -0.17256355 0.12612134
-0.09920153 0.15817302 0.11713256 0.11295458 -0.10885932 -0.15678962 -0.12688905 -0.27898684
00000000: 4fc9 b9bd 7c3e d1bd 96f5 363e 6389 11be
00000010: cb05 16be de50 c83d 0eb9 7d3d 244a 30be
00000020: 07ef ca3d cd30 043e fde5 b63d a223 5fbd
00000030: 81ff cabd e9af 033e da72 5d3e 2fd6 713d
00000040: 1606 b53d b8f1 45be cbd3 d23d fe34 0d3e
00000050: 1c93 bf3d a84d 543e da4a 0cbe 0d55 743e
00000060: c497 85bd a0c1 f1bd 3bdc 093e 7575 40be
00000070: 87b1 e7bd 3385 303e 040b aa3d 3656 abbd
00000080: ed0d 373e 33e8 f33d f125 60be 6923 47be
00000090: 209d a93d d547 dfbd 8059 75be 4892 293e
000000a0: 3ea3 27be 3e05 7c3d 4b2a 213e c814 debd
000000b0: 282d 31be 7d7e 29be 2e9c ac3d 8bc6 043e
000000c0: 2879 e0bd c6c7 103e f1d5 893d 7797 163e
000000d0: 2e44 09be 0fe0 063e 8b83 e53d d18b c9bd
000000e0: 9224 c03d 8896 b83d 404d 42be 4118 143e
000000f0: b7c7 b5bd fba1 1d3e 8eef 9b3e 97c4 08be
00000100: 65b6 ecbd 6ef8 1dbe a377 1c3e 67eb 23be
00000110: 0ee8 8cbd a1f1 013e 2196 99bd afe0 a93d
00000120: 126a cfbd 60c1 563e c56b b23d 6441 243e
00000130: e6b3 83bd abf4 33be ff8d ce3d 969a fcbd
00000140: 7713 193e ab51 52be cca4 7fbd 5654 463e
00000150: 7d4a 8bbe 7d3f ca3d effb 4cbe 6866 a23d
00000160: c677 b4bd 79b3 9dbd be09 9dbd 2038 c93d
00000170: 3746 ebbd b6e9 a7bd 2ced 043e 6ad0 083e
00000180: a1f6 813e 0b3a 1fbe dc41 34be 89fc 72be
00000190: 7fa5 29be 5288 27be 8cf5 a23e 0429 983d
000001a0: 5530 463e 9d60 dbbd 9764 a2bd c5b3 b9bd
000001b0: b896 433e 0394 183e 0abb 973d 5fc1 c13d
000001c0: 9055 a13d 8822 843d b064 dcbd a0b8 513e
000001d0: 8e9c b8bd 4fc5 e63d 80b4 30be f425 013e
000001e0: 2c2a cbbd 1cf8 213e 32e3 ef3d bb54 e73d
000001f0: a3f1 debd 758d 20be 34ef 01be 5dd7 8ebe
