proj/neuro_net.pt (torch, 288663 bytes, 6 tensors)

linear.0.weight f4 [256, 16]
-0.09871946 0.2723916 0.33643484 0.03326895 -0.15963012 0.18403053 -0.20977461 0.06620014
0.22540563 0.1448729 -0.14824204 0.030495131 -0.2939557 0.050627273 0.15960428 0.15586893
-0.0984412 0.20156497 0.18270625 -0.20516978 0.21798553 -0.12183379 0.099163346 0.12817194
0.1669667 0.15345939 0.23400182 0.07044723 0.11461234 -0.28394982 -0.23581642 -0.37935853
0.1734025 0.21902408 -0.10799336 0.009261641 0.0047143097 -0.18772292 -0.14773911 -0.36654806
0.21904589 -0.002428081 0.19410661 -0.124560654 0.00854018 -0.00987818 -0.33307445 -0.27845258
0.21436757 0.20675804 -0.14210168 0.12528 -0.10347698 0.2949832 0.10054998 -0.17002796
0.32817096 -0.08227138 -0.29468924 -0.044634458 0.112505 0.26605558 0.025917992 0.24814504
0.18762963 0.17481683 -0.09635273 0.20994875 -0.08811082 -0.07795212 0.013475454 0.191743
0.15849361 0.17519256 0.17371748 0.22424762 -0.010457614 -0.2777348 0.2027383 -0.07235942
-0.32071754 -0.028864773 0.3384024 0.17290688 0.092197336 0.14021564 -0.11178679 0.030753974
-0.11987584 -0.051429436 -0.1259704 0.20676152 -0.04383418 -0.084601186 0.03782244 -0.13824527
0.21557039 -0.08808587 -0.04510638 0.32584488 -0.04703026 0.2397566 0.113392495 0.055098392
0.34121713 -0.016437596 -0.12614575 0.24418296 0.15303744 -0.0663331 -0.00056008896 -0.029299615
0.11058558 -0.31611216 0.105701424 -0.23072387 0.1834112 0.2055297 -0.12408979 0.07119624
-0.16136947 -0.37793607 -0.15651189 0.025432 -0.20777288 -0.05330033 0.0005988822 0.19119583
0.21308066 -0.03245247 0.10636865 0.124169156 0.14711672 0.15464383 -0.047377016 0.109746985
0.32983083 -0.015316513 0.36699784 -0.011242859 0.26181695 0.13091063 0.1168396 -0.10503942
0.05436473 0.31452832 -0.11075261 -0.159305 0.06740014 0.3268383 0.23783393 -0.23063053
-0.0010747041 0.06741285 -0.18345046 0.06375285 0.24315278 -0.24733184 -0.048174948 -0.29509676
-0.07546141 0.01833324 -0.08302145 0.0062158373 -0.19059819 0.0991729 0.0051805708 0.046435963
0.009927969 0.06406387 0.32662836 0.07816855 0.024325563 -0.010414019 0.06954959 0.064000964
-0.092643596 -0.018787365 0.07660333 -0.21609549 0.09421074 -0.0643596 0.16259232 0.013953903
-0.19284621 -0.03280988 -0.3524588 -0.23788217 0.21073139 -0.20138411 -0.2261878 -0.22251303
0.31557938 0.15661417 -0.07296026 0.12410742 0.23216416 0.23496221 0.23318222 -0.10953908
0.12353985 0.36908367 0.18995792 -0.19965559 -0.1430826 -0.1527831 -0.2968629 0.024653763
-0.055487942 -0.21690495 -0.21595012 -0.046170574 -0.028427755 -0.07377825 0.04510415 -0.27479556
-0.054758985 0.13451007 -0.13118258 -0.06928824 0.15852182 0.08248904 -0.09631935 -0.2376546
0.2904391 0.2968067 0.2853415 -0.042471144 0.026637122 0.282304 -0.2018091 -0.1186502
0.041341666 -0.1402025 -0.22703762 0.24689253 0.14846255 -0.2930075 -0.09452019 0.18477646
-0.23969917 -0.18475859 0.2534957 0.16481952 0.046522275 0.22249939 0.028000535 0.3779732
-0.07063958 -0.04881585 -0.20019843 0.13227451 0.11842931 -0.18319431 0.15324022 0.037552953
00000000: 6e2d cabd e976 8b3e 3041 ac3e 0645 083d
00000010: 1476 23be 8072 3c3e 28cf 56be f093 873d
00000020: bcd0 663e 9059 143e c3cc 17be edd0 f93c
00000030: 5d81 96be 8b5e 4f3d 4e6f 233e 1b9c 1f3e
00000040: 8a9b c9bd 0c67 4e3e 5917 3b3e 0718 52be
00000050: 9937 5f3e fe83 f9bd 2716 cb3d 813f 033e
00000060: 52f9 2a3e 7524 1d3e 2c9e 6f3e a346 903d
00000070: e0b9 ea3d df61 91be dc79 71be 483b c2be
00000080: 6d90 313e d947 603e 9f2b ddbd 23be 173c
00000090: 7f7a 9a3b 703a 40be ec48 17be 30ac bbbe
000000a0: 914d 603e 7020 1fbb e2c3 463e a819 ffbd
000000b0: 1cec 0b3c 17d8 21bc bc88 aabe 5691 8ebe
000000c0: 2c83 5b3e 61b8 533e 1a83 11be 6649 003e
000000d0: bdeb d3bd 0a08 973e 26ed cd3d cf1b 2ebe
000000e0: 0606 a83e e67d a8bd 82e1 96be 9fd2 36bd
000000f0: 0569 e63d 7038 883e f851 d43c bc19 7e3e
00000100: fb21 403e 2f03 333e 9554 c5bd cefc 563e
00000110: 7273 b4bd 5ca5 9fbd 27c8 5c3c 4758 443e
00000120: 264c 223e ae65 333e ffe2 313e 2ba1 653e
00000130: 6a56 2bbc 4133 8ebe a19a 4f3e 2d31 94bd
00000140: 1735 a4be d175 ecbc 1443 ad3e 800e 313e
00000150: f5d1 bc3d b094 0f3e 79f0 e4bd c2ef fb3c
00000160: 7781 f5bd aca7 52bd 62fe 00be 4bb9 533e
00000170: 788b 33bd 6343 adbd b4eb 1a3d 2b90 0dbe
00000180: 7cbe 5c3e 5d66 b4bd 78c1 38bd 24d5 a63e
00000190: cda2 40bd c182 753e 533a e83d daae 613d
000001a0: 03b4 ae3e 23a8 86bc 5a2c 01be 190b 7a3e
000001b0: d9b5 1c3e a6d9 87bd efd2 12ba bf05 f0bc
000001c0: b17a e23d 74d9 a1be fd79 d83d e142 6cbe
000001d0: 25d0 3b3e 6176 523e ca22 febd 56cf 913d
000001e0: 0a3e 25be d680 c1be a744 20be c556 d03c
000001f0: 6ac2 54be 7251 5abd 4efe 1c3a d7c8 433e
00000200: d131 5a3e e2ec 04bd cfd7 d93d 664c fe3d
00000210: c4a5 163e f45a 1e3e 670e 42bd 07c3 e03d
00000220: 96df a83e 1df2 7abc 24e7 bb3e f833 38bc
00000230: df0c 863e 700d 063e 9a49 ef3d e81e d7bd
00000240: 8dad 5e3d db09 a13e 44d2 e2bd da20 23be
00000250: 1609 8a3d 5a57 a73e bd8a 733e 692a 6cbe
00000260: 16dd 8cba c00f 8a3d 70da 3bbe db90 823d
00000270: 0bfd 783e 8f44 7dbe 1853 45bd ec16 97be
00000280: 838b 9abd 972f 963c 2607 aabd 39ae cb3b
00000290: 2c2c 43be 291b cb3d c7c1 a93b a333 3e3d
000002a0: eca8 223c eb33 833d d53b a73e d516 a03d
000002b0: 6746 c73c 909f 2abc 0470 8e3d f012 833d
000002c0: edbb bdbd f6e7 99bc 35e2 9c3d 2348 5dbe
000002d0: 8ff1 c03d f7ce 83bd 9a7e 263e e99e 643c
000002e0: 7a79 45be a763 06bd 7b75 b4be 6297 73be
000002f0: f8c9 573e a337 4ebe c69d 67be 75da 63be
00000300: 9f93 a13e 775f 203e 306c 95bd 082c fe3d
00000310: 71bc 6d3e ef99 703e 52c7 6e3e 0656 e0bd
00000320: 7602 fd3d 89f8 bc3e 5484 423e 8472 4cbe
00000330: 3f84 12be 2c73 1cbe 6afe 97be b0f6 c93c
00000340: 5347 63bd 551c 5ebe 0722 5dbe 5b1d 3dbd
00000350: 53e1 e8bc 0d19 97bd 21bf 383d 01b2 8cbe
00000360: f54a 60bd 02bd 093e ba54 06be fee6 8dbd
00000370: 8b53 223e 04f0 a83d 1443 c5bd ba5b 73be
00000380: 6fb4 943e 0cf7 973e 4818 923e 39f6 2dbd
00000390: 1836 da3c 268a 903e 0ba7 4ebe e0fe f2bd
000003a0: e155 293d 3f91 0fbe 8d7c 68be 65d1 7c3e
000003b0: 9106 183e 1405 96be cd93 c1bd 0a36 3d3e
000003c0: b373 75be 5b31 3dbe 30ca 813e 73c6 283e
000003d0: 248e 3e3d e1d6 633e 6161 e53c b485 c13e
000003e0: 7cab 90bd 21f3 47bd d100 4dbe f872 073e
000003f0: 118b f23d 4a97 3bbe 01eb 1c3e 20d1 193d

linear.0.bias f4 [256]
0.17880681 0.17239562 0.20403618 0.3139871 -0.06042048 -0.016335705 0.03025604 -0.15915677
0.21874431 0.101167895 -0.20834853 0.2772533 0.07908797 0.27545366 -0.038544957 0.13888998
0.32358053 -0.015234451 -0.26330233 -0.20503826 -0.003496681 -0.006942204 0.23200856 -0.012335779
0.138806 0.17165142 0.3108248 0.18060483 0.24429853 0.24651986 -0.17829633 -0.05592195
0.16445966 0.16050139 -0.1149694 0.18608245 -0.031733945 -0.1976983 0.332527 -0.00432848
-0.30271262 -0.22542074 0.19786046 -0.060490206 -0.07202963 -0.034661558 -0.114659876 0.24656896
0.05911304 0.19748217 0.1643911 -0.0045243385 0.0875369 0.102538034 0.16754836 0.04708693
-0.015167675 0.1401226 0.18906926 0.027682975 0.11154111 0.2762333 -0.09313667 0.23940307
-0.10250448 0.24161895 -0.08801821 -0.02582856 0.09006633 0.15926488 0.11755247 0.32238576
0.16855803 0.239241 0.00035321203 0.29379812 0.024868876 -0.03127693 0.32907382 0.020390127
0.29887554 0.07935558 -0.19394122 0.06250409 0.18229549 0.07943615 -0.075580925 -0.13300662
0.22451103 -0.17433369 -0.24953474 -0.17531198 -0.21683075 -0.19210057 -0.28208977 0.106322095
0.04516935 0.16998187 -0.042156618 0.24875285 0.2984484 0.29653215 -0.1702696 -0.14268762
-0.21950193 -0.012367096 0.123355746 0.13477537 0.12574117 -0.14731108 -0.006716758 -0.13575272
-0.17859882 -0.008746665 0.08812092 -0.18055117 0.3684674 -0.060403842 -0.011857801 0.033371486
-0.12246546 -0.12321606 -0.09211501 -0.12845425 0.044654123 -0.07931252 -0.11569028 -0.1877625
-0.03929637 0.2596354 0.1143906 0.012511816 -0.07681964 -0.054187477 0.29039982 -0.031862073
0.14179078 -0.13164632 0.28248882 0.008729346 -0.23244663 -0.1089772 0.11392005 -0.1679139
-0.054698672 0.02802038 0.069143325 0.3508865 -0.14717795 -0.06605106 -0.11258124 0.022359299
0.2101421 0.1972081 0.23929356 -0.1678691 0.13696504 0.04416691 0.02994755 0.051099773
-0.2425124 0.20357853 0.3029739 0.08681726 0.07238949 -0.25655505 -0.03200094 0.05270004
0.13058831 0.04285771 0.1812289 0.04432421 0.19902982 0.20732652 -0.22972053 0.25507438
0.031768784 -0.1296022 0.20632906 0.053497046 0.25995934 0.20016392 0.08914418 -0.107707605
-0.084464595 0.17216153 -0.036907047 0.3533199 0.14531402 0.23866884 -0.025592348 0.13466701
0.1747362 0.17027971 0.17909664 0.17577429 0.22164962 -0.19724163 0.18361329 -0.26820672
0.2784921 -0.18260506 -0.10046084 0.3045694 -0.089548275 -0.13146293 0.26456305 0.23897058
-0.13508588 0.16560782 0.06358039 0.16769688 0.18044156 -0.084644645 0.056995183 -0.11974367
-0.10853003 0.29428294 0.08889405 0.0016241154 0.15082504 0.14398219 0.054622397 0.18355656
0.29016128 -0.24037154 -0.0786925 0.16906548 0.09697435 0.20030986 -0.07092677 0.29350573
-0.19885787 -0.22215265 0.18528312 0.1935128 -0.12369794 -0.007418579 0.11840899 0.009328959
-0.16648605 -0.11880885 0.051825415 0.24398273 0.10261414 -0.1501676 0.24518196 0.32721493
0.31846172 0.3080563 -0.086791605 0.115089156 0.12666708 0.050634604 -0.1259353 0.2310332
00000000: 2219 373e 7a88 303e dcee 503e ebc2 a03e
00000010: 777b 77bd 75d2 85bc 84db f73c fef9 22be
00000020: 82fe 5f3e 1d31 cf3d 5159 55be 25f4 8d3e
00000030: e0f8 a13d 4308 8d3e 51e1 1dbd 2d39 0e3e
00000040: 59ac a53e eb99 79bc 90cf 86be 8df5 51be
00000050: 9328 65bb 6e7b e3bb a793 6d3e 021c 4abc
00000060: 2923 0e3e 64c5 2f3e 6e24 9f3e 79f0 383e
00000070: 6529 7a3e b46f 7c3e 5093 36be 6a0e 65bd
00000080: 1d68 283e 7a5a 243e 1475 ebbd 668c 3e3e
00000090: 74fb 01bd 6c71 4abe fb40 aa3e ecd5 8dbb
000000a0: 26fd 9abe b2d4 66be ef9b 4a3e 94c4 77bd
000000b0: 4584 93bd 47f9 0dbd ccd2 eabd 937c 7c3e
000000c0: 8420 723d c438 4a3e 2456 283e e740 94bb
000000d0: 8c46 b33d 76ff d13d cc91 2b3e 3ade 403d
000000e0: d781 78bc 4d7c 0f3e 5f9b 413e 68c7 e23c
000000f0: aa6f e43d 736e 8d3e 70be bebd 1426 753e
00000100: deed d1bd f56a 773e e442 b4bd 6b96 d3bc
00000110: b274 b83d 5516 233e 59bf f03d bf0f a53e
00000120: 7a9a 2c3e 98fb 743e 512f b939 b56c 963e
00000130: d0b9 cb3c 3d1c 00bd 5d7c a83e 3209 a73c
00000140: 3706 993e 2e85 a23d 8798 46be 2502 803d
00000150: abab 3a3e 6caf a23d 2cca 9abd e332 08be
00000160: 38e6 653e 8884 32be 0986 7fbe fc84 33be
00000170: e108 5ebe 03b6 44be 126e 90be 66bf d93d
00000180: 7f03 393d ba0f 2e3e 6bac 2cbd 11b9 7e3e
00000190: 3bce 983e 10d3 973e 275b 2ebe b41c 12be
000001a0: 1dc5 60be 5c9f 4abc f0a1 fc3d 8e02 0a3e
000001b0: 4bc2 003e b7d8 16be 4018 dcbb c302 0bbe
000001c0: 9ce2 36be 2c4e 0fbc be78 b43d 68e2 38be
000001d0: c2a7 bc3e 056a 77bd 3947 42bc 8ab0 083d
000001e0: 2ccf fabd b458 fcbd cba6 bcbd 8389 03be
000001f0: 3ee7 363d 9a6e a2bd 07ef ecbd d044 40be
00000200: 3bf5 20bd eeee 843e 9e45 ea3d 5cfe 4c3c
00000210: 9e53 9dbd b0f3 5dbd 49af 943e ce81 02bd
00000220: 9a31 113e 4bce 06be 60a2 903e 8805 0f3c
00000230: 7d06 6ebe 702f dfbd ea4e e93d 9ff1 2bbe
00000240: b70b 60bd ff8a e53c 049b 8d3d 65a7 b33e
00000250: d1b5 16be c745 87bd fe90 e6bd d92a b73c
00000260: 7e2f 573e ecf0 493e 5f09 753e e1e5 2bbe
00000270: 9040 0c3e 5de8 343d 9054 f53c ff4d 513d
00000280: 2c55 78be e476 503e 651f 9b3e 3fcd b13d
00000290: f140 943d 2f5b 83be 6b13 03bd ffdb 573d
000002a0: f1b8 053e 918b 2f3d 1294 393e 4e8d 353d
000002b0: 79ce 4b3e 674d 543e dc3b 6bbe 1c99 823e
000002c0: fc1f 023d 70b6 04be ed47 533e b81f 5b3d
000002d0: 6419 853e c5f7 4c3e 3991 b63d ce95 dcbd
000002e0: c6fb acbd 1d4b 303e d82b 17bd 59e6 b43e
000002f0: 33cd 143e 9b65 743e 0ba7 d1bc 26e6 093e
00000300: 0cee 323e ce5d 2e3e 1c65 373e 2dfe 333e
00000310: 1ef8 623e b6f9 49be 1f05 3c3e 6452 89be
00000320: 8496 8e3e d2fc 3abe 6abe cdbd 85f0 9b3e
00000330: 1665 b7bd 389e 06be cf74 873e b4b4 743e
00000340: f453 0abe 1995 293e 6f36 823d bbb8 2b3e
00000350: acc5 383e 2c5a adbd c873 693d 2b3c f5bd
00000360: fe44 debd 41ac 963e 150e b63d 45e0 d43a
00000370: e171 1a3e 1170 133e bcbb 5f3d 40f6 3b3e
00000380: 0590 943e f523 76be 8929 a1bd 801f 2d3e
00000390: 7d9a c63d 071e 4d3e 0e42 91bd 6246 963e
000003a0: 66a1 4bbe fc7b 63be dcba 3d3e 3828 463e
000003b0: 5855 fdbd 8d17 f3bb 6a80 f23d 7dd8 183c
000003c0: 527b 2abe 0e52 f3bd e346 543d 9cd6 793e
000003d0: 5d27 d23d 89c5 19be fb10 7b3e b788 a73e
000003e0: 6a0d a33e 8eb9 9d3e ccbf b1bd ddb3 eb3d
000003f0: 04b5 013e 3b66 4f3d 2ff5 00be f893 6c3e

linear.2.weight f4 [256, 256]
0.06647532 -0.037960976 0.021754222 -0.08850313 -0.0068816813 0.034130786 -0.059885573 -0.07067057
0.12554541 0.12765168 0.1578283 0.0022354901 -0.0070133316 -0.013251628 0.038693808 0.06330144
-0.11331912 0.08448024 0.017754424 -0.13003084 0.037487846 0.022605607 -0.03861644 -0.030465025
-0.008499558 0.004084248 0.05745139 0.024461824 0.04396637 0.11556951 -0.03726603 -0.08408146
0.021133196 0.007909358 -0.0119661465 0.01962977 -0.1524485 -0.051112983 0.017976146 0.06586989
0.111635305 -0.093885876 -0.08312618 0.041991014 0.005809059 0.056254465 -0.10756992 0.026379377
-0.02282981 -0.0058447076 0.08321258 0.09594598 0.088325076 0.03686186 0.020817507 0.13123912
0.008631138 -0.0062363064 0.050417986 -0.055297356 0.060798783 0.038109418 -0.0075669396 -0.058498226
0.023201903 -0.06022774 -0.042826265 0.046933897 -0.02816601 0.057515405 -0.07364069 0.049439188
-0.014388434 0.08089774 -0.03022727 0.10268916 0.00050640746 0.033441983 0.07081638 -0.065935075
-0.009017859 -0.059715018 -0.05909019 -0.062446874 0.039039344 0.06209502 -0.020044245 0.035195805
0.058699336 -0.13940172 0.020392621 0.037734393 -0.16770971 0.11744546 0.04309234 0.0047162604
0.040895827 -0.010730151 -0.042242233 -0.12644021 0.049224 0.041273605 -0.039211508 0.007820893
0.012059693 -0.026807107 -0.029593434 0.02945747 0.028704116 0.06233592 0.10644313 -0.004221799
0.026168173 -0.054740164 0.06151181 0.06648732 0.052512817 0.02467828 -0.13211384 0.07803805
0.028923325 -0.124017864 0.009058396 0.029340768 0.09285838 -0.046627335 0.021632502 0.06631434
-0.106018946 -0.04449924 -0.021567749 0.025509419 -0.10976797 -0.1283503 0.046824664 0.08200565
-0.127763 0.08742674 -0.015741099 -0.18055351 -0.011158928 -0.04781707 0.06912591 -0.015937734
-0.034888603 -0.0024485553 0.06265489 0.024105163 -0.0416348 -0.115633294 -0.07444772 -0.027704138
0.01864063 0.06787035 0.018672667 -0.122782595 -0.07166364 -0.016764797 0.0005748412 0.044573568
-0.17670123 0.037381288 -0.07998812 0.10110397 -0.0031625016 0.13735642 -0.11482429 0.014438738
0.044518508 -0.07801326 -0.018166637 0.00032992993 -0.06768016 -0.07944586 -0.13192992 0.09588821
0.014705322 0.026830172 -0.025157468 0.0033960734 0.06668485 -0.0051932973 -0.04359283 0.05022081
-0.052949063 -0.17138343 0.04673745 0.0003792636 -0.0404493 -0.035042945 -0.09627575 -0.032585654
0.013360733 -0.06860273 0.085722685 0.014050555 0.030319778 -0.060238052 -0.0011695632 -0.10991361
0.003002026 -0.013152331 0.016498052 -0.036911212 0.04732829 0.033622842 0.03328681 -0.041744363
0.08471653 -0.06999886 -0.13315208 0.010736866 0.09525597 0.026132312 -0.008073381 -0.1197042
-0.0059377016 -0.0068722665 -0.022526685 0.00345246 0.09608665 -0.038007855 0.07989592 -0.045676526
0.054294556 -0.016724456 0.02235833 0.12633628 0.0038897798 0.09875601 0.026504172 0.046881545
-0.088293195 0.020221762 0.108878754 -0.057518955 -0.010929389 -0.008637156 0.042421844 -0.0154332
0.036306866 0.08512874 -0.03090681 -0.004343152 0.028062647 0.0010844812 0.0036275678 -0.0075726844
0.012422955 0.11298158 -0.047282074 -0.0831845 0.009593223 -0.010740913 -0.064202875 0.019927813
00000000: 3624 883d f87c 1bbd e935 b23c 2141 b5bd
00000010: ba7f e1bb b9cc 0b3d 934a 75bd bbbb 90bd
00000020: fa8e 003e 1fb7 023e be9d 213e 4d81 123b
00000030: 17d0 e5bb 5b1d 59bc 667d 1e3d 2fa4 813d
00000040: db13 e8bd fa03 ad3d ba71 913c ce26 05be
00000050: db8c 193d 652f b93c 462c 1ebd ca91 f9bc
00000060: bb41 0bbc 28d5 853b 2652 6b3d 2a64 c83c
00000070: 1516 343d b5af ec3d 44a4 18bd e732 acbd
00000080: 861f ad3c 4096 013c a80d 44bc 9dce a03c
00000090: 761b 1cbe d95b 51bd b642 933c cbe6 863d
000000a0: 0da1 e43d 3d47 c0bd 0f3e aabd c5fe 2b3d
000000b0: eb59 be3b 156b 663d 9e4d dcbd 9019 d83c
000000c0: 9505 bbbc f684 bfbb 5b6b aa3d 537f c43d
000000d0: c7e3 b43d 76fc 163d 7a89 aa3c 8c63 063e
000000e0: 9e69 0d3c ee59 ccbb 1783 4e3d 7b7f 62bd
000000f0: 2508 793d 9f18 1c3d 17f4 f7bb d69b 6fbd
00000100: eb11 be3c 5db1 76bd 986a 2fbd c23d 403d
00000110: 67bc e6bc 4695 6b3d eed0 96bd bf80 4a3d
00000120: 77bd 6bbc b7ad a53d 2e9f f7bc b24e d23d
00000130: 6ec0 043a 76fa 083d 2e08 913d f808 87bd
00000140: a4bf 13bc bc97 74bd 8e08 72bd 4bc8 7fbd
00000150: b8e7 1f3d 5957 7e3d d433 a4bc 7a29 103d
00000160: b76e 703d 53bf 0ebe 6d0e a73c 618f 1a3d
00000170: 18bc 2bbe 3f87 f03d 9881 303d dc8a 9a3b
00000180: 6282 273d 84cd 2fbc 3106 2dbd 8b79 01be
00000190: 1b9f 493d 830e 293d 3f9c 20bd 3423 003c
000001a0: 0596 453c 949a dbbc ee6d f2bc cb50 f13c
000001b0: e524 eb3c f353 7f3d dbfe d93d 0457 8abb
000001c0: a35e d63c 3937 60bd cff3 7b3d 812a 883d
000001d0: ae17 573d 1b2a ca3c da48 07be 6ad2 9f3d
000001e0: 9cf0 ec3c 14fd fdbd ab69 143c 0d5c f03c
000001f0: 892c be3d 4efc 3ebd a536 b13c d0cf 873d
00000200: 7620 d9bd d644 36bd d9ae b0bc 21f9 d03c
00000210: 08ce e0bd 436e 03be 38cb 3f3d 94f2 a73d
00000220: 4ed4 02be ca0c b33d 7af3 80bc 05e3 38be
00000230: f0d3 36bc d5db 43bd e391 8d3d da8f 82bc
00000240: 5ae7 0ebd f177 20bb 3551 803d 3178 c53c
00000250: 4189 2abd 26d1 ecbd 0c78 98bd caf3 e2bc
00000260: 3cb4 983c 9cff 8a3d 6cf7 983c 7175 fbbd
00000270: 63c4 92bd 5456 89bc f1b0 163a c692 363d
00000280: 2bf1 34be 1f1d 193d d0d0 a3bd 990f cf3d
00000290: f941 4fbb 29a7 0c3e ff28 ebbd 7590 6c3c
000002a0: 0a59 363d 6bc5 9fbd 33d2 94bc 72fa ac39
000002b0: e59b 8abd 83b4 a2bd a318 07be 0a61 c43d
000002c0: 97ee 703c f3ca db3c 0917 cebc a890 5e3b
000002d0: 1192 883d 892c aabb 658e 32bd 56b4 4d3d
000002e0: 1ee1 58bd 237f 2fbe c56f 3f3d e6d7 c639
000002f0: 2aae 25bd 3189 0fbd 382c c5bd 8978 05bd
00000300: fae6 5a3c 977f 8cbd 608f af3d 4d34 663c
00000310: 2f61 f83c 2dbc 76bd 074c 99ba 631a e1bd
00000320: a3bd 443b e07c 57bc ec26 873c 3630 17bd
00000330: 4fdb 413d 1bb8 093d c057 083d 23fc 2abd
00000340: dc7f ad3d 905b 8fbd 0559 08be aee9 2f3c
00000350: 9015 c33d 6e13 d63c 3746 04bc 7a27 f5bd
00000360: 0d91 c2bb c030 e1bb e289 b8bc ab42 623b
00000370: 14c9 c43d 20ae 1bbd 79a0 a33d 4f17 3bbd
00000380: f863 5e3d ba01 89bc d128 b73c 4c5e 013e
00000390: adeb 7e3b 9740 ca3d 471f d93c dd06 403d
000003a0: 10d3 b4bd 1ca8 a53c d3fb de3d ff98 6bbd
000003b0: 2e11 33bc dc82 0dbc 87c2 2d3d 88db 7cbc
000003c0: 82b6 143d fa57 ae3d 4730 fdbc 0051 8ebb
000003d0: a3e3 e53c 2725 8e3a 7dbc 6d3b 4824 f8bb
000003e0: a689 4b3c e362 e73d d9aa 41bd a35c aabd
000003f0: e52c 1d3c a8fa 2fbc cc7c 83bd a73f a33c

linear.2.bias f4 [256]
0.008327566 0.03866241 0.043404333 -0.016781231 0.015939562 0.029800013 0.05883783 0.12466057
-0.0714287 0.02526368 -0.024629664 0.061012566 0.027672013 -0.045065872 0.044182114 0.013921313
0.008583037 0.0039412803 -0.022277182 -0.0538072 0.08624687 0.09508434 0.12342221 0.045068644
0.043398514 -0.00053985603 0.03949268 -0.06720877 0.033264123 0.07556968 0.12987572 0.020587102
-0.008068226 0.05032859 0.03312979 -0.06944783 -0.039504495 -0.062754065 -0.055035908 -0.0011251573
0.03106558 0.031084782 -0.033269424 0.0030436732 0.023876708 -0.06816024 0.06317507 -0.02716012
-0.034633454 0.08147423 0.046031456 0.030486232 -0.011973369 -0.026465485 0.05804163 -0.020723281
0.11519242 -0.026471017 0.082754895 0.021950683 0.062825754 0.07924728 -0.00694842 0.044163782
-0.011996454 -0.040111914 0.06260804 0.08116619 -0.022315783 0.04966663 0.08196663 0.013824672
-0.016002983 0.08574431 0.035642706 -0.03656983 -0.009410883 -0.029274583 0.034641773 0.06122844
0.0051667932 0.012218621 0.10231867 -0.017702231 0.0499098 0.023724219 -0.028735975 -0.042729218
0.04866769 -0.0076335054 0.073109575 0.03709131 -0.026066937 0.029526979 0.023455212 0.02904353
-0.041288707 0.013233791 0.0006812323 -0.080616996 -0.03768239 0.015498383 0.048494555 0.003191432
-0.06504865 0.020174772 0.05661767 0.0736494 0.0032409013 0.023863386 -0.04649737 0.024494901
0.03569876 -0.011632112 -0.10419992 0.042801745 -0.010699517 -0.040088456 0.033256438 -0.021936752
0.05291087 0.093566574 0.04200072 0.047385078 0.12697414 -0.0011295353 0.0018675423 0.034310173
0.06555086 0.046652827 -0.049382176 0.0513519 -0.029164936 -0.012734546 0.011591994 0.12064206
0.023468412 0.015440469 -0.029690525 0.0073422794 0.113925256 0.033696104 0.005038454 -0.047486376
-0.005539857 0.001867771 -0.02320653 0.02390271 -0.037761275 0.024458157 0.117071845 0.046915032
0.05164723 -0.04172893 -0.14743626 -0.039386384 0.013934816 0.018858615 0.08854374 -0.0268158
-0.052658226 0.021221034 0.051751036 0.018073538 -0.006295056 0.045012534 0.04122489 -0.064744875
-0.001820897 -0.060078084 -0.11340071 0.011578332 -0.038963072 0.033017423 0.01986735 0.07794294
0.013411317 -0.004700855 0.043188408 0.04224151 -0.01621528 0.067114525 0.013590966 0.05696132
-0.001904991 -0.047348868 0.03202936 -0.05658953 0.050492313 0.048106916 0.08964045 0.049566474
0.0598103 -0.0043533384 0.09142081 0.022693126 0.0017178291 -0.094346985 -0.085208155 -0.022885934
-0.10493075 0.09237206 -0.0041121617 -0.057674658 0.0010536589 0.059057016 0.023901435 0.043135807
0.087761745 -0.050111987 -0.0372996 0.021720454 -0.031303518 -0.016125103 0.011839889 0.10578935
0.118420266 -0.07160204 -0.0038145345 0.075205475 -0.04348566 0.022846991 0.0030632901 0.031066233
-0.061090533 -0.04475052 -0.072805144 -0.06583799 -0.037239406 -0.052629177 0.018109849 -0.04422259
0.054536816 0.05984889 0.004966005 -0.044169843 0.027071834 0.05705048 0.081523076 -0.037107814
0.03754132 0.02588319 -0.010152406 -0.023072666 -0.026839236 -0.023806605 0.07683164 0.03232192
0.0034601127 0.09557726 0.014423287 -0.040680833 0.0036368659 0.045288723 0.1305249 0.012221521
00000000: 5870 083c 7a5c 1e3d bec8 313d cb78 89bc
00000010: af93 823c 281f f43c f0ff 703d 0a4e ff3d
00000020: 3649 92bd c7f5 ce3c 26c4 c9bc 50e8 793d
00000030: 6bb0 e23c fe96 38bd 4ef8 343d 3816 643c
00000040: de9f 0c3c db25 813b a37e b6bc f064 5cbd
00000050: 33a2 b03d 94bb c23d c9c4 fc3d e699 383d
00000060: a4c2 313d 2085 0dba 14c3 213d c0a4 89bd
00000070: f63f 083d 47c4 9a3d 24fe 043e 48a6 a83c
00000080: 9830 04bc 5a25 4e3d 1ab3 073d aa3a 8ebd
00000090: 77cf 21bd 3485 80bd 556d 61bd 047a 93ba
000000a0: 3e7d fe3c 83a5 fe3c 8545 08bd 5d78 473b
000000b0: 1699 c33c 9997 8bbd ee61 813d e67e debc
000000c0: cfdb 0dbd f6db a63d 7b8b 3c3d 43be f93c
000000d0: f32b 44bc 25ce d8bc 0fbd 6d3d dfc3 a9bc
000000e0: 01ea eb3d bfd9 d8bc 667b a93d ebd1 b33c
000000f0: caaa 803d 664c a23d 92af e3bb 15e5 343d
00000100: c68c 44bc 644c 24bd a538 803d 763a a63d
00000110: 97cf b6bc 3c6f 4b3d 1fde a73d e180 623c
00000120: b018 83bc b69a af3d 16fe 113d 3fca 15bd
00000130: 1b30 1abc 40d1 efbc 88e4 0d3d acca 7a3d
00000140: 344e a93b 9c30 483c 738c d13d 4504 91bc
00000150: 386e 4c3d 4b59 c23c b567 ebbc d504 2fbd
00000160: c657 473d 7c22 fabb 79ba 953d 0fed 173d
00000170: 548a d5bc 90e2 f13c 2525 c03c b2ec ed3c
00000180: 591e 29bd 8bd2 583c ba94 323a 861a a5bd
00000190: da58 1abd eeec 7d3c 3aa2 463d 5827 513b
000001a0: 3a38 85bd 9045 a53c eee7 673d 7fd5 963d
000001b0: 4d65 543b 267d c33c 0774 3ebd 88a9 c83c
000001c0: dd38 123d 9d94 3ebc c566 d5bd e250 2f3d
000001d0: 074d 2fbc cb33 24bd e737 083d b4b4 b3bc
000001e0: 12b9 583d d59f bf3d f208 2c3d db16 423d
000001f0: 8205 023e ea0c 94ba 52c8 f43a d388 0c3d
00000200: 873f 863d 0917 3f3d f744 4abd 5f56 523d
00000210: 4eeb eebc 8fa4 50bc 59ec 3d3c 2f13 f73d
00000220: d440 c03c 05fa 7c3c 8b39 f3bc 8197 f03b
00000230: a551 e93d ed04 0a3d 9e19 a53b 1381 42bd
00000240: b087 b5bb ffcf f43a 9f1b bebc 9ecf c33c
00000250: 91ab 1abd 795c c83c 5dc3 ef3d fa29 403d
00000260: 0c8c 533d f4eb 2abd 88f9 16be 9e53 21bd
00000270: db4e 643c 627d 9a3c 6c56 b53d cfac dbbc
00000280: 27b0 57bd bcd7 ad3c e5f8 533d f50e 943c
00000290: c246 cebb 105f 383d 6edb 283d f698 84bd
000002a0: 2aab eeba 7014 76bd a23e e8bd 0bb3 3d3c
000002b0: be97 1fbd 473d 073d dac0 a23c 8ca0 9f3d
000002c0: 24bb 5b3c a109 9abb 54e6 303d 6f05 2d3d
000002d0: e8d5 84bc 5773 893d a5ac 5e3c 4650 693d
000002e0: e4b0 f9ba e3f0 41bd 3831 033d 6cca 67bd
000002f0: 07d1 4e3d c20b 453d 6a95 b73d 3706 4b3d
00000300: a5fb 743d 73a6 8ebb d53a bb3d efe6 b93c
00000310: c828 e13a fe38 c1bd 9d81 aebd 487b bbbc
00000320: efe5 d6bd 902d bd3d 50bf 86bb 433c 6cbd
00000330: ed1a 8a3a c5e5 713d f1cc c33c 2caf 303d
00000340: 6ebc b33d 3a42 4dbd 77c7 18bd 18ef b13c
00000350: 1e38 00bd cb18 84bc 18fc 413c 16a8 d83d
00000360: 5386 f23d 17a4 92bd 45fd 79bb 5405 9a3d
00000370: 051e 32bd 9d29 bb3c 7bc1 483b 9d7e fe3c
00000380: 113a 7abd 524c 37bd dd1a 95bd 11d6 86bd
00000390: 5988 18bd b191 57bd 1b5b 943c bf22 35bd
000003a0: ff61 5f3d 1c24 753d dfb9 a23b 70eb 34bd
000003b0: c0c5 dd3c c4ad 693d 92f5 a63d 5dfe 17bd
000003c0: edc4 193d fc08 d43c 4756 26bc e302 bdbc
000003d0: f5dd dbbc 1206 c3bc e859 9d3d fd63 043d
000003e0: 0fc3 623b 03be c33d a64f 6c3c f2a0 26bd
000003f0: 7c58 6e3b ab80 393d 52a8 053e c63c 483c

linear.4.weight f4 [6, 256]
-0.1296474 -0.17396502 -0.16023536 0.20099074 0.18380682 -0.055775087 0.17688495 -0.1476785
-0.16816835 0.12186883 0.11962429 -0.119400926 -0.16393581 -0.18033202 -0.17173427 -0.14415485
-0.12716489 -0.16512077 -0.1882761 0.027344989 -0.17180465 0.21162166 0.20889753 0.0664416
-0.1931286 0.1269986 0.104419775 0.16024655 -0.07092376 -0.2040984 -0.22508153 0.07913946
-0.20166431 -0.13391908 0.09554646 0.16085024 -0.19197159 0.035381403 -0.082777336 0.07673877
-0.18221341 0.108204246 0.21820666 0.1065626 -0.015356027 0.07480193 -0.2239977 -0.19068082
-0.20050097 0.105069585 -0.22284985 -0.24052043 -0.011445936 -0.22415328 -0.20783375 0.23759604
-0.045939542 0.044145346 0.096474655 0.10263698 -0.12503576 0.16015527 0.19864975 0.163507
-0.10812915 -0.1705018 0.18002494 0.1546214 -0.13988297 -0.14075054 -0.19989534 0.1213481
0.14944315 -0.19315386 0.19657095 -0.15690272 0.08653552 0.12141625 -0.20139046 0.20688502
-0.086985946 0.10497267 0.19282085 0.13081916 -0.18765852 -0.15576869 -0.0053564236 -0.16097856
-0.19820811 0.021167241 -0.18252341 0.0471913 0.13916242 0.08560875 0.13387018 -0.17421252
-0.22880225 0.19379266 -0.085420586 -0.19745141 -0.22070481 0.17679831 0.18924735 -0.18728985
0.11745409 0.20398806 -0.14384802 0.20100161 0.14274994 -0.14860563 -0.19584803 0.16295518
-0.13249193 0.16621809 0.19689977 0.22368395 -0.10620382 0.18696795 -0.07528798 0.06539204
-0.22584404 -0.05958048 -0.044570103 0.13144211 -0.13334683 -0.08271199 0.23659411 0.1866604
0.12839715 -0.103107825 0.007887434 0.0603022 0.17245808 0.22582693 -0.1729589 0.21631332
0.08330988 -0.12366608 -0.06720926 -0.19452427 -0.14714292 0.21333337 -0.101939954 -0.025407635
-0.11839497 -0.2524485 -0.0934078 0.047618315 0.064234346 0.12718658 -0.22213906 -0.188376
-0.18766567 0.060652137 0.014128005 -0.060599484 0.21327959 -0.15520972 -0.1978844 0.08006003
0.20040192 0.17963079 -0.06121088 -0.15285845 0.04181015 0.13754196 -0.16545698 0.13975002
0.17398933 -0.012026022 -0.07107112 -0.089612715 0.03329802 0.036991257 -0.093187615 0.17386717
-0.18155055 -0.16695654 -0.10138257 0.14563477 -0.16621234 -0.10885271 -0.08162933 -0.13226733
-0.07490539 -0.15788737 -0.01428355 -0.16857602 0.007822955 0.13851573 0.16443929 0.20709674
-0.20967436 0.15424578 -0.12466519 -0.12642294 0.16533321 0.1526411 -0.22012952 0.19428076
0.20421775 0.17081569 0.22335877 0.073279925 0.17142685 0.13722315 0.060633607 -0.08481549
-0.18162142 0.111388065 -0.20655517 -0.088971846 -0.23788814 0.18051942 -0.22191682 -0.20077562
-0.18154623 0.13958098 -0.038061924 -0.123262554 -0.007434076 0.10017132 0.20139918 -0.10049791
0.18704976 0.1468642 0.09733132 0.12379544 0.12228366 -0.09314783 -0.11931738 0.22415152
-0.04913357 0.20758474 0.21076332 0.18767168 -0.20501634 0.17472002 -0.12390353 0.033848666
0.19937356 -0.17070714 -0.18671499 0.06458127 0.06726211 -0.20003708 0.17951694 0.0928342
-0.23537663 0.23338783 -0.029601239 0.22963665 -0.13953866 0.21684898 -0.19243748 0.23895012
00000000: 4ac2 04be e323 32be bd14 24be 84d0 4d3e
00000010: db37 3c3e 6b74 64bd 5421 353e 0839 17be
00000020: 5334 2cbe 5d96 f93d 94fd f43d 7988 f4bd
00000030: cade 27be f5a8 38be 1cdb 2fbe 549d 13be
00000040: 8337 02be 6b15 29be 73cb 40be 9902 e03c
00000050: 8fed 2fbe 59b3 583e 3ce9 553e 8912 883d
00000060: 81c3 45be ec0b 023e 09da d53d ac17 243e
00000070: 7a40 91bd 2cff 50be c67b 66be df13 a23d
00000080: 1781 4ebe 1522 09be ddad c33d edb5 243e
00000090: 3394 44be 17ec 103d 2a87 a9bd 3729 9d3d
000000a0: 2796 3abe 309a dd3d 9171 5f3e 7e3d da3d
000000b0: d897 7bbc c131 993d a75f 65be d541 43be
000000c0: 2050 4dbe b92e d73d c032 64be fd4a 76be
000000d0: bc87 3bbc 7088 65be 5fd2 54be 604c 733e
000000e0: 1a2b 3cbd c0d1 343d 8194 c53d 5633 d23d
000000f0: 6009 00be beff 233e d76a 4b3e 616e 273e
00000100: d172 ddbd 0698 2ebe 7558 383e 1355 1e3e
00000110: 7b3d 0fbe e920 10be 5db1 4cbe 5a85 f83d
00000120: a007 193e 20ca 45be e549 493e 1bab 20be
00000130: 8939 b13d 15a9 f83d 4d39 4ebe abd9 533e
00000140: b025 b2bd e9fb d63d d472 453e 75f5 053e
00000150: 8e29 40be d481 1fbe f084 afbb 90d7 24be
00000160: 11f7 4abe ec66 ad3c 6be7 3abe aa4b 413d
00000170: 9880 0e3e a453 af3d 4415 093e c464 32be
00000180: 234b 6abe 9571 463e fdf0 aebd b430 4abe
00000190: 7100 62be 9e0a 353e 0fca 413e e9c8 3fbe
000001a0: c58b f03d 3fe2 503e e54c 13be 5ed3 4d3e
000001b0: 0a2d 123e 132c 18be 638c 48be b9dd 263e
000001c0: f7ab 07be 1335 2a3e 18a0 493e 680d 653e
000001d0: 6381 d9bd 8774 3f3e 9630 9abd 43ec 853d
000001e0: a943 67be a90a 74bd 248f 36bd c398 063e
000001f0: 128c 08be e764 a9bd ba45 723e e723 3f3e
00000200: 8b7a 033e 322a d3bd 4c3a 013c 71ff 763d
00000210: da98 303e 2d3f 673e 231c 31be 3d81 5d3e
00000220: 5f9e aa3d a444 fdbd 02a5 89bd 5f31 47be
00000230: a2ac 16be 1074 5a3e e5c5 d0bd ac23 d0bc
00000240: 1079 f2bd ee40 81be 974c bfbd 6c0b 433d
00000250: 4c8d 833d 333d 023e 6c78 63be a3e5 40be
00000260: 6e2b 40be 606e 783d 2679 673c 2a37 78bd
00000270: f765 5a3e 4cef 1ebe 35a2 4abe 83f6 a33d
00000280: 2936 4d3e 22f1 373e 42b8 7abd ed86 1cbe
00000290: 1f41 2b3d cdd7 0c3e 8e6d 29be a11a 0f3e
000002a0: 422a 323e cb08 45bc bc8d 91bd df86 b7bd
000002b0: 8163 083d 2584 173d 26d9 bebd 3c0a 323e
000002c0: 63e8 39be a8f6 2abe aaa1 cfbd 4821 153e
000002d0: 9133 2abe 2bee debd 472d a7bd 1671 07be
000002e0: ff67 99bd 3aad 21be 8d05 6abc 319f 2cbe
000002f0: da2b 003c 11d7 0d3e c662 283e 2b11 543e
00000300: e0b4 56be 9bf2 1d3e 7750 ffbd 0475 01be
00000310: 1c4d 293e f34d 1c3e a269 61be 89f1 463e
00000320: 751e 513e 4fea 2e3e 29b8 643e c913 963d
00000330: 858a 2f3e 3a84 0c3e f25a 783d beb3 adbd
00000340: f7fa 39be 6d1f e43d 3383 53be df36 b6bd
00000350: f398 73be 15da 383e 2a3e 63be 2098 4dbe
00000360: 41e7 39be 51ee 0e3e d2e6 1bbd 1471 fcbd
00000370: 8d99 f3bb 9f26 cd3d 963b 4e3e d9d1 cdbd
00000380: f989 3f3e 9263 163e a555 c73d 7788 fd3d
00000390: db6f fa3d 4ac4 bebd ac5c f4bd fa87 653e
000003a0: 4840 49bd 1891 543e 57d2 573e 012d 403e
000003b0: ceef 51be cee9 323e 22c1 fdbd e6a4 0a3d
000003c0: 9528 4c3e dacd 2ebe 3732 3fbe 2f43 843d
000003d0: b8c0 893d 85d6 4cbe 4ad3 373e db1f be3d
000003e0: 9206 71be 38fd 6e3e 4c7e f2bc df25 6b3e
000003f0: 39e3 0ebe a90d 5e3e 550e 45be 57af 743e

linear.4.bias f4 [6]
-0.051334087 -0.054240998 0.0660558 0.018235344 -0.08878373 -0.013289288
00000000: b143 52bd cf2b 5ebd 4348 873d 4a62 953c
00000010: 3fd4 b5bd 50bb 59bc
