proj/neuro_net.pt (torch, 288663 bytes, 6 tensors)

linear.0.weight f4 [256, 16]
000000 bd 65 ed 3d e2 9b 14 be 97 ab 2b be 01 b5 13 be
       0.11591671 -0.1451259 -0.16764675 -0.14424516
000010 51 b0 6e 3e d5 38 a7 3e 98 69 a7 bc d8 bd ab 3c
       0.23309447 0.32660547 -0.020436093 0.020964548
000020 dc 25 c9 be 89 66 f3 3d a5 59 8d be 96 af b6 be
       -0.39286697 0.118847914 -0.27607456 -0.35680836
000030 af 18 f4 3d 29 2f 01 bd 15 14 75 bd 7a 34 12 3e
       0.119187705 -0.031539116 -0.059833605 0.1427783
000040 4c ba b6 be ed 4b 99 bd a0 5d 89 be 75 b8 05 be
       -0.35689008 -0.07485185 -0.26829243 -0.13058646
000050 58 5d a0 3d 0e 55 cf 3d 6b 5d af bc 37 ce fb 3d
       0.07830304 0.10123645 -0.02140685 0.12295192
000060 15 7a b3 3e 22 bd 19 3d 0c 60 6a 3e ed 56 a0 bd
       0.3505408 0.037533887 0.22888201 -0.0782908
000070 5d f6 3d bd 5d f5 56 3e 9c 0d 07 3e 47 d6 c4 bc
       -0.04637753 0.20992036 0.13188785 -0.024027957
000080 d8 fa d6 3d 05 11 96 3e d7 a4 b0 3e 43 e3 28 3e
       0.104970634 0.2930986 0.34500763 0.16492943
000090 2c 8c 62 bd 91 0f b7 3e 2c f6 af 3e 9c 5b 37 be
       -0.05530946 0.35754064 0.34367502 -0.1790604
0000a0 f3 0a 7f be 9b 94 04 be a8 2d a5 bd 4e 8e 39 3e
       -0.2490652 -0.12947313 -0.08065349 0.18120691
0000b0 29 2b 80 bd 0e 65 07 be da 57 6c 3e 99 b8 e4 bc
       -0.06258232 -0.13222143 0.23080388 -0.027920054
0000c0 44 b5 09 3e e3 72 b0 bd 1a d7 44 3e 4b 7f f3 bd
       0.13448054 -0.08615663 0.1922268 -0.118895136
0000d0 c9 72 a0 3d a1 21 71 bb 78 8a bc 3d fe 1d 82 be
       0.078343935 -0.0036793726 0.09206098 -0.25413507
0000e0 be 5b b4 3e 9b 5c 80 3e a6 e0 19 be b6 4f d9 3d
       0.35226244 0.25070652 -0.15027103 0.10610907
0000f0 83 71 2b 3e 9e bc ad be 41 35 2b 3e 36 0a 16 3c
       0.1674252 -0.33932966 0.16719534 0.009157708
000100 dd fd 8a 3e 62 3a 69 be fa 82 56 be e3 15 7b bc
       0.27146807 -0.22776178 -0.20948401 -0.015325042
000110 ef 9c 85 3e c9 7f 95 3d f1 4d 02 3d 59 d8 c6 3d
       0.26096293 0.07299764 0.031812612 0.09709234
000120 00 c6 ef 3c e2 85 5d be 5f 9c b0 bd b3 24 09 3e
       0.029269218 -0.21633103 -0.086235754 0.13392906
000130 26 79 0c 3e 8f 5a 91 3e d4 f8 04 3e d9 41 01 3e
       0.1371809 0.28389403 0.12985545 0.12622775
000140 b8 5e a1 3e dd 64 b2 3e 10 45 44 3e 6f d9 b7 3e
       0.31517577 0.34842578 0.1916697 0.35908076
000150 b4 2a 63 3d 21 e9 00 3e db 24 03 3e ee 51 22 3e
       0.055460647 0.12588932 0.12807028 0.15851566
000160 df 78 2d be 55 88 1f be 38 e2 e2 3e 11 3d f5 3d
       -0.1694064 -0.1557935 0.44313216 0.11974538
000170 84 e7 09 bc 93 c0 15 bd 99 f5 62 3e 59 b8 c6 be
       -0.008417014 -0.036560606 0.22164 -0.3881252
000180 a0 14 31 be 80 1b ab 3c f3 01 9a be 1d cf 5a 3e
       -0.17293024 0.020887136 -0.30079612 0.2136807
000190 8f 8b 83 3d eb 02 1a 3e 47 8d 01 3b 8a bb b7 be
       0.06423103 0.15040176 0.0019768046 -0.35885268
0001a0 07 45 9c 3d 3b 3a c8 3d e1 42 8d 3d a9 4e 64 3e
       0.076303534 0.097767316 0.06897522 0.22295631
0001b0 bd 05 46 be fc fd e1 bd c3 01 1d 3e 70 15 5f be
       -0.19338126 -0.11034772 0.15332703 -0.21785522
0001c0 fa ac 11 3e b7 81 a4 bc 93 f4 a1 be 43 6c b0 3e
       0.14226142 -0.020081384 -0.31631908 0.34457597
0001d0 7f 5f a4 3e e6 4f 02 bd 9c d7 42 bd 7c 5a 4c bd
       0.32104108 -0.03181448 -0.047568902 -0.04989098
0001e0 24 91 ed 3d 5f b0 9c be 8e ac 21 bc ac e8 47 be
       0.11599949 -0.3060331 -0.0098678 -0.19522351
0001f0 46 1c 93 be be 48 43 3e 9a 54 f6 bd e8 6e 75 3d
       -0.28732508 0.19070718 -0.12027855 0.05992022
000200 4e ec 8a be 98 d6 f7 3c ab e6 29 be b6 c1 15 3d
       -0.2713341 0.030253693 -0.16591899 0.03656169
000210 95 8e a8 3e c6 9b 35 3d f8 49 09 3e d9 bf 98 be
       0.3292128 0.04433801 0.13407123 -0.29833868
000220 ad f6 b4 3e 81 40 77 be 9c 8a c3 3d 4b 66 e6 3d
       0.3534445 -0.241457 0.09547922 0.112499796
000230 c7 6c 4a 3d c3 37 07 bd c8 5f 25 3e af 19 88 bd
       0.049420144 -0.033012163 0.16149819 -0.06645524
000240 20 52 71 bd 42 1a 09 be f8 ee 62 bd f0 85 84 be
       -0.05891621 -0.13388923 -0.05540368 -0.25883436
000250 99 0d 27 3e 43 f6 c0 bc a3 13 b8 3d 36 e9 7f be
       0.16313781 -0.023554927 0.089881204 -0.24991307
000260 3e 4b bd be 56 b0 77 be ea e1 55 be a8 a9 1f be
       -0.36971468 -0.2418836 -0.2088696 -0.15592062
000270 88 0f 28 be be 40 86 3d 4b 71 93 be b1 3d 8a be
       -0.16412175 0.06555317 -0.28797373 -0.27000192
000280 47 52 78 3e 6e cc ac 3e 4a 9f ec bd 7c c9 25 3e
       0.24250136 0.33749717 -0.115538195 0.16190141
000290 ac 2c 11 3e 3c 8d 5c bd a1 ba 84 bd 2a 0a 59 be
       0.14177197 -0.05384563 -0.06480909 -0.21195284
0002a0 1f bf df bd 2d d4 ad be 4f 63 46 3e 03 9f 85 be
       -0.10925125 -0.3395094 0.1937382 -0.2609788
0002b0 25 05 82 bd 78 7d 89 3d a6 20 56 be 86 f9 54 3c
       -0.063486375 0.067133844 -0.20910892 0.012998944
0002c0 d6 a4 82 3e d3 0c 39 3e 14 ee 46 3d 6a 23 28 be
       0.25516385 0.18071298 0.048566893 -0.1641976
0002d0 90 c7 3c bd 8b 38 eb bd cd 55 96 3d a6 ba d5 be
       -0.046088755 -0.11485394 0.07340584 -0.41743964
0002e0 e9 fd d2 bd bf 5d 89 bc c7 91 ac be c3 f3 26 3d
       -0.10302336 -0.016768334 -0.3370497 0.040759813
0002f0 3a 0d 6f 3e da 0c cb 3d 82 0e 5a 3e c1 96 9a bd
       0.2334489 0.099145606 0.21294597 -0.07548285
000300 c8 35 f0 bd 8b e1 8c 3d 84 56 a3 bd 38 ae ce 3e
       -0.11729008 0.068789564 -0.07975486 0.40367293
000310 cc 13 0e 3d 2b 0f 37 be 76 a6 ee bd a7 73 bc bd
       0.03468685 -0.1787688 -0.11652844 -0.092017464
000320 27 a3 65 be 91 cd c0 3d 4b d8 e3 3e eb d3 2e 3e
       -0.22425519 0.09414209 0.44500956 0.17073028
000330 0e fd 21 3e 01 b2 33 3e 4e 62 35 3d ec f8 90 3e
       0.15819189 0.17548372 0.044283204 0.28314912
000340 f3 78 c7 be f6 55 78 3e e7 a2 9e bd 43 03 a6 3e
       -0.38959464 0.24251541 -0.07745915 0.32424363
000350 a8 8c 78 3c 9a 29 30 3e bc 69 02 3e 12 59 80 3d
       0.015170254 0.1720337 0.12735647 0.06266989
000360 68 8b 41 be cc 7d 3e be df b2 23 3c 7a 7c 25 be
       -0.18900836 -0.18602675 0.009991377 -0.16160765
000370 54 76 bb 3e 74 85 84 be a5 22 9d be 7e 9c 3b bd
       0.36613715 -0.25883067 -0.30690494 -0.04580354
000380 35 59 63 be 69 eb cc 3d 82 f3 b7 3e cb c6 82 3e
       -0.22201999 0.100058384 0.3592797 0.25542292
000390 66 99 41 3e a5 c6 3d 3e ae a2 6f 3d 8d 82 18 be
       0.18906173 0.18532808 0.058504753 -0.14893551
0003a0 24 a3 45 be 74 d6 e1 bc 17 b7 a7 be 16 d2 7c be
       -0.19300514 -0.02756808 -0.32756874 -0.24689516
0003b0 f3 ae 40 bd c4 7c bf bd d7 aa 1b 3d c5 75 4c 3d
       -0.047041845 -0.09349969 0.038004722 0.049917
0003c0 10 d4 2d be ad 1f 9b 3e 2d 69 5f 3e 10 81 60 3e
       -0.16975427 0.30297604 0.21817465 0.21924233
0003d0 ba 7a 62 3e 32 94 39 be 31 00 49 3e 2e ad a1 bd
       0.22117129 -0.18122938 0.1962898 -0.078943595
0003e0 72 87 df be aa 8b 20 3e e2 9f 03 3e 21 d8 8a bd
       -0.43658024 0.15678278 0.12853959 -0.067795046
0003f0 bb 8f b7 3c df e2 79 be a4 7a 8a 3e 67 49 b8 bd
       0.022407403 -0.2440295 0.27046692 -0.089983754

linear.0.bias f4 [256]
000000 2a a2 02 be 46 10 02 bc 5d c9 34 3e ef 4c d0 39
       -0.12757173 -0.00793845 0.17654939 0.00039730172
000010 db e6 c5 3d ab 72 0c 3e 52 e3 12 be ca b9 4c 3d
       0.09663173 0.13715617 -0.14344528 0.04998187
000020 34 eb 79 bd b7 5a ab 3e 84 26 6f 3e 70 a5 30 be
       -0.061015323 0.33467647 0.23354536 -0.1725061
000030 f4 88 11 be f6 e5 6b be b0 b3 b9 3e f4 68 06 be
       -0.142124 -0.23036942 0.36269903 -0.13125974
000040 94 1f 21 3c 88 59 a4 be 21 fe 23 be 6c 30 8e 3e
       0.009834189 -0.32099557 -0.16014911 0.27771318
000050 a3 d6 3e bd e5 d5 a7 bd 65 06 89 bd f3 9a 3c 3d
       -0.046591412 -0.08195094 -0.06690673 0.04604621
000060 64 fb 0f 3e c0 fe ec 3d ad df e0 3d ce c2 7f bd
       0.14060742 0.11572027 0.10980163 -0.06244164
000070 6c 99 71 3d d7 66 2f 3e ed ef 5f 3d 68 d2 66 3e
       0.058984205 0.17129074 0.05467217 0.22541201
000080 82 2f be 3e 53 c7 2a be f5 b3 81 3e 61 0f 82 bd
       0.3714562 -0.16677599 0.2533261 -0.063505895
000090 9e 62 a3 bc c5 78 8f 3c fd b5 bf 3e cb 05 5b be
       -0.019944485 0.017513642 0.37443534 -0.21388929
0000a0 8d a8 2b be 1b 9c 84 3e 58 7b b1 3e c0 cc 78 3e
       -0.16763516 0.2590035 0.34664416 0.24296856
0000b0 ae 8f 3d 3e ba c3 a3 bc f9 7c 47 be 9e c7 04 3e
       0.1851184 -0.01999079 -0.19481267 0.12966773
0000c0 0f ca df bd 11 1e ef bb 72 65 99 3d de bb 32 3d
       -0.109272115 -0.0072972854 0.07490052 0.043636195
0000d0 01 c3 0a 3d 2e 96 35 3e 8a 65 60 3e 7b 21 a5 be
       0.033877376 0.1773307 0.21913734 -0.32252106
0000e0 d3 64 6f ba 7a c2 46 3e 7e 39 57 bd 40 4f 5c be
       -0.00091321504 0.19410124 -0.052545063 -0.21514606
0000f0 24 77 be 3e 10 cf 6b 3c 42 bd 7e be 5c 71 87 be
       0.37200272 0.014392629 -0.24876884 -0.26453674
000100 e1 7f 9a 3e 33 de 5a 3e 43 ee 7e bd cd 3f 7e 3e
       0.3017569 0.21373825 -0.062238943 0.24829026
000110 62 7f 34 3e 93 50 9b 3e db 69 c9 bd 7b 82 50 be
       0.17626718 0.3033491 -0.098346435 -0.20362274
000120 86 e1 b8 3c 9d 69 46 be ab 06 c6 bd f9 95 ec 3d
       0.022568475 -0.19376226 -0.096692406 0.115520425
000130 da a8 17 bc a3 d4 ea bd f5 50 31 3e 8b cd 8e 3d
       -0.009256566 -0.114663385 0.17316039 0.06972798
000140 04 d4 ac bd d8 cf 63 bd 3a 00 39 3e 24 30 a9 3d
       -0.08438876 -0.055618137 0.18066493 0.08261135
000150 f3 b0 00 3e 64 c7 5e 3d 10 4a ab bc cc 78 2b 3d
       0.12567501 0.054389372 -0.02090934 0.041863248
000160 83 e1 02 be 96 60 9a 3e bb 26 4f bc d5 e6 93 3e
       -0.12781338 0.30151814 -0.012643511 0.28887048
000170 55 8a 9c 3e 83 2c 7b 3d ac 89 93 bd 53 be 83 3e
       0.3057429 0.061321747 -0.07203993 0.25731143
000180 73 aa 09 3e 8d b4 a1 3e fb f4 eb 3d 2c 61 49 3e
       0.13443927 0.31583062 0.11521336 0.19665974
000190 11 fb 91 3e f6 4b 9b bd e9 44 2f bd c8 81 30 3e
       0.2851186 -0.07582848 -0.042790327 0.17237008
0001a0 bf d9 6a 3c 02 20 81 3e b5 a7 ff 3b 26 d5 35 bd
       0.014334141 0.25219733 0.0078019747 -0.044392727
0001b0 eb 37 45 bc a7 f2 ee bd 8d fc 94 3d 2c e5 77 3c
       -0.012037258 -0.11667376 0.07274733 0.015130322
0001c0 e1 c3 34 3d ed 27 14 3e f9 b8 bf bd 9d 4e 4a be
       0.044132117 0.14468355 -0.093614526 -0.19756551
0001d0 9b 11 19 be b7 d6 34 be 41 c4 24 3e 3b 5d 3f be
       -0.14948122 -0.17660032 0.1609049 -0.18687908
0001e0 0e c0 0f be 1a d1 77 bc eb 0f 8c be 48 75 99 3e
       -0.14038107 -0.015125537 -0.27355894 0.2997229
0001f0 77 04 d0 bb 09 d1 8a 3e 09 f4 8e 3e 5b ac ee bd
       -0.0063481885 0.27112606 0.2792056 -0.11653968
000200 4b d4 2c 3e 78 67 17 3e c4 65 99 3e d1 0e b3 3d
       0.16877858 0.14785564 0.29960454 0.087430604
000210 bf 3f 93 bd eb 9d 33 3d 93 c4 73 3e 40 26 98 3e
       -0.07189893 0.043851774 0.23805456 0.29716682
000220 79 bc c6 3e 93 30 41 3e ea c5 99 3e 3e ed 92 bd
       0.38815668 0.18866186 0.3003381 -0.071741566
000230 42 30 66 3b 89 05 c5 3d a7 51 21 bd 0d 76 7f 3e
       0.0035123979 0.09620196 -0.03938451 0.24947377
000240 27 58 0e 3e c6 a0 7a be de 3b 60 be e5 39 e5 bd
       0.13900815 -0.24475393 -0.21897838 -0.11192683
000250 0c b7 b4 bd 68 f7 2e 3e 01 44 af bc 8c 44 93 3e
       -0.08823976 0.17086565 -0.021394731 0.28763235
000260 78 b2 62 be 84 20 56 3e 69 ad ac 3e 0b 12 9b 3e
       -0.22138393 0.20910841 0.3372605 0.30287203
000270 e4 72 90 3e 8c da 90 3e 59 da 1f be 3b c4 b6 3e
       0.28212655 0.28291738 -0.15610637 0.35696587
000280 45 a3 49 3e 26 0a 90 be e2 ff 0e be 9c 3f ae 3e
       0.19691189 -0.28132743 -0.13964799 0.34032905
000290 6b 25 14 bd 4c 79 3c bd 2c 78 75 3e 45 d3 54 be
       -0.036168497 -0.046014115 0.23971623 -0.20783718
0002a0 f5 cf b6 3d 66 65 2f bc b2 6c 78 3e 01 23 05 3e
       0.089263834 -0.010705328 0.24260214 0.13001634
0002b0 10 0c 73 be 3f 63 09 3e f9 fb ff 3c fb ac dd 3d
       -0.2373507 0.13416766 0.03124808 0.10824009
0002c0 5a f1 9d bd e5 20 15 3d ee 00 25 3e e2 f5 2e be
       -0.0771205 0.036408324 0.16113636 -0.17085984
0002d0 01 ec 1f be 21 c8 63 bd a8 46 de bc 3a 09 7f 3a
       -0.15617372 -0.05561078 -0.0271333 0.0009728853
0002e0 30 49 b0 bd f8 a5 1d be fa 5c c8 3d bb 4e 65 3d
       -0.086077094 -0.15395343 0.09783359 0.055983286
0002f0 18 40 1d be c6 39 a8 3e 00 da a2 be 60 c4 a3 3b
       -0.15356481 0.32856578 -0.31806946 0.004997775
000300 d7 44 f5 bd e0 52 12 be 6b c9 59 3e 1e e9 9e 3e
       -0.11976021 -0.14289427 0.21268241 0.3103723
000310 6e b2 4b 3e 46 5b 9e 3e 3b 02 a1 3e 31 07 8a 3d
       0.19892284 0.3092901 0.31447014 0.06739653
000320 59 19 92 3e 55 21 73 3d 6d 08 d3 bc 68 fd eb bd
       0.28534964 0.05935796 -0.025760854 -0.11522943
000330 64 25 82 3e 85 01 68 3e 72 04 7f 3e 5e c0 aa 3d
       0.25419152 0.2265683 0.2490404 0.083374724
000340 64 90 80 3e 14 f3 cb 3d a8 26 6c 3e b8 54 60 3e
       0.2511016 0.09958473 0.23061621 0.21907318
000350 75 0c 17 3d 35 f5 e0 3d 0f 40 5c 3e f8 f9 ac 3e
       0.036877114 0.109842695 0.21508811 0.3378446
000360 74 93 c3 3e 93 3b 4e be 9c 6a 7d 3e ac 91 83 3e
       0.38198435 -0.20139913 0.247477 0.25697076
000370 c6 34 c9 3d 30 a1 69 3e a1 41 84 3b 58 8c 88 3e
       0.09824519 0.22815394 0.004036144 0.26669574
000380 8b 04 9d 3e 07 6b 7f 3e 77 c4 ac 3e e5 f1 ad 3d
       0.3066753 0.24943171 0.3374364 0.08493403
000390 6b 1c 02 3e 08 b6 f3 3d c2 cc b9 bd be a7 92 3d
       0.12706153 0.11899954 -0.090722576 0.071609005
0003a0 4d 45 ee 3d b5 19 ea 3d 74 60 a3 3e 75 03 35 3e
       0.11634312 0.114306845 0.31909525 0.176771
0003b0 0f b4 18 be 5b 21 2a bc be 69 e4 3a 03 89 0b bd
       -0.14912437 -0.010383929 0.0017426533 -0.03406621
0003c0 d5 38 0f be 25 21 cc 3e 34 7f a6 3e 7d 89 12 3d
       -0.13986523 0.39869037 0.32518923 0.03577565
0003d0 bc a2 97 3e 3d 4a 65 3e d2 11 ca 3d 90 f8 64 bd
       0.29616344 0.22391601 0.0986668 -0.05590111
0003e0 4e 3d 12 3e 3b c3 01 be 9d 29 f1 3d 69 b2 8e 3d
       0.14281198 -0.12672131 0.11775515 0.06967623
0003f0 5e d3 62 be 69 80 93 3e c0 e4 6a be 17 8d 61 3e
       -0.22150943 0.28808907 -0.22938824 0.22026478

linear.2.weight f4 [256, 256]
000000 0b 34 9f 3c 54 f6 01 3d 02 f5 b2 3d 94 ec f5 bc
       0.019433996 0.031729057 0.08738138 -0.030020036
000010 b5 f2 db 3d c2 da 32 3d 06 c9 a0 bb d1 8f 9d 3c
       0.10739652 0.043665655 -0.0049067764 0.019233616
000020 b0 08 88 bc 74 fb cb 3c 65 bd c1 3d f2 05 fc 3d
       -0.016605705 0.024900176 0.09459952 0.123058215
000030 96 c4 e8 3c 6c de 74 3d 02 66 e4 3d 55 3e 07 3b
       0.028414052 0.05978243 0.11152269 0.0020636518
000040 89 88 31 bd f3 7d 00 be d1 e1 a7 3d d7 df ff ba
       -0.0433431 -0.12548046 0.08197368 -0.0019521666
000050 a7 da d0 3c a9 27 fb 3d 57 9c 02 be 89 03 70 3d
       0.025494887 0.12263424 -0.12754951 0.05859712
000060 8a 67 1c 3d df 31 87 3d 5e 14 9d bd 51 01 d5 bd
       0.03818468 0.06601309 -0.076699 -0.10400642
000070 37 f4 46 bb 7a 13 2b 3c 32 9b 03 3e ce bc c2 3d
       -0.0030357966 0.010441655 0.12852171 0.09508668
000080 ac 8f 65 bc 2a cc a4 3d 28 eb 09 3e f4 52 51 3b
       -0.014011305 0.08046754 0.13468611 0.0031940313
000090 5a c8 8c 3d 71 e6 89 bc b8 e2 05 bd c9 cb d6 bc
       0.068741515 -0.016833516 -0.03268692 -0.02622022
0000a0 fb ce 8a bc c0 46 d7 3d 97 e5 4d 3d 30 82 28 bd
       -0.0169444 0.10511541 0.050267782 -0.04113978
0000b0 ef 19 6e 3d c3 65 71 bd 3f dd 3e bd c9 f0 52 bc
       0.0581302 -0.05893494 -0.046597715 -0.0128747905
0000c0 8e de 50 bd b0 a2 a3 3d f5 ce c6 3d 11 0d 02 be
       -0.050993495 0.079900146 0.09707443 -0.12700297
0000d0 f6 3d fb 3d 95 d7 15 bd c6 52 60 3c 1b 1a ad 3a
       0.122676775 -0.03658255 0.01369161 0.0013206633
0000e0 8c a1 b2 bd 0b 61 b8 3d eb ed 75 3d 22 c9 2d bd
       -0.08722219 0.090028845 0.06004135 -0.042428143
0000f0 36 fd 8d 3c 52 bb c8 3d 44 35 97 3c 83 d0 b3 bd
       0.017332654 0.098013535 0.018458016 -0.08780005
000100 cf 5b 24 bd 90 60 9d bc 58 32 42 bd 96 6e 1e 3d
       -0.040126618 -0.019211084 -0.047411293 0.03867968
000110 47 31 8b bd 70 df 08 3c b8 d0 e7 3c 2c d4 ad 3d
       -0.06796508 0.008354053 0.028297767 0.08487734
000120 fd 03 be 3c 54 bf 14 be 1b ef ed 3d 55 4c 81 3b
       0.023195261 -0.14526111 0.116178714 0.003945867
000130 fb a5 57 bc 16 43 b3 bd fa 60 82 3c f3 01 15 3e
       -0.013162131 -0.0875303 0.015915383 0.14551525
000140 23 67 69 3c 0e 68 5e 3d c1 41 10 3e 8b c0 38 bd
       0.014245781 0.054298453 0.14087583 -0.0451055
000150 93 47 e9 ba 74 05 98 3d 27 b9 49 3d 59 77 ed 3b
       -0.001779782 0.07422915 0.04924884 0.0072468934
000160 60 fb ce bd 2a e6 0e 3d 0c 78 02 3e ba 98 7b 3d
       -0.1010654 0.03488747 0.12741107 0.06142495
000170 ad 25 8b 3d 87 ec 98 bd c7 ed 80 bd f6 d6 dc 3c
       0.067942955 -0.07466989 -0.062953524 0.02695797
000180 28 e8 1c bd 21 1c 2e 3c de 59 6b 3c d0 29 45 bd
       -0.03830734 0.010626824 0.014364688 -0.04813558
000190 d6 99 cb b9 ce ee 28 3d d2 17 42 bc cb 1f c7 3b
       -0.00038833794 0.041243367 -0.0118464995 0.006076788
0001a0 aa 40 bc 3d 89 b5 89 bd e7 05 30 3d a0 3e c5 3d
       0.09192021 -0.06724078 0.04297438 0.096310854
0001b0 55 b4 42 bc 1e 35 01 be 3c a2 de b9 f7 79 a0 3d
       -0.011883815 -0.12617919 -0.00042464014 0.07835763
0001c0 c9 24 95 bc 09 2e 7b 3d 20 a3 89 3d 90 e6 84 3d
       -0.018206017 0.0613232 0.06720567 0.06489289
0001d0 a8 3f 6f 3d e9 0a ce bc d2 9b e6 3d e8 4a 36 3c
       0.058410317 -0.025151687 0.11260189 0.0111262575
0001e0 3e 50 66 3d e8 52 9d 3d 62 f9 81 3c ec b0 b4 3c
       0.05622887 0.07681829 0.015865985 0.02205702
0001f0 e2 da 9e bb c3 1b 0f 3c 34 14 a2 bc 30 62 6d 3d
       -0.00484787 0.008734646 -0.019785024 0.057954967
000200 7a 04 c8 3d 1c 89 59 3d 25 5b 94 bc 28 aa 18 be
       0.09766479 0.053109273 -0.018109867 -0.1490866
000210 5b 9b fb 3d aa e8 ba bd 75 8a d7 3d e8 00 89 3c
       0.12285491 -0.091264084 0.105244555 0.016724065
000220 69 9e 87 3d ef 30 6a bd 08 aa 8e 3d c3 fd fa 3c
       0.06622011 -0.057175573 0.06966025 0.030638581
000230 42 14 9b bc 7e b9 a8 3d d4 2c 02 be a3 6c 37 3d
       -0.018930558 0.08238505 -0.12712413 0.04478134
000240 ff 61 61 bd 5b 1b 45 3d 48 05 24 bd 7e 99 a4 3d
       -0.055025097 0.04812179 -0.0400441 0.08037089
000250 56 6b 91 3c 1f 3b 08 3d 16 cf c7 3a 5e a5 d6 bd
       0.017751377 0.033259507 0.0015244212 -0.1048076
000260 dc e8 71 bd a4 54 9e bd e7 65 48 3d c8 76 76 bc
       -0.059059963 -0.07730988 0.048925307 -0.015042968
000270 87 08 12 3d ed 84 cd bb 5e 2c b3 3d 6d 2b 75 3d
       0.035652664 -0.0062719495 0.08748697 0.059855867
000280 d2 6d 19 3d 54 d4 d0 bd 30 69 50 3d 84 67 f4 3d
       0.03745825 -0.101967484 0.050881565 0.119338065
000290 da e8 b3 37 c0 4a c7 3b 58 5c 28 3d 92 d8 c4 3d
       2.1446893e-05 0.006081909 0.04110369 0.0961162
0002a0 8a 01 06 bd d1 82 19 3e c3 5e bd 3d 1c 3a a5 3c
       -0.03271631 0.14991309 0.0924659 0.02016931
0002b0 25 9b be bd 64 9a 1a 3e 09 e7 07 be 5d e9 81 bd
       -0.09306935 0.15097958 -0.13271727 -0.06343339
0002c0 8f 12 25 be ac da 8c 3d 0b 5c 04 3d 93 41 71 bc
       -0.16120361 0.06877646 0.03231434 -0.014725107
0002d0 41 f9 7b be 67 34 16 3d 24 8c 02 be 98 15 23 3d
       -0.24606802 0.03667107 -0.12748772 0.039815515
0002e0 f1 6d 84 bd fb 33 c7 3d 20 70 2a be 1c d7 3d 3d
       -0.06466282 0.09726711 -0.16644335 0.046347722
0002f0 4f cb 48 bd 40 8e 8c 3d 0f 36 9c bd 9e 2d fd 3d
       -0.049022015 0.068630695 -0.07627498 0.123622164
000300 88 12 2b 3d ec 41 bd 3d ba 07 eb bb e8 ff b3 3d
       0.04176572 0.09241089 -0.007172552 0.087890446
000310 40 e9 03 3e 16 88 1f bd c6 39 08 bc 0b b5 cb 3c
       0.12881947 -0.03894814 -0.0083145555 0.024866601
000320 6c 22 88 bb 88 43 ce 3c 6c c4 08 bc 94 0d 3b bb
       -0.004154494 0.025178686 -0.008347612 -0.0028542029
000330 50 1d ee bc 4c 7a a6 3d a5 e8 b3 bd 55 81 84 bd
       -0.029066712 0.08128795 -0.08784608 -0.064699806
000340 8d 34 f6 3d a3 4d cd 3d 3e 4e 34 3c 41 6e ee 3a
       0.12021742 0.10024574 0.0110049825 0.0018190817
000350 3a ea 38 3d fc c9 0e be ee ab 2f bd f3 b8 99 bc
       0.04514525 -0.13944238 -0.042888574 -0.018764948
000360 1e f5 73 bc b7 48 98 bd 3a 38 b7 3c 2e f8 f4 bd
       -0.014889983 -0.07435744 0.022365678 -0.11961399
000370 e1 97 3d 3d f4 d6 62 3d 59 1e d3 bd c0 b0 e7 3b
       0.04628742 0.055380777 -0.10308523 0.007070631
000380 b8 54 0e 3e 99 30 2b 3d 36 3f 3e be 8d e1 a5 bd
       0.13899505 0.041794393 -0.185788 -0.08099661
000390 57 89 7d be d0 e2 dc 3d 70 3b c0 bd 5b 3f 4b 3c
       -0.24759422 0.107854486 -0.09386337 0.012405242
0003a0 a6 b5 ce 3d d8 18 f5 3a 67 cf 47 be 42 c9 e6 bd
       0.100932404 0.0018699421 -0.19512711 -0.11268856
0003b0 ad 56 fe bd c2 5e 82 3d 3a b5 c7 bc 4f ab 25 be
       -0.12418876 0.0636573 -0.024378408 -0.1617863
0003c0 db 98 a3 bd b4 d3 90 bd af 5a 88 3d 01 79 ab 3d
       -0.07988139 -0.07071629 0.066579215 0.08372689
0003d0 ae ba 8e bd 7b 54 d8 3d 15 5b ae 3d c9 c2 59 bb
       -0.069692 0.10562988 0.08513466 -0.0033227673
0003e0 55 0a c4 3b d1 6d 78 bc 7f bd 9b 3d 14 43 d6 3c
       0.005982677 -0.015162901 0.07604503 0.026155032
0003f0 35 46 b6 3d 3f 27 73 3d 22 58 01 3e 89 d1 9c 3d
       0.0890011 0.0593636 0.12631276 0.07657153

linear.2.bias f4 [256]
000000 41 c7 c4 bc e6 37 14 3d 61 81 62 bc cd f5 43 bc
       -0.024020793 0.03618612 -0.013824792 -0.011960459
000010 86 21 80 bc 55 f4 40 3d 43 e7 e6 3c 5f 3b d9 3c
       -0.015640985 0.047108013 0.028186446 0.026517568
000020 a1 4a 82 3d 4a 82 93 3d 5d 46 7a bd c0 12 94 bd
       0.063618906 0.07202585 -0.06110226 -0.07230139
000030 f9 7c 96 3c 7c 9c 0a 3d 3c e0 47 b8 3f 51 c6 3d
       0.018370138 0.03384064 -4.765413e-05 0.09683465
000040 59 d4 b6 bc c4 62 8d 3d 5d 2e 54 bc d5 26 a0 bc
       -0.022318052 0.06903604 -0.012950507 -0.019549767
000050 01 6a 57 3d 0c c5 99 3c ab 6f a2 3c 7f 0d f7 3d
       0.052591328 0.018770717 0.019828638 0.12063121
000060 55 5e e3 bc ae 05 41 bd 0b 51 83 bc 47 cf 26 bd
       -0.027754942 -0.047124557 -0.016029855 -0.04072502
000070 fc b6 67 3c 68 f5 d6 3c d5 c7 62 bb c8 e9 d2 bc
       0.014142748 0.026240066 -0.0034603972 -0.025746241
000080 3e 82 03 3e 8c 8c 47 bd 1c 5e 2b bd d8 41 67 3d
       0.12842652 -0.04871802 -0.041837797 0.056459278
000090 ea 2c 3f bd 15 12 00 bc 7b 3f 4c 3d f5 8f 8f 3d
       -0.046673693 -0.007816811 0.049865227 0.070098795
0000a0 9d 96 50 3d 9c e7 de 3d 0e 15 ce 3d e9 fd c8 bc
       0.050924886 0.1088402 0.100626096 -0.024535136
0000b0 fb d3 8b 3b 06 ed 49 3d a3 ba f1 3c ea 28 aa 37
       0.0042672134 0.04929831 0.02950794 2.0284631e-05
0000c0 4a 72 dc 3d 6c 84 28 bd 1e d4 7d 3b 5d 78 23 3c
       0.107639864 -0.041141912 0.0038731168 0.009977427
0000d0 8d 8f 1a 3d 20 52 7c bd d4 b9 b2 3c 28 a7 82 bc
       0.037734557 -0.061601758 0.021817125 -0.015948847
0000e0 dc 3e ed 3c 46 be 87 3c 5d 61 13 b9 18 fb f3 3c
       0.028960638 0.016570222 -0.00014055283 0.029782817
0000f0 b4 56 a6 3d 7c b6 88 3c 4f f9 a5 3d fa df 32 3c
       0.08122006 0.016688578 0.081041925 0.010917658
000100 7d 11 9c 3d 3b d4 4b bd 0f ad 1d 3d 07 eb 6a bd
       0.07620523 -0.049762946 0.03849512 -0.057353046
000110 54 cb 50 3d e3 a4 d2 3b fe 47 c2 3d 8e bf 09 3d
       0.05097516 0.0064283474 0.09486388 0.033629946
000120 90 f6 ed 3d e9 e8 b1 bb db 91 18 bd bd 49 98 3d
       0.11619294 -0.0054293764 -0.037248474 0.074359395
000130 c7 0f 22 3d 0a 06 9c 3d 35 fd 37 3c 30 42 be 3d
       0.039565828 0.07618339 0.011229803 0.09289968
000140 72 11 c0 3c 3c 77 3d 3d c5 ad 80 3d 29 ab 12 bc
       0.023445819 0.04625629 0.06283144 -0.008951941
000150 b9 f9 cb 3d c1 6b a1 bd b3 ff ac 3d 70 06 3d bd
       0.0995974 -0.078818806 0.08447208 -0.046148717
000160 fc 45 8c 3d 51 5e e6 3d 00 ba 15 3e f1 67 9a bd
       0.06849286 0.11248458 0.14621735 -0.075393565
000170 5e 6f a3 3c 17 63 51 3d 6a ce 84 bb 9e 24 3d 3c
       0.019950565 0.05111989 -0.004052927 0.011544375
000180 0f fb 26 bc cf 10 a6 3d 74 b6 4f 3d 12 86 b5 bc
       -0.010191693 0.08108675 0.05071111 -0.022158656
000190 14 2b 8d bd 54 d1 1b 3d d8 ad 89 bd f3 e0 11 3d
       -0.06892982 0.038041428 -0.06722611 0.03561492
0001a0 d9 50 e2 bc ff 76 37 bd 15 3f 71 3b 15 27 8f 3c
       -0.027626442 -0.044791218 0.0036811281 0.01747469
0001b0 28 ce fc bc 55 13 b6 bc b0 ab fc bc 39 37 93 3c
       -0.030860022 -0.022226015 -0.030843586 0.017970668
0001c0 6d c3 30 bd 3b 70 83 bd ea 5a 28 bd 48 b8 11 bd
       -0.043155123 -0.06417891 -0.041102327 -0.035576135
0001d0 b2 09 78 3d 02 7b 0b bc cf 51 85 bc 5f 7d e0 3c
       0.06055612 -0.008513214 -0.016274361 0.027403532
0001e0 f2 24 69 bd 73 26 f8 3d 26 0f 0a 3b c3 36 b1 3c
       -0.05692 0.121167086 0.0021066158 0.021632558
0001f0 fb 2a e9 3c e2 5d 8f 3a a6 bb 8e bd ab f4 7b bd
       0.028462877 0.0010938013 -0.06969385 -0.06151263
000200 7b f0 4f 3d 40 bf 2d bd cb 3a 15 3e 66 6c 2c bc
       0.05076645 -0.04241872 0.14573209 -0.010523891
000210 85 be 67 3d 25 22 07 bd 37 07 d4 bb 9b 6e e8 bd
       0.056578178 -0.032991547 -0.0064705866 -0.11349221
000220 fa 82 83 3d ab 1c ec 3c d0 19 74 3d 02 8d 80 bc
       0.06421466 0.028822264 0.05959493 -0.015692238
000230 fc 49 92 3d d8 2a dc 3c 44 af b0 3d 92 f6 f0 3c
       0.07143018 0.026875898 0.08627179 0.029414449
000240 46 74 8f bb b3 19 5d 3c 24 a8 bd 3c 78 ec 05 bd
       -0.0043778745 0.013494897 0.023151465 -0.032696217
000250 dc 90 3d 3c 73 99 a4 3d bc 40 ed 3d f4 d4 12 bd
       0.011570182 0.080370806 0.11584613 -0.03584762
000260 97 3f c5 3c 6a 9e 8c 3d 2a 81 a6 3c 12 c1 2f 3b
       0.024078174 0.068661526 0.020325262 0.002681796
000270 0c c6 fd 3d 03 db b7 3c 59 2c 5e bc 74 35 ca 3c
       0.1239129 0.0224433 -0.013560378 0.024683692
000280 2b 42 ea bb 92 f7 dc 3a 91 c9 b7 3d 5e 51 d5 3d
       -0.007149001 0.001685845 0.089739926 0.1041591
000290 89 af bd 3d f1 b2 d2 3c a7 e3 21 3d 8f 89 4e bd
       0.09261996 0.025720092 0.039523747 -0.050424155
0002a0 13 ab 52 bd ff ed 00 bb 28 27 82 3d 9a c9 83 bc
       -0.05143268 -0.0019673107 0.06355125 -0.016087342
0002b0 a1 8a 57 bd 8a ba c6 3d 2a 04 0e bd 78 52 a9 3d
       -0.05262244 0.09703548 -0.03467194 0.08267683
0002c0 ec e3 7b bd 7a 66 2b 3d dc e0 5d 3c 7f af 5e bd
       -0.06149666 0.041845776 0.01354238 -0.054366585
0002d0 a7 31 50 bc e0 c9 b3 3d 4d 88 28 3b ed 2b a8 bd
       -0.012707151 0.08778739 0.0025716007 -0.08211503
0002e0 59 34 2c 3d 85 77 5c bd 81 44 39 3d 18 17 e2 3b
       0.04204211 -0.05382492 0.045231346 0.0068997256
0002f0 eb 94 e7 3c 5a cc e6 3d ca 74 35 3d 72 42 d9 bb
       0.028269252 0.11269446 0.04430083 -0.0066302354
000300 1c e2 80 3d f1 27 62 3d e9 39 25 bd 66 6b 8d bd
       0.06293127 0.055213872 -0.04033843 -0.0690525
000310 36 f3 6c bd 78 36 98 bd f8 5a 2b bd 3e 41 57 3c
       -0.05784913 -0.07432264 -0.0418348 0.013138114
000320 26 90 b2 3c fb dd f9 3d 8c e5 31 bd 6b c4 c1 bb
       0.021797251 0.122005425 -0.043431804 -0.0059133074
000330 4a 6d 28 3d d6 46 c6 bd 0f 87 72 bd b2 47 03 3d
       0.04111985 -0.0968148 -0.059210833 0.032050796
000340 4f f0 12 be 1b 16 72 3c 4a 45 08 be b6 56 d1 3c
       -0.14349483 0.014775778 -0.13307682 0.025554042
000350 08 d7 62 3d c0 13 28 bc 19 f8 90 3d 9b d2 80 bc
       0.05538085 -0.010258615 0.07078571 -0.015725425
000360 56 3e 6f bc 0d 52 0d 3e 6f 98 d2 bd 54 d1 e3 3d
       -0.014602264 0.13800831 -0.10282981 0.111239105
000370 f5 88 ae bd 12 82 26 bd 0c 6f a0 bc 03 bc df 3d
       -0.08522216 -0.04065139 -0.019584201 0.10924532
000380 2e 89 d4 3c 20 c4 41 3d 8d ef 2d 3e 6f a5 e3 3d
       0.025944319 0.04730618 0.16985913 0.11115538
000390 6f f7 d3 3d ba 30 7b 3d 17 af bd 3c 92 90 b8 bc
       0.103499286 0.061325766 0.023154778 -0.022529874
0003a0 fb 75 36 3d 09 59 9b 3c a8 5f 49 bd 89 39 e6 3c
       0.04454611 0.018963354 -0.04916349 0.028103607
0003b0 b9 37 cc bc 18 ea 76 bd 78 cb f3 b9 68 d6 a4 3d
       -0.024928914 -0.060281843 -0.00046500168 0.08048707
0003c0 94 63 76 3d 4c e5 f9 3c fd 50 cc 3b 9b 87 bd 3c
       0.06015356 0.030504845 0.0062352405 0.02313595
0003d0 5a 4d 07 bd de dd be bc 75 65 17 3c 48 12 f0 3c
       -0.033032753 -0.023299154 0.009240498 0.029305592
0003e0 62 72 21 3e 7d c6 58 3d d9 64 fd 3d 72 f9 46 bd
       0.1576629 0.05292367 0.12372751 -0.048577733
0003f0 bf a8 a7 3d e0 d4 bf 3d 95 49 64 bc a6 25 10 3e
       0.08186483 0.093667746 -0.013933559 0.14076862

linear.4.weight f4 [6, 256]
000000 4f e8 35 3e fb c4 d8 3d 67 6c b4 bc 41 8d 08 3e
       0.177644 0.10584446 -0.022024347 0.13335134
000010 13 78 80 bd 13 d4 44 3e c9 50 4f be d6 13 41 3e
       -0.06272902 0.19221525 -0.20245661 0.18855223
000020 f3 77 2e bc ec a0 3a be 05 0e 78 3e f0 f9 88 3e
       -0.010648715 -0.1822545 0.24224098 0.26753187
000030 ee 9e 55 3e 65 e6 01 be f6 f2 ed 3d 2d 6c 47 be
       0.20861408 -0.12685545 0.11618607 -0.1947486
000040 66 c4 03 be 59 af 63 be 75 91 1b 3e 2c c5 9d be
       -0.12867889 -0.22234859 0.15192206 -0.30814493
000050 20 2a 52 3e e9 92 4c be 95 5d 66 3c 8a d8 46 3e
       0.20523882 -0.19977917 0.014060398 0.1941854
000060 98 25 91 3e 82 14 2f 3e 41 3f 99 be 8d 2b 96 bd
       0.28348994 0.17097667 -0.2993107 -0.073325254
000070 e9 78 6c 3e 80 af 88 be d0 d0 fb bc da 04 5e be
       0.23092999 -0.26696396 -0.030739218 -0.21681538
000080 6d 3d 30 3e cf 81 01 be d2 8b 92 3c bd 64 1e be
       0.17210932 -0.12647174 0.017888937 -0.15468116
000090 78 b0 3b be fc 99 86 3e e9 0e ab 3e bc 95 1a 3e
       -0.18329036 0.26289356 0.33409813 0.15096182
0000a0 91 47 96 3d 96 f6 64 bd f7 96 65 be 9e 45 94 bd
       0.07337869 -0.055899225 -0.2242087 -0.07239841
0000b0 20 b9 51 3e 84 d5 9f bd ab 26 3a be f4 ff 13 be
       0.20480776 -0.07804397 -0.18178813 -0.14453107
0000c0 04 d1 b4 bd b0 29 91 be e7 57 1f be d8 68 07 be
       -0.08828929 -0.28352118 -0.15560876 -0.13223588
0000d0 d2 59 4a be e8 82 36 3e 41 fe b6 bd f4 79 74 3e
       -0.19760826 0.17823374 -0.08935214 0.23874646
0000e0 74 7c ad 3d 2f 3a d2 3d 4c c9 00 3e 81 48 4e 3c
       0.08471003 0.10265004 0.12576789 0.0125905285
0000f0 ed 81 2e be e2 be 64 3e 1d 22 53 be b4 36 c6 bd
       -0.1704175 0.22338441 -0.20618482 -0.096784025
000100 fb 28 9a bd 03 38 96 3d d6 d1 85 3e 71 4d d9 3d
       -0.07527348 0.07334902 0.26136655 0.10610474
000110 b8 4b 23 be db 20 9a bd e7 c0 5d be 78 e0 16 be
       -0.15946853 -0.07525798 -0.21655618 -0.14734066
000120 01 ba 6a be e3 0b 2d be e8 a3 4e 3e ab f0 d0 3d
       -0.22922517 -0.16899066 0.20179713 0.10202154
000130 b2 9c 53 be d5 c0 92 3e cc f5 22 3e 9c 8a a5 be
       -0.20665243 0.28662744 0.15914077 -0.32332313
000140 a3 91 c2 3d 82 a5 52 3e ab 13 83 be 7c 7d 49 be
       0.09500434 0.20570949 -0.25600943 -0.19676775
000150 cc 87 06 3e 68 3f de bd b3 b7 00 be 9c d1 67 be
       0.1313774 -0.108519375 -0.12570076 -0.22638553
000160 07 15 15 3e c9 0b 19 3e dc a9 62 be d0 7b bc 3c
       0.14558803 0.14945902 -0.22135109 0.023008257
000170 37 59 1b be 82 95 ad bd de 66 64 3e 77 6a 6b be
       -0.15170752 -0.08475782 0.22304866 -0.22989832
000180 30 51 6b 3e 45 2a 7c bd ba c3 ed bd ba ce 7e 3e
       0.2298019 -0.06156375 -0.116095975 0.24883547
000190 ab a9 aa 3d 2a 3c 4e bd 97 ce 1f be ff 2e 44 be
       0.08333143 -0.050350346 -0.15606152 -0.19158553
0001a0 16 0a 9e be 90 c6 44 be 26 1a 67 be 45 c2 ba 3d
       -0.3086707 -0.1921637 -0.22568569 0.09119085
0001b0 c4 14 10 be ee 4d 23 3e 83 1a 1b 3e 03 33 d0 bd
       -0.14070421 0.15947697 0.15146832 -0.1016598
0001c0 f5 d7 99 3c 50 d1 a7 bc 39 9e 3b 3e de 64 e3 bd
       0.018779734 -0.02048555 0.18322076 -0.11103223
0001d0 f2 75 f9 3d 59 4c 28 3e 50 39 31 be 66 6f 5e 3d
       0.121806994 0.16435374 -0.17307019 0.054305457
0001e0 ac af 22 3e 4a 9d 8e 3e 78 82 82 3e 4f 8f 22 3d
       0.15887326 0.27854377 0.25490165 0.03968745
0001f0 4e 30 17 be b7 a5 95 be 95 ea 94 3e 6d d0 68 3e
       -0.1476452 -0.29227993 0.29085222 0.22735758
000200 48 b7 63 be 45 b5 1b 3e a0 cf 3f 3e 6b f9 04 3e
       -0.22237885 0.15205868 0.18731546 0.1298577
000210 26 e3 75 be 5e 92 3a be 5c 5e 41 3e 61 86 db bd
       -0.24012432 -0.18219897 0.18883651 -0.1071899
000220 57 43 0a 3e 01 10 d5 3d 29 f0 c4 3d b4 05 ff bd
       0.1350225 0.10403443 0.096161194 -0.1245226
000230 76 75 26 be 5b 42 05 3e b3 dc a9 bd 47 c6 40 3e
       -0.16255745 0.13013594 -0.08294048 0.18825637
000240 0a 68 7e be 57 12 6a bc 01 1f 2d be ab 06 05 3e
       -0.24844375 -0.014286599 -0.16906358 0.12990825
000250 a5 20 eb 3d 7e 64 61 bd cd ec 0d 3d bf da 96 3d
       0.11480836 -0.055027477 0.03464966 0.07365941
000260 a8 1c 97 3e 12 d0 51 be f6 0d 88 3d c0 5c dd 3d
       0.2951405 -0.20489529 0.06643288 0.10808706
000270 ef 4b 33 be 4a 2a 28 3c 39 fa 44 be a2 f2 43 3e
       -0.17509435 0.010263989 -0.19236077 0.19135526
000280 83 7a c6 3c f8 ee f2 3d 62 a7 70 3e 4f 15 46 be
       0.02422834 0.11861986 0.23501351 -0.19344066
000290 ac af 37 be b4 bc e8 3d a9 b9 8e 3e 9d 97 3b 3e
       -0.17938107 0.11364117 0.27876022 0.18319555
0002a0 ef 0f bf bd 51 52 7c be 6c 57 26 be 90 12 92 be
       -0.09329211 -0.24640776 -0.16244286 -0.28529787
0002b0 7d 4c 2b bd 1d 5a 02 3e f3 fe 8c bc 78 f2 3c 3e
       -0.04182099 0.12729688 -0.017211413 0.1845187
0002c0 af c1 fb 3c 4d c0 10 be 88 4c 2e be c5 74 15 be
       0.030732004 -0.14135857 -0.17021382 -0.14595325
0002d0 ae fd 50 be 29 b0 7c 3e b9 39 3b 3e a9 8b 85 3d
       -0.20409271 0.24676575 0.18283738 0.06520779
0002e0 9b ad f7 3d 7e 24 1f be 8c 23 35 be 84 a2 6e be
       0.120936595 -0.15541264 -0.17689341 -0.23304182
0002f0 1c 19 4d 3e bf 9b 42 3e 5f 33 04 3e b8 21 94 be
       0.2002911 0.19004725 0.12910222 -0.28931975
000300 9b f8 1d be 85 72 a9 3d 22 db 93 bd ee eb 78 bc
       -0.15426867 0.08273796 -0.07219531 -0.015192969
000310 3a 0f 68 bd db 59 f9 3d 6d 04 eb bd 3d 95 39 3e
       -0.056655146 0.12175342 -0.114754535 0.18123336
000320 e4 86 f4 3c c0 f8 8f 3e da 0a a1 bd 17 d0 a3 3d
       0.029849477 0.2811947 -0.07863398 0.07998674
000330 75 eb 87 3d f6 9a 28 be be 0f 79 3e 16 19 6a be
       0.06636707 -0.16465363 0.24322411 -0.22861132
000340 51 ca 32 3e 64 81 d0 3c 4d 2f 98 be 63 99 83 be
       0.1745999 0.025452323 -0.29723588 -0.25702962
000350 20 5f 7c 3e ee 65 42 3e f2 48 00 3e 7a db 37 3d
       0.24645662 0.18984196 0.12527826 0.044887044
000360 a5 51 04 3e e4 3a 0f be 00 53 9f be b6 27 08 3e
       0.1292177 -0.13987309 -0.3111801 0.13296399
000370 c5 a7 0a be 95 ba 10 3e 68 66 a7 3d d5 41 6e 3e
       -0.13540561 0.14133675 0.08173829 0.232673
000380 1d e8 83 be 59 36 30 3d ce c8 a3 3e ec 33 9c be
       -0.25763026 0.04302058 0.3198914 -0.30508363
000390 2c 7b 50 3e b3 ba 72 3e 71 0e 17 bd c5 5c 8b 3d
       0.20359486 0.23704033 -0.036879007 0.06804804
0003a0 fe ac 48 be 69 5b a3 3d 66 b5 6b 3e ca 7a a8 3c
       -0.19597241 0.079764195 0.23018417 0.020566363
0003b0 35 bb 7b be 85 41 43 3e 8c 19 86 be 7e d0 99 be
       -0.24583133 0.19067962 -0.26191366 -0.3004188
0003c0 d5 61 81 3e bc 79 62 3e 8f 6d 2d 3e 82 f8 5b 3d
       0.25269952 0.2211675 0.16936325 0.053703792
0003d0 13 13 e4 3d 68 df 95 3e ed e8 24 be b8 06 49 be
       0.111364506 0.29272008 -0.16104479 -0.19631469
0003e0 0b 62 a1 3e e1 62 48 be 3b 18 68 3e 5b bf 7c 3e
       0.31520113 -0.1956897 0.22665493 0.24682371
0003f0 ed 8d 80 be 1c 9c 89 3e 5a b4 0e be 58 b3 5e be
       -0.2510828 0.26876915 -0.13935986 -0.21748102

linear.4.bias f4 [6]
000000 c0 ef a8 bc e8 55 1b bd b7 2e 33 3d 16 7e 54 3d
       -0.020622134 -0.037923723 0.043745723 0.051878057
000010 3a 4f eb bc 96 06 50 3d
       -0.028724302 0.05078753
