proj/new_neuro_net.pt (torch, 288727 bytes, 6 tensors)

linear.0.weight f4 [256, 16]
000000 e0 45 f6 3c 36 12 af bc 37 14 9b 3d 0d ef 68 be
       0.030062616 -0.021370988 0.07572215 -0.2274744
000010 0a 82 6c 3e 76 8f f7 3d 15 04 03 be d1 af c5 bd
       0.23096481 0.1208791 -0.12794526 -0.09652675
000020 ec c0 af 3d c7 fb 7a be 36 0c d9 3c 76 48 51 3e
       0.08581719 -0.24510108 0.02649508 0.20437798
000030 4a 4e 18 be 18 9f 77 3c 38 d6 13 be 6d e0 54 be
       -0.14873615 0.0151136145 -0.14437187 -0.20788737
000040 c0 ad 7c 3d ef 25 55 bd b9 f5 70 be 4a 9f 0f 3e
       0.06168914 -0.05203813 -0.23531236 0.14025608
000050 17 17 c7 bd e8 36 13 3e 68 8c 39 3e 3a be 88 3d
       -0.09721201 0.14376414 0.18119967 0.06676908
000060 af 25 e5 bb 4c 7f 11 bd d5 bd 10 3e a3 f8 7e 3e
       -0.0069930176 -0.03552179 0.14134915 0.24899535
000070 c7 72 46 be e4 84 45 bd 54 6e ee bd 3a 46 26 be
       -0.19379722 -0.048222438 -0.11642137 -0.16237727
000080 08 95 14 be 27 88 7a bd d3 3f 4a be 62 c0 a1 3d
       -0.14509976 -0.061165 -0.1975091 0.07898022
000090 de ca 25 be 6c ab 02 3e 67 19 ed 3d 11 ad a7 3b
       -0.16190669 0.12760705 0.11577111 0.0051170667
0000a0 1d 97 8f bd c5 5e 14 bc 9c 2a 5e 3e 17 60 23 3e
       -0.070112444 -0.009055798 0.21695942 0.15954624
0000b0 d5 4d 56 bd a0 b1 a9 bc 5f d5 51 be cd e1 4b be
       -0.05232032 -0.020714581 -0.20491551 -0.19910355
0000c0 21 ff df bd 0f f6 c5 bd 0e ab 0a 3d ec 65 82 bc
       -0.10937334 -0.096660726 0.033854537 -0.01591774
0000d0 54 28 49 3d 7e cc 2f 3e ac 21 ba bd 23 d9 4d be
       0.049110726 0.17167851 -0.09088454 -0.20102362
0000e0 0c e8 65 3e f2 d7 27 3e 3e d1 19 be d1 c7 3d be
       0.224518 0.1639097 -0.15021226 -0.18533255
0000f0 13 a1 e6 bd 4f 88 19 be 89 92 28 be 0a fa 2c 3d
       -0.11261191 -0.14993404 -0.16462149 0.042230643
000100 ec 82 68 3c d2 87 69 be 74 f3 4d 3d de ca e3 3c
       0.01419137 -0.22805718 0.050281003 0.027806696
000110 08 ef 43 3d f2 65 37 be 47 91 6d be 59 95 df 3d
       0.04783538 -0.17909983 -0.2319995 0.10917158
000120 2a 99 28 3e b6 9b a8 3d c1 4f 99 3d 21 ce 4f be
       0.16464677 0.082328245 0.07485915 -0.20293476
000130 19 49 92 bd 90 5e 5f 3d b4 fe 81 be 9a 6f 37 bb
       -0.071428485 0.05453354 -0.25389636 -0.0027990104
000140 f2 ba 67 3e c6 0f 7a bd 66 8e 0e 3d ed 72 4e 3e
       0.22629908 -0.0610502 0.03480377 0.20161028
000150 f7 ab e0 bd 6f 94 30 be 6c f7 23 3e d6 33 02 be
       -0.109703 -0.17244123 0.16012353 -0.12715086
000160 a4 9d 37 bd 02 ef 82 bb 49 82 f2 3d 86 a0 83 3e
       -0.044828072 -0.003995777 0.11841256 0.25708407
000170 fe 26 3e be 4a ea 75 3e 63 b8 be bd 94 9b 09 be
       -0.18569562 0.24015155 -0.09312513 -0.13438255
000180 fd ce 6a 3e c5 05 1f 3e 39 d8 45 be d6 49 65 3e
       0.22930522 0.15529545 -0.19320764 0.22391447
000190 dd 18 01 3e 71 b6 87 3c 34 8e ec 3d 8a 69 a8 bc
       0.12607141 0.016566487 0.115505606 -0.020558137
0001a0 32 d3 5a 3d ec bc 80 3c 47 70 07 3e 99 17 1f 3e
       0.053424068 0.015715085 0.13226424 0.15536346
0001b0 a3 f3 6e 3e 19 83 4c bd 75 96 38 be 1e 8d a2 3d
       0.23335128 -0.049929712 -0.18026145 0.07937072
0001c0 7e 4d 2c be 78 6c e6 bd 97 bb ad bd 5a 8c 91 bd
       -0.16826436 -0.112511575 -0.084830455 -0.07106848
0001d0 2f ef 3e 3e 46 b2 80 3d 6f fc 18 bc 20 ad 68 3e
       0.18645929 0.06284003 -0.009337529 0.22722292
0001e0 f0 3a a2 bd fa 03 ab bc ca c8 04 be 1c f0 5a be
       -0.07921398 -0.02087592 -0.1296722 -0.21380657
0001f0 1f 46 1d 3e f3 e8 09 be 1a c7 a3 bd 4f 8f 1b 3e
       0.1535878 -0.1346777 -0.0799696 0.15191387
000200 e0 dd 15 3e f9 9e 49 be f3 dd 59 3e 60 6e 29 3e
       0.1463542 -0.1968955 0.21276073 0.16546011
000210 90 3c ef 3d c5 0f 49 be 5a 2b 51 be 4b ef 83 bd
       0.11681473 -0.19634922 -0.20426694 -0.06442126
000220 31 cb 68 3e 3e 0c bc bd 63 eb 2a 3e 6e 54 3b 3d
       0.22733761 -0.091820225 0.16691355 0.045734815
000230 b2 7d e4 bc 3f cb 48 3e 32 75 40 bd c9 f8 25 be
       -0.027891967 0.19608782 -0.046986766 -0.16208185
000240 f1 18 3e be 45 46 24 3d 4f c8 0d be bc 0c 35 bd
       -0.18564202 0.040106077 -0.13845943 -0.044201598
000250 5a d8 31 be 72 37 f1 bd 17 4c 67 3e 59 4a 6a 3e
       -0.17367688 -0.117781535 0.2258762 0.22879924
000260 2b 64 51 3e 5c 3d f6 bd b7 ed 88 bd de ec fa bd
       0.20448367 -0.12023422 -0.066859655 -0.1225221
000270 b6 f6 b9 bc 01 c3 18 be 23 61 0a be e2 97 f1 3c
       -0.022700649 -0.14918138 -0.13513617 0.029491369
000280 38 e0 44 be c5 81 0b be 1b 0e aa bc db 5e fb 3d
       -0.19226158 -0.13623722 -0.02075868 0.122739516
000290 e2 a8 60 be f6 93 41 3d 2e ef 66 3d 16 ab 98 3d
       -0.21939424 0.047260247 0.056380443 0.07454507
0002a0 f9 fd 58 be 8b 75 2f 3e ba b4 18 3e 7f 97 f0 bd
       -0.21190633 0.17134683 0.14912692 -0.117476456
0002b0 ca 5b 53 be f4 b0 16 be 59 f6 e6 3d 66 fb 2b 3e
       -0.20640483 -0.1471594 0.11277456 0.1679512
0002c0 00 2e f3 3c e2 91 70 bd 1e ff 83 be 54 18 88 bd
       0.02968502 -0.058732875 -0.25780576 -0.06645265
0002d0 a4 9f d7 3c 01 8b 3b 3e 51 15 4b 3c 16 72 66 3e
       0.02632124 0.18314745 0.012395219 0.22504458
0002e0 21 0c 0a 3e b0 a4 5b 3e dc 42 50 be 4a 3f 70 3d
       0.1348119 0.21449542 -0.20338005 0.058654107
0002f0 a1 d5 d3 bd 1c 11 27 3e e3 08 b5 bd 03 6f d0 3c
       -0.10343481 0.1631512 -0.08839586 0.02544356
000300 ff ce 64 3e d1 33 46 3d 6d a9 58 3e fb ad 5b 3d
       0.22344588 0.04838926 0.21158381 0.053632718
000310 67 7a 0d 3e 91 1d 01 3e d4 2e 7b 3d c9 90 ad bd
       0.13816224 0.12608935 0.061323956 -0.08474881
000320 07 04 84 3e 1d 60 ec bd db f5 25 bc fd 03 d2 bc
       0.25784323 -0.1154177 -0.010129417 -0.025636667
000330 bf a4 b1 bd ec a6 2c be 7d 8f 10 be 66 77 50 3d
       -0.08674001 -0.1686055 -0.14117236 0.050895117
000340 6a bb 7a be b7 86 5b be 52 cd 40 3e c4 b1 87 3d
       -0.24485555 -0.21438108 0.18828323 0.06625703
000350 45 34 2e 3e a4 7e 44 ba 96 8b 0b 3e 23 5d 24 bd
       0.17012127 -0.00074956776 0.13627467 -0.040127885
000360 e1 d4 33 3e 0e 0c 55 be 14 5c 80 be 22 18 8e 3c
       0.17561676 -0.2080538 -0.2507025 0.017345492
000370 db d0 01 be 56 32 37 be 5b 13 f1 3c 0c 14 10 3e
       -0.12677328 -0.17890295 0.029428175 0.14070147
000380 8a da 8c bd a5 9c 34 bd 3b 1e 64 bd e8 a8 44 3e
       -0.068776205 -0.0440947 -0.055692893 0.19205058
000390 d9 c7 48 3e 1e 12 a8 3d 07 b7 83 3d 98 41 98 3d
       0.19607486 0.082065806 0.06431394 0.07434386
0003a0 6c 6b 38 3d a3 61 f3 bd 9c bf 95 bd 1c 18 21 3e
       0.04502432 -0.11883857 -0.07311937 0.15731853
0003b0 e7 a1 45 3e ae e8 0a be 83 9e a7 bd c6 a6 3a be
       0.19300042 -0.13565323 -0.081845306 -0.18227682
0003c0 76 87 6e 3d b7 cf 34 3e 4f 9a 84 3c c2 42 fd 3d
       0.058234654 0.17657362 0.016186861 0.12366249
0003d0 dd 3e fd bd 6a f9 5c 3e 8a 39 3e 3e 96 5b a7 bd
       -0.12365506 0.21579519 0.18576637 -0.081717655
0003e0 db 90 53 3d 21 b7 a9 3d f5 ae 51 3e 26 32 87 3e
       0.051651817 0.08286882 0.20476897 0.26405448
0003f0 4c aa 67 be 57 86 02 3e ec f5 95 bd 21 49 af 3d
       -0.22623557 0.12746559 -0.073222965 0.0855887

linear.0.bias f4 [256]
000000 34 38 2c 3e 9c 37 75 3e 3c 4e 66 be 6f df 68 3e
       0.16818315 0.23946995 -0.22490782 0.22741483
000010 97 d2 d3 bd c5 65 64 3e b4 dc d5 3c 4d 01 3f be
       -0.10342901 0.22304447 0.026106216 -0.1865284
000020 32 50 7d bd 28 44 7d be a0 ee 0a be 5d 66 34 be
       -0.06184406 -0.24733031 -0.1356759 -0.17617173
000030 d9 d6 c0 3d 28 dc 36 3e d4 49 25 3e fd e2 b8 bd
       0.09415979 0.1785742 0.16141444 -0.090276696
000040 62 bb 77 3d fa e4 64 be 63 48 0d 3e 8d 26 2b bd
       0.060481437 -0.22352973 0.13797145 -0.04178481
000050 ae 1c 6e be e6 93 3c be 7f bd 15 be 3c ad 3b bd
       -0.23253128 -0.18415794 -0.14623068 -0.045819506
000060 7b 33 d8 bd 1d 98 8c 3e 2b 61 92 3d 76 19 2c be
       -0.10556694 0.27459803 0.071474396 -0.16806588
000070 9f 8c c1 3d f8 6a 5f be 0a af ea bd 9b d9 1b be
       0.094506495 -0.21818149 -0.11459167 -0.15219729
000080 1c 35 5a be 74 27 21 be 93 ee 40 be e4 a5 3e be
       -0.21309322 -0.15737706 -0.18841009 -0.1861797
000090 08 cb 28 3e 9a 84 e7 bb 18 87 52 be dc 31 86 be
       0.164837 -0.007065368 -0.20559347 -0.26209915
0000a0 b1 56 08 3d 74 c5 7b bd 94 12 42 be 33 cd a1 3d
       0.0332858 -0.061467603 -0.189524 0.07900467
0000b0 0f 8c 56 be 7b 7e b4 bd 90 51 32 be 93 6f 4f be
       -0.20951866 -0.08813187 -0.17413926 -0.20257406
0000c0 e3 e0 9a 3d f2 aa 9f 3d ca 53 5a 3e a2 1e 80 be
       0.07562425 0.07796277 0.21321025 -0.2502337
0000d0 e6 16 74 be 89 87 0d be cb c4 85 3d d6 f2 36 3e
       -0.2383686 -0.13821234 0.06531676 0.17866072
0000e0 6f 45 f9 bd 46 e6 a1 bc da 4c 51 3e 08 3d 35 3e
       -0.121714465 -0.019763123 0.20439473 0.17699063
0000f0 9d e4 d9 3b e9 67 91 3e a4 75 1d bd 5e 27 07 3e
       0.0066495673 0.2839959 -0.03844227 0.13198611
000100 53 3d bc bc e1 a1 d8 bb 92 21 c5 3c 50 41 62 3e
       -0.02297846 -0.0066110943 0.02406386 0.22095227
000110 d0 e1 18 be f7 4e 84 bd c4 53 8a bd 7c 20 05 be
       -0.1492989 -0.06460374 -0.06754258 -0.13000673
000120 ed be 5c bc 98 fc f1 bd 8c 07 19 be 4a ba 4a 3d
       -0.013473255 -0.118157566 -0.14944285 0.049494065
000130 b7 4c 61 3c 4f d0 87 bd 2d fd 9d bd 25 94 74 3e
       0.0137512 -0.066315286 -0.07714305 0.23884638
000140 ca b3 83 3e f0 e1 b3 bd a2 b6 7a 3e 45 94 07 be
       0.25723106 -0.087833285 0.24483731 -0.13240154
000150 5f 13 5a 3e c3 19 de 3c ff 1d 2b 3d 21 ca 54 3e
       0.21296452 0.027111894 0.041776653 0.20780231
000160 f8 ad 6f 3e 72 ca 28 3d 15 ed 28 be bb 77 84 3e
       0.23406208 0.041208692 -0.1649669 0.25872597
000170 14 22 ef bd 06 31 12 3e 22 ef 3e be 98 32 cd bb
       -0.11676422 0.14276513 -0.1864591 -0.0062621348
000180 f3 82 8e 3d 7b f5 1e be fe ec 26 bd 57 60 2d be
       0.0695857 -0.15523331 -0.040753357 -0.16931282
000190 12 7e b2 bd 1a d8 69 3e 3b 70 fd bd 1b 5c 33 3e
       -0.08715452 0.22836342 -0.12374922 0.17515604
0001a0 4e 76 0e bd a8 6e dc 3d c1 d8 af 3d a0 1d a6 bd
       -0.034780793 0.107632935 0.085862644 -0.08111119
0001b0 48 bd 86 3e b8 ae af 3d 3f 76 82 3e a2 ac db bc
       0.26316285 0.08578247 0.2548084 -0.026815716
0001c0 ff 35 88 bd 4e 5d 34 be d6 55 69 3e b3 15 75 3e
       -0.06650924 -0.17613718 0.2278665 0.23934059
0001d0 ce ce 76 bc b3 c4 1f 3e 43 93 68 be 2e 78 3e 3e
       -0.0150639545 0.15602379 -0.22712426 0.18600532
0001e0 8f d7 f7 3d 85 b9 2c 3b ca 31 6b 3e 75 fc 68 be
       0.121016614 0.0026355695 0.22968212 -0.22752555
0001f0 c7 25 50 3d a2 4d 0f 3e 79 2b 8f bd eb 23 82 3e
       0.050817277 0.13994458 -0.069907136 0.25418028
000200 62 0d 10 3a 39 6d 0f 3e 79 fb 58 be 9b a8 ff bd
       0.0005495158 0.14006509 -0.21189679 -0.12483331
000210 e4 62 73 be 75 a7 e1 bc 95 6a 74 be f3 06 22 3e
       -0.23768193 -0.02754567 -0.23868783 0.15822963
000220 1c 85 44 be f2 36 34 3e 73 da 3b 3e d0 c5 01 3e
       -0.19191402 0.17599085 0.1834505 0.12673116
000230 48 38 9f bd 48 59 bb bd f1 1c 1c 3e 02 55 17 3e
       -0.07774407 -0.091478884 0.15245415 0.14778522
000240 01 38 48 3e e0 77 3d 3e cd f8 07 3e 43 78 96 bd
       0.19552614 0.1850276 0.13278504 -0.07347157
000250 2a c0 2d 3e 37 80 b4 bd 26 76 0a be 81 61 43 3b
       0.16967836 -0.088135175 -0.13521633 0.0029812756
000260 96 80 e4 3d 6b 12 3f be cf 34 b9 bd da b2 8f bd
       0.11157338 -0.1865937 -0.090432756 -0.07016535
000270 6f b5 54 3d a3 66 78 3e 56 7a 07 3e ab 2c f0 3c
       0.05193084 0.24257903 0.13230261 0.029318174
000280 a3 2b a8 3d 3b e7 8b 3e 21 c2 11 3e d6 d1 fe bd
       0.08211448 0.27324852 0.1423421 -0.12442367
000290 9b 45 d9 bd 60 34 2f be e4 c3 3e 3e 6f 99 6f be
       -0.10608979 -0.17109823 0.18629414 -0.23398374
0002a0 35 67 3d 3e 94 ca 5b 3e 33 46 12 3d 71 89 88 3d
       0.18496402 0.21463996 0.03571148 0.0666684
0002b0 a7 1d 52 3e 52 c1 90 bd 20 cc 2d be 5f fd 7e 3e
       0.20519124 -0.07068123 -0.16972399 0.24901341
0002c0 e3 e3 13 be 59 fa 85 3e 70 b8 10 3b 6a 5b 07 3e
       -0.144424 0.26167563 0.002208259 0.13218465
0002d0 c4 96 45 3e 18 da 85 bd 0c 93 29 be cd 7b 00 bc
       0.19295794 -0.06535739 -0.1656 -0.007842016
0002e0 fd 9d b1 3d cf 28 00 3e a8 f9 55 be f6 63 85 3e
       0.08672712 0.12515567 -0.20896018 0.26052827
0002f0 b1 4e d3 bd 12 56 a5 bb bd 92 7b bd f6 4f ff 3d
       -0.103177436 -0.005045661 -0.061419237 0.12466423
000300 e2 76 85 3e ff 47 10 be aa 7d e5 3d 6a 2d 1b 3e
       0.26067263 -0.14089964 0.11205609 0.15154043
000310 58 97 eb 3d 30 43 63 be 37 95 ae 3d aa 93 87 3d
       0.11503476 -0.22193599 0.08524554 0.066199616
000320 37 7f 61 be 1b 76 64 be 4f cd 2e be 5a 8b 15 be
       -0.22021185 -0.22310679 -0.17070507 -0.1460394
000330 88 a0 3b be 5f bb 6c 3e ae 31 95 3c 2e 75 6b 3e
       -0.18322957 0.23118351 0.018212166 0.22993919
000340 19 2f 5c be bd 34 65 3e e0 51 29 be 56 57 bd bd
       -0.21502341 0.223834 -0.16535139 -0.09245174
000350 0b b3 7b be e0 9d b5 3c 46 a6 53 be f2 6b 86 3e
       -0.24580018 0.022170007 -0.20668897 0.2625423
000360 65 ce 86 3e 91 3d f8 3d 6c fe 72 3e 12 18 07 3e
       0.26329342 0.12121118 0.23729867 0.13192776
000370 0a 11 c5 3d 65 4f e6 3d b1 28 87 3e 3a ba 3a be
       0.096223906 0.11245612 0.26398233 -0.18235102
000380 b7 1a 4a 3e d1 fe 13 3e 82 68 91 3e dd 71 d2 bd
       0.19736753 0.14452673 0.28400046 -0.10275624
000390 cb d6 fc bd f6 b5 c4 bd 28 a2 31 be b4 7f ca bd
       -0.12345656 -0.09605019 -0.17347014 -0.09887639
0003a0 5d 94 c5 3b 51 67 77 3e 3b 77 00 3e 5c a6 5c be
       0.006029649 0.24160506 0.12545483 -0.21547836
0003b0 68 9f 71 3e b6 20 da bd d9 bf 04 bd d5 95 fa 3d
       0.23595965 -0.1065077 -0.032409523 0.122356094
0003c0 6b 6f 49 3e 9b 06 cb bd f9 42 e2 3c 57 5b 50 be
       0.19671409 -0.09913369 0.027619826 -0.20347343
0003d0 85 f6 9e 3d 0c 8f 8b 3e 0d ff 62 be b2 a6 2a be
       0.077618636 0.27257574 -0.22167607 -0.16665152
0003e0 ac ce 0e 3e 4a a6 d5 3d 61 aa 1e bd 0c c9 bf 3c
       0.13946027 0.10432108 -0.038736705 0.023411296
0003f0 0c 7b 4b 3e f7 88 5e 3e 41 a8 1a be af 85 da bc
       0.19871157 0.21731935 -0.15103246 -0.026675073

linear.2.weight f4 [256, 256]
000000 66 a3 cf bc 74 bb e4 bb 0f c6 57 3c 9d eb d9 3c
       -0.02534647 -0.006980354 0.013169779 0.026601607
000010 b0 04 a1 bc 52 df 32 bd 72 3e 1f bb 77 4b d9 bc
       -0.019655555 -0.043670006 -0.0024298695 -0.026525242
000020 27 e1 99 bd 34 6d ce bb 72 8e 59 bd f3 34 2a 3d
       -0.075136475 -0.006299639 -0.053114362 0.041554403
000030 a2 d2 4a bd a7 ec 5c bb ee 61 9e 3d 98 e6 67 3d
       -0.04951728 -0.0033710392 0.07733522 0.056616396
000040 a6 8f 1d bd e3 a0 dd bc 18 65 36 bd 62 52 6b 3d
       -0.038467072 -0.027054256 -0.044530004 0.057451613
000050 42 d2 4b 3c 73 02 22 3d 7e af 95 bd 66 df 1d bc
       0.012440266 0.039553117 -0.07308863 -0.009635782
000060 6d 55 81 bd 27 28 8f 3c 42 a7 77 3d 47 26 f3 bc
       -0.06315122 0.0174752 0.060462244 -0.029681338
000070 98 c3 b6 bc 4b 94 dd 3b 4a 47 dd bc d6 cb 0b bd
       -0.022310063 0.0067620627 -0.027011532 -0.03412994
000080 e3 7e 91 bd 95 7f 74 bd 7c fd c1 bc 28 51 17 bc
       -0.0710428 -0.059691984 -0.023680441 -0.009235658
000090 10 83 0b 3c 7d 87 f3 3c 38 1e aa 3c a3 5e dd 3c
       0.008515134 0.029727692 0.020766363 0.027022665
0000a0 c4 70 00 3d 1c 67 33 3c 9a 3e 2a 3d 51 64 06 bd
       0.03135754 0.010949876 0.041563608 -0.032810513
0000b0 46 1b 60 3d 21 a3 10 bc 25 b7 36 bd 4b d3 ff 3c
       0.05471351 -0.008827955 -0.044608254 0.031228682
0000c0 19 18 71 bd a1 55 4a bd b6 32 6e 3c 6a 5a 31 bd
       -0.058860872 -0.04939807 0.014538458 -0.043299116
0000d0 dd d9 7a 3d 07 63 91 bc 36 84 06 bd f0 7b 2d bb
       0.061242927 -0.017747415 -0.03284093 -0.0026471578
0000e0 85 d3 8b bd e9 52 68 ba 3f f4 a4 3d 24 ed c4 3c
       -0.068274535 -0.0008862452 0.08054399 0.024038859
0000f0 84 bd 0c bc 02 81 07 3c 9a 81 58 bd 69 2d 8c 3d
       -0.008590106 0.008270504 -0.052857973 0.06844599
000100 72 ee 72 bc 3a 64 74 bd 40 5d 9b bc 5b d6 08 bd
       -0.014827358 -0.059665896 -0.018965364 -0.03340755
000110 74 fc 61 bd d5 fe 74 bd 01 2d f1 bc 5e d7 31 3c
       -0.0551724 -0.05981334 -0.029440405 0.01085457
000120 1f f8 93 bc b8 f9 05 bd b4 5e 99 bd 28 67 b0 3b
       -0.01806265 -0.032708853 -0.07488766 0.005383391
000130 e1 c5 b0 3c db e2 2b bc a2 d4 54 bd 9c 4d a4 3b
       0.021578731 -0.010491098 -0.051960595 0.0050141346
000140 c7 cd a9 3d 13 91 92 3b 4e 85 ef 3c a0 6a 45 bd
       0.08291202 0.0044728606 0.02923837 -0.04819739
000150 bc 16 58 3d 85 af 0f bc 86 ba 8b 3b dd 30 3a bc
       0.052756056 -0.008769874 0.0042641787 -0.011364189
000160 51 50 8d 3b 81 04 79 3d bc be a9 3c 5a 9c 12 3d
       0.004312553 0.06079531 0.020720832 0.03579364
000170 d4 0c e4 3a 1f 9d 05 3d 8c e6 84 bd f1 43 91 bc
       0.0017398843 0.032620545 -0.06489286 -0.017732592
000180 a0 a6 c4 3b d0 44 43 3c 1b ce b7 3c 0e 92 70 3c
       0.0060013086 0.011918262 0.022437146 0.01468326
000190 0e 27 00 bd 6a 2d 98 bb 23 6b 48 bc fe eb 88 3a
       -0.031287245 -0.0046440857 -0.012232575 0.0010446308
0001a0 07 fd 0b 3c 9e 32 7c 3c 05 ec 90 3d ca f1 0b 3d
       0.008544213 0.015392927 0.07076267 0.034166135
0001b0 af 0b 36 bc 97 76 b7 3c bb a7 77 bc 48 a4 05 3d
       -0.011111184 0.022395415 -0.015115674 0.032627374
0001c0 ee f2 34 bb e6 76 17 ba 65 ca 37 3d 86 09 77 3d
       -0.0027610618 -0.000577791 0.044870753 0.060311817
0001d0 7a 5b e2 bb 6f 99 f9 3c e2 2b 53 bd 76 26 d4 3b
       -0.0069078775 0.03046867 -0.05155552 0.0064743115
0001e0 d2 5a 2a 3d ab a8 11 3d 2e 12 fc bb 2a 83 42 bd
       0.04159052 0.035561245 -0.007692597 -0.04748837
0001f0 9c b6 07 bc 1a ac 30 bd 6f 97 c2 3c c4 51 f7 bc
       -0.008283284 -0.04313288 0.02375385 -0.030190356
000200 3b 9b 23 bd 2f 0a e6 3c 9a 3f 35 bd f2 72 a9 bc
       -0.03994296 0.028081028 -0.04425011 -0.020684693
000210 92 58 da 3c 00 01 40 bd 95 5c 82 bd 9c dd 1d 3d
       0.026653562 -0.046875954 -0.06365315 0.03854142
000220 05 a3 85 bb 79 8c 71 bc 3c 33 51 3c 99 fe 1a bc
       -0.0040782713 -0.014742964 0.012768563 -0.009460115
000230 e5 b2 3e bd cd 3e b0 3b 1b 81 45 bd 5d 22 0c bd
       -0.046557326 0.00537858 -0.048218828 -0.03421246
000240 d9 3e 94 3d 3b c3 3b bd 04 c1 c8 bc 47 62 35 3d
       0.0723855 -0.045840483 -0.0245061 0.044283178
000250 f5 20 b1 bc e1 2d 65 bc f8 b1 aa bd f7 d7 94 3c
       -0.02162216 -0.013987989 -0.08334726 0.018169386
000260 b3 0d d3 bc b7 cf c2 3c 03 9f 67 bc c5 ff 83 3b
       -0.025763368 0.023780687 -0.014137032 0.004028293
000270 43 65 ef bc be 83 39 bd 92 f6 01 bc 0c e0 17 bc
       -0.02922309 -0.045291655 -0.007932322 -0.0092697255
000280 9e bb 7a 3d 24 eb e3 3b 07 cd 37 3d b3 89 2c bd
       0.061214082 0.006955521 0.044873264 -0.042123508
000290 10 09 23 3d 40 ed 4c bd e7 c4 64 3d f8 88 0e bd
       0.039803565 -0.050030947 0.055851843 -0.034798592
0002a0 f3 6c 13 3d 71 6d 20 bd 2f ce e5 bc 6b 54 1b bd
       0.035992574 -0.03916687 -0.028052418 -0.037922304
0002b0 a0 98 87 3d eb 1f 05 bd 63 b6 43 3d ea 0b d1 bc
       0.06620908 -0.032501142 0.04778136 -0.025518376
0002c0 d2 49 61 bd 7a af 94 3b 06 93 4b bd d2 b9 59 3d
       -0.05500204 0.00453752 -0.04970076 0.053155728
0002d0 55 4c 08 bb 5c 44 09 bc 46 a5 ac bd 0e de 1c 3d
       -0.002079745 -0.008378115 -0.08429961 0.038297705
0002e0 d0 87 77 3d 02 28 8a bc 42 6c 0d 3c ff 08 10 3c
       0.060432255 -0.01686478 0.008631768 0.008791207
0002f0 60 16 35 bd 7b 8e 10 3c 77 34 67 3c 4e 4b f1 bb
       -0.04421079 0.0088230325 0.01411163 -0.0073637133
000300 00 ba 81 3b 10 e3 01 bc b2 50 81 3d 9a a2 84 3d
       0.0039589405 -0.007927671 0.063142195 0.06476326
000310 79 d2 00 3d 38 dd 27 bd 60 56 3e 3d 6c ca e8 bb
       0.031450722 -0.040982455 0.046469092 -0.0071042087
000320 2b c1 d6 bc 14 08 08 3d bd f1 55 bd 4a 09 cd ba
       -0.026215157 0.03321083 -0.052232493 -0.0015643027
000330 77 20 6c bd 76 80 ee 3b 93 ef 8e 3c 73 ba 09 bc
       -0.05764815 0.0072784973 0.017448222 -0.008406269
000340 76 36 b8 bc 0f 8b c3 bc f8 e1 c5 3c 64 30 6d 3c
       -0.022486906 -0.02387002 0.024155602 0.014476869
000350 5c 39 00 bd 9a 63 ff 3c 8d 04 4c bd 96 1b 00 3d
       -0.031304702 0.031175423 -0.049809027 0.031276308
000360 28 da 0b bd 48 5b 45 bb 77 fd 5d 3d 73 bf 07 bd
       -0.034143597 -0.0030114222 0.0541968 -0.033141565
000370 45 15 8e 3d fc 9c 8e 3d 13 98 a0 3d fd 6a 2a 3c
       0.069376506 0.06963536 0.07841506 0.010401485
000380 ba 0b 50 bd 9d 21 ef bb 31 06 19 3c 01 7f 99 bc
       -0.050792433 -0.007297708 0.009339855 -0.018737318
000390 45 6b 46 3d 87 63 30 3d cf fd e8 bc 95 98 66 bd
       0.048442144 0.043063667 -0.028441338 -0.056297857
0003a0 4e 2e f7 bc ce a4 3f 3d f6 1a 8b ba 5d f5 d8 bc
       -0.030173447 0.04678803 -0.0010612893 -0.026484186
0003b0 26 dd ae 3d 2f 78 ae bc f4 1e 36 bd d2 bd 67 3d
       0.085382745 -0.021297542 -0.044463113 0.05657751
0003c0 01 62 0d bd 81 09 52 3d fe 04 a5 bd 2c cd 5f 3d
       -0.034517292 0.051278595 -0.08057593 0.054639027
0003d0 53 ea a1 3c ee 4c 53 3d ee d7 6f 3b 1b e4 6e bd
       0.019765055 0.051587038 0.003659721 -0.058323007
0003e0 2a 6b e8 3c 05 ed a5 ba bd e6 2c 3d 13 e7 97 3c
       0.028371412 -0.0012659138 0.042212237 0.018542802
0003f0 6a ed 0a bd 1e 69 38 bd 6b 89 65 3c 90 d3 6d 3d
       -0.033917822 -0.045022123 0.014009814 0.05806309

linear.2.bias f4 [256]
000000 8b 82 69 bc b3 8d e5 3b 09 d4 06 3d 2b c1 4f bd
       -0.014252315 0.0070054173 0.032917056 -0.05072133
000010 39 24 05 3c 1e d7 89 3c 40 93 96 bd c0 d0 5e bc
       0.008126312 0.016826209 -0.073523045 -0.013599575
000020 7f 67 99 3c e4 4e 1c 3d 9f 08 6a 3d 88 d6 80 bd
       0.018726109 0.038161173 0.057137128 -0.062909186
000030 ba 0d 24 bd 97 88 7e bc 99 21 07 3d 5e b1 8e bc
       -0.040052153 -0.015535495 0.032991026 -0.01741856
000040 42 4f e1 bc 88 c8 31 3d c5 90 06 bd e6 7b 90 3d
       -0.027503613 0.043404132 -0.032852907 0.07054882
000050 05 dc d7 3c 58 18 8d bb 5b ef c7 3c fb 33 fb bc
       0.02635003 -0.0043058805 0.024406126 -0.030664435
000060 2c da 80 3d 9a 7a a9 3d cb d5 c4 bc 30 99 5c 3d
       0.06291613 0.082753375 -0.024027726 0.05385703
000070 83 9d b0 3d 44 0e 68 bd f2 1d e1 bc 9c b0 d7 3b
       0.08623793 -0.05665423 -0.0274801 0.006582333
000080 c6 fa 6e bd f9 27 dc 3c ca 39 69 3c 29 e2 c9 3b
       -0.058344625 0.02687453 0.014234969 0.0061609936
000090 ff 83 b1 bc 0b fd f0 bc 86 42 7c 3c 7b 33 34 3d
       -0.021669386 -0.029417535 0.01539672 0.043994408
0000a0 3e 23 3b bb 55 5c ef bb 1a 3c d9 bc b8 43 de 3c
       -0.0028554942 -0.007304708 -0.026517916 0.0271319
0000b0 c4 ff 5e bc af e0 0d 3d 9a 41 31 bd ef ec d6 bb
       -0.013610784 0.034638103 -0.043275453 -0.0065590064
0000c0 be 3e de 3c 3f cd 9b bc 24 d0 3a 3c 9c 5c 1e 3d
       0.027129527 -0.019018767 0.011402164 0.038662538
0000d0 a2 58 02 3d 04 29 04 3c c4 7a 15 3d c3 ea 19 3d
       0.031822808 0.0080664195 0.03649403 0.0375774
0000e0 19 ad 00 bd 0e 90 16 3c 66 cc 89 bd 27 eb 9e 3d
       -0.03141508 0.009189619 -0.06728439 0.077596955
0000f0 e5 71 1f bd 3d 98 8a 3c e7 44 9c 3c 3b 78 61 3c
       -0.038926978 0.016918296 0.019075824 0.013761575
000100 c7 2a 2f bd 56 22 8a 3d 0c 99 97 3d 5c c1 b9 bb
       -0.042765405 0.0674483 0.07402238 -0.005668802
000110 c9 df 02 bd dc f1 bd bc 4d 67 bb 3c 13 1f f8 3b
       -0.0319517 -0.023186617 0.022876406 0.0075720637
000120 a9 64 87 3d 9b dd 9c bc 39 75 c1 bc f9 8a 17 3d
       0.06610996 -0.019148638 -0.023615466 0.03699777
000130 22 6d 33 bd c4 62 91 3d d1 16 cc bc 03 bd 12 bd
       -0.04380525 0.07098916 -0.024913223 -0.035824787
000140 cd ae a5 3d db 37 f3 3b 4c b5 df bc ec 96 0a 3d
       0.08089981 0.00742243 -0.027308129 0.033835337
000150 59 73 be bc 1a 80 08 3d a8 b4 a0 3d 45 1b fa 3c
       -0.023248361 0.033325292 0.078469574 0.030530581
000160 af f7 a4 bc a5 b1 d0 bc f5 56 1d bd ee 65 32 bd
       -0.020137636 -0.025475333 -0.038413007 -0.04355424
000170 d3 3e 88 3c 1c 15 12 bd 8b 7e 85 3d 86 bf a1 bc
       0.01663152 -0.035664663 0.06518277 -0.019744646
000180 5b 67 08 bd 83 6d 99 3d 99 7a 18 3d e7 9f c3 bc
       -0.033301692 0.07491591 0.037226293 -0.023879958
000190 d5 4d 5b 3d 02 7a 83 3d 64 73 61 bd 57 5d a1 3d
       0.053541023 0.064197555 -0.055041686 0.07879131
0001a0 7e 10 d3 3c f9 1e a4 3c 85 c6 3f 3d 8a af aa bc
       0.0257647 0.0200343 0.046820182 -0.020835657
0001b0 9f 64 ab 3c 27 ff b6 bb 10 96 a4 3d 68 b8 a2 3d
       0.020922003 -0.0055846157 0.08036435 0.07945329
0001c0 aa 7a b0 3c e2 19 0c 3d ed 02 d9 3c ba 16 b9 bc
       0.021542866 0.03420437 0.026490653 -0.022593845
0001d0 fb 93 e1 3c a7 4d 6b bc 02 32 7e 3d 31 6f c3 3c
       0.027536383 -0.0143617755 0.06205941 0.023856731
0001e0 d8 56 c8 3c da ea e7 bc 60 01 86 bd 59 16 3d 3d
       0.024455473 -0.028310228 -0.06543231 0.04616389
0001f0 a6 0d 97 bc 21 71 b0 3c ce 18 cf bc 36 20 80 3d
       -0.018439125 0.021538319 -0.025280382 0.06256144
000200 84 b1 02 3d 75 ab a9 bc 28 e2 5f 3c f1 f6 82 3d
       0.031907573 -0.02071164 0.01366476 0.063947566
000210 1b 1a f0 3b 0b f3 cd 3c 54 ea 35 3d 92 0a 6d bd
       0.0073273308 0.025140306 0.044412926 -0.05787141
000220 2d 19 6e 3d b6 ef 2a 3d 26 a8 94 3c 4a 7f 1c bc
       0.05812948 0.041732512 0.018146586 -0.009551832
000230 0c 25 9c 3d f1 b0 a6 bc 3a ca e9 3b 59 9d d5 bc
       0.07624254 -0.020348044 0.007134703 -0.026076006
000240 25 93 62 bc 14 1c ab bb c8 95 24 3d f6 83 5a bd
       -0.013829027 -0.005221853 0.040181905 -0.053348504
000250 3b 30 1e 3d 4e e4 5c bd a9 7e 6e 3c 49 1c 7f bc
       0.038620215 -0.053928666 0.014556565 -0.015570709
000260 f4 bc 55 bd 23 03 02 3d 78 77 ab bb 30 d0 97 3d
       -0.052182153 0.031741273 -0.0052327476 0.074127555
000270 5e 68 a3 3d c2 61 a6 bb bb 0c 04 3c fd 46 f1 3c
       0.07978891 -0.0050775716 0.008059676 0.029452795
000280 36 50 cc 3c 08 51 3a bd fe e2 d8 3c 38 c7 c1 3d
       0.024940591 -0.045487434 0.026475426 0.09461826
000290 a2 6f 0a 3d ad 4a c2 3c c1 1b e5 3c 41 12 bd bb
       0.033797868 0.023717249 0.027967336 -0.0057699983
0002a0 3f 9a 27 3d 62 a4 87 3b 9f 9d 40 bc dc 25 95 bc
       0.040918585 0.004139469 -0.01175633 -0.01820653
0002b0 f2 68 53 3c 71 2e 35 3d b1 20 09 3a a8 b6 71 bd
       0.012903439 0.044233743 0.00052310067 -0.059012085
0002c0 ca ea fd bc 94 9e 8e bd 0c de b5 bc 1a cb bc 3c
       -0.030995745 -0.0696384 -0.022200607 0.023046065
0002d0 33 0e 0a bb b3 0b 95 3b 8f 14 1f 3d e0 53 d4 3c
       -0.0021065592 0.004548514 0.038837966 0.025918901
0002e0 a2 41 6b bc 55 ca 5d bd 3b 53 5f 3d bf 61 eb 3b
       -0.01435891 -0.054148037 0.054522734 0.007183283
0002f0 c7 77 a8 3d 8b 2d a9 3c 9e e5 8c 3c 93 94 45 3c
       0.08225971 0.0206516 0.017199334 0.012059349
000300 53 a7 41 3d eb b9 04 3d 4c 2d 97 3d 08 5c 4d 3d
       0.047278713 0.032403868 0.073816866 0.050136596
000310 50 d1 84 bc ff 5b 9f 3d 04 c5 26 3c ce e6 0b bd
       -0.01621309 0.07781219 0.010178808 -0.03415566
000320 61 fd e1 bc 1c 07 7e 3c 65 ff f5 bc 91 35 c5 bc
       -0.02758664 0.015504625 -0.030029008 -0.024073394
000330 30 c4 e4 3c 78 b1 85 bc 61 ea 12 3d 4b b9 5b bc
       0.02792558 -0.016319975 0.035868052 -0.0134108765
000340 a0 fa 19 bc e9 29 37 bc 04 f6 75 bd a7 39 ed bc
       -0.009398133 -0.011179426 -0.060049072 -0.028958155
000350 2a 03 82 3d fa ea fd bc 75 69 14 bd 40 78 4f 3c
       0.0634826 -0.030995835 -0.036233384 0.012662947
000360 80 45 9c 3d 5f db 24 3c 86 ed ef 39 c5 36 81 bd
       0.076304436 0.010062068 0.000457626 -0.063092746
000370 c7 c1 ec bc d9 d0 92 3c 27 b8 24 3d a0 f7 49 3d
       -0.028900994 0.017921852 0.040214684 0.04930842
000380 0d ab ad bb 80 af 37 bd 08 45 97 3c 49 bc 85 bc
       -0.005299932 -0.044845104 0.018465534 -0.016325133
000390 39 05 29 3d 42 58 01 3b 85 2d 00 3d 1f 6e 7b 3d
       0.041264746 0.0019736444 0.03129341 0.061384317
0003a0 28 67 96 bd b6 20 19 bd a7 f9 bb 3c db 64 57 3d
       -0.07343894 -0.03738471 0.022946192 0.052586418
0003b0 66 5a 37 3d b5 91 fe bc 45 8b 22 3d 56 58 14 3d
       0.044763945 -0.031075338 0.0396836 0.036217056
0003c0 1c 19 e0 bc ba d3 d7 3c 50 3f 94 bd d4 72 90 3c
       -0.027355723 0.026346076 -0.072386384 0.01763288
0003d0 b8 6a 3c 3d 8b 3e 8a 3a 06 73 97 bd 44 f1 81 3d
       0.046000212 0.0010547204 -0.07394986 0.06344846
0003e0 b3 c5 70 3d ef b5 db bc 29 31 02 bd c1 8c 10 bd
       0.05878229 -0.026820151 -0.031785164 -0.035290483
0003f0 b3 7c d2 bc 95 2a 6c 3c 72 96 d6 3c 97 03 07 ba
       -0.025694227 0.014414449 0.026194785 -0.0005150376

linear.4.weight f4 [6, 256]
000000 47 88 1c bd e6 f5 38 bd d3 e7 68 bd b9 06 48 3d
       -0.0382159 -0.045156382 -0.05686171 0.048834536
000010 74 08 b2 bc 1f 6f 32 bd 73 a8 5d 3d e1 79 9c bd
       -0.021732546 -0.043563005 0.054115724 -0.07640434
000020 08 ad 7a bc 99 e0 90 bc 53 19 7c 39 7b 6a 19 3d
       -0.015300043 -0.017685222 0.00024042027 0.037455063
000030 07 36 c1 3d d9 a5 0c ba 69 34 36 bd db b9 8a 3d
       0.09434133 -0.00053652894 -0.044483576 0.0677373
000040 07 c4 14 3c c1 18 06 bd 97 9f 46 3d 21 7b 3c bd
       0.00907994 -0.03273845 0.04849204 -0.046015862
000050 bf ae 44 bd 3f 98 9d 3b 26 5c f0 bc f0 91 35 bd
       -0.048018213 0.004809409 -0.029340815 -0.04432863
000060 97 41 4c bd a6 8b 41 bd 72 f4 94 bc 8e 1f 5f 3d
       -0.04986724 -0.04725232 -0.018182967 0.054473452
000070 3c 7a 5a bd 11 b3 cb bc 1b dc 8b 3d fe 23 88 bd
       -0.053339228 -0.024865659 0.06829091 -0.0664749
000080 63 04 8b 3d f6 83 c8 bd 36 07 06 bd a3 47 77 3d
       0.06787946 -0.097907946 -0.03272172 0.060371052
000090 ce bb 99 3d 40 02 3b bd 99 0c 72 bd 91 9d 77 bd
       0.07506524 -0.045656443 -0.059094045 -0.060453
0000a0 8c 89 ad bd f5 85 8b 3c 3c e9 c6 3d 35 92 64 3c
       -0.084735006 0.01703165 0.09712455 0.013950874
0000b0 7b 0e 15 bd 42 04 a1 bc 99 f5 7f bd 7c 1e 2e bc
       -0.036390763 -0.01965535 -0.06249008 -0.010627385
0000c0 15 75 58 3c 7b 96 48 bd 7a 12 e5 b9 22 78 48 3d
       0.013211508 -0.048971634 -0.0004369205 0.048942693
0000d0 b7 71 05 3d 14 21 43 bd 7c 95 02 bc 54 51 fd 3c
       0.03257915 -0.047638968 -0.00797021 0.03092257
0000e0 dd 42 6a bd 5d d3 1a 3d 15 ed b8 3d b1 b7 54 bc
       -0.057192672 0.037799228 0.09029595 -0.012983249
0000f0 e3 0c 5a bd b1 1a 8d bd c5 77 da 3b 4e d6 c5 3c
       -0.053234946 -0.068898566 0.0066671097 0.02415004
000100 5c 1e 4c 3c 7a 1e 9d bd d0 0d 45 bd 2b 00 12 3c
       0.01245841 -0.076718286 -0.048108876 0.008911173
000110 4e 2d 01 bd 11 aa 0a bd 4d 73 4f 3c 62 f1 10 3d
       -0.031537347 -0.033853594 0.012661767 0.03538645
000120 30 e6 f7 ba c7 c1 bc bc f8 18 04 bd 63 23 90 3c
       -0.0018913206 -0.023041619 -0.032250375 0.017594999
000130 40 2c 1b 3c 5e b2 a9 bc 21 f7 de bc ec dc 5b 3d
       0.009470999 -0.020714935 -0.02721745 0.053677484
000140 7c 28 9a bd 68 88 f6 bb c9 ad b0 bc c4 bd 15 bd
       -0.07527253 -0.007523585 -0.021567242 -0.036557928
000150 17 97 01 bd fe cb bc 3d 0a b7 92 bd 9e 04 53 3c
       -0.03163823 0.09218596 -0.07163818 0.012879519
000160 34 52 9c 3d 5e 30 f4 3c ef 63 6d bd c5 24 cf 3b
       0.076328665 0.02980822 -0.057956632 0.006321522
000170 c7 54 21 bd 5a 72 89 3c bb 4b 16 bd 55 82 4b bd
       -0.03938749 0.01677816 -0.036693316 -0.04968484
000180 f8 ac 8d 3d 2f d7 15 bd 12 91 d0 3c 01 62 4d bd
       0.06917757 -0.03658217 0.0254598 -0.050142292
000190 db 42 3d bd 2b 22 a9 bc 47 6c fe 3c 5a 92 20 bd
       -0.046206336 -0.020646175 0.03105749 -0.03920207
0001a0 95 70 a3 bb e9 81 76 3c 0c a5 61 bd 16 8e 56 bb
       -0.004987786 0.015045621 -0.05508904 -0.0032738498
0001b0 71 49 85 bd d4 98 45 bd dd e6 a5 bc fd bc 9a 3a
       -0.065081485 -0.04824145 -0.020251686 0.001180559
0001c0 a2 25 5d bb 28 b4 2c 3c 4c 63 06 bd 58 0c a9 bc
       -0.0033744355 0.0105409995 -0.03280954 -0.020635769
0001d0 ee 11 7b bd 67 97 83 3d ee c8 c9 bc eb a8 22 3d
       -0.061296396 0.06425362 -0.024631944 0.039711874
0001e0 ad fb 01 bd e4 0c 33 3d 74 9f 60 bd 9b a0 6d bd
       -0.031734157 0.043713465 -0.054839566 -0.058014493
0001f0 1c ea db bd 07 79 8b bd c3 f1 29 3d 5c 2b 06 3d
       -0.10738012 -0.068101935 0.041490328 0.032756194
000200 8f 85 2d bd 0b f0 56 3c 6e 5c 24 bd da 53 81 bd
       -0.0423637 0.013118754 -0.04012721 -0.063148215
000210 63 fa 4b bd 74 5a 1a bd 1f ef 4c bc 76 37 8d bc
       -0.049799334 -0.03768392 -0.012508183 -0.01723836
000220 d0 96 85 bb e3 92 35 3d 0a 1b 9e 3b 9b 1f 96 bd
       -0.004076816 0.044329535 0.0048250007 -0.07330247
000230 b3 75 05 3c 2d 3d 23 3c 02 76 9d 3d 0b 2a 3a 3d
       0.008145737 0.009963316 0.07688524 0.04545025
000240 a5 65 69 bd 8d a0 e7 bc 24 92 43 bd a2 71 8d bc
       -0.0569817 -0.028274799 -0.047746792 -0.017266098
000250 57 d5 85 39 fa e2 2d 3d 19 d0 76 bd 4e ea e1 3b
       0.00025526687 0.04245279 -0.06025705 0.0068943864
000260 36 b2 a9 3d ee 62 10 3d 05 29 0f bd c6 12 64 bd
       0.08285944 0.035250597 -0.03495123 -0.055681966
000270 77 df 2a 3d e4 18 db bb fc 48 4c bc 76 20 8f bd
       0.04171702 -0.006686317 -0.012468573 -0.06988613
000280 f4 63 d3 bc cc 34 54 3d 7b 93 77 ba 84 81 f7 bc
       -0.025804497 0.051808164 -0.00094442785 -0.030213125
000290 04 83 7c 3c b2 32 9c bc ca 15 09 3c 10 7d 87 bd
       0.015412096 -0.019067142 0.008367011 -0.06615651
0002a0 04 8b c2 3c 94 44 b9 3c c9 98 e5 3c 9f de 3b bc
       0.023747928 0.022615708 0.028026955 -0.011466651
0002b0 25 83 61 bb d6 b5 88 3d 52 6e 4a 3d e7 c8 6e 3d
       -0.0034410444 0.066753075 0.049421616 0.058297064
0002c0 66 5f 46 3d ba 82 51 3d 18 ad 0c 3d a6 af bc bd
       0.048430823 0.05115006 0.034344763 -0.0921319
0002d0 03 6d 84 3d 5b 8d 05 3d 2a 73 58 bc c8 dd 40 3c
       0.06466105 0.03260551 -0.013211051 0.011771627
0002e0 92 bd 8c bc 8d fa 9e 3c d9 55 42 bb 62 ea 23 3d
       -0.017180238 0.019406581 -0.002965322 0.040018447
0002f0 69 d5 9a bc 72 c5 db 3a 59 4b 82 3d 01 b9 3a 3d
       -0.01890059 0.0016767217 0.06362028 0.04558659
000300 d4 c4 47 3b 34 76 a7 3c ef 22 e8 3c 4e 7f 32 bc
       0.003048231 0.020442106 0.02833697 -0.01089461
000310 02 61 7c bc 9b fd 26 bd 30 18 3b bd dd d8 08 3c
       -0.015403988 -0.0407692 -0.045677364 0.0083524855
000320 b7 9c df bc b0 96 9c bc a8 43 04 bc c1 a5 50 bc
       -0.027296407 -0.019114822 -0.008072771 -0.012734831
000330 1f 67 36 3d 5c 65 29 3d 5d b7 82 3d d5 95 1a bd
       0.044531938 0.04135643 0.0638263 -0.037740547
000340 8c 0c 60 bd fb 6d 68 3d bb f8 99 bb 61 99 cc 3c
       -0.054699466 0.05674551 -0.0046988404 0.02497548
000350 55 f7 81 bd a9 aa f7 bc dd db fa bc 7a 97 4c 3c
       -0.06346003 -0.030232744 -0.030622417 0.012487287
000360 df e9 16 3c 9e 65 6d bd 90 cc 43 3d cb 67 d9 3d
       0.009211033 -0.057958238 0.047802508 0.106155
000370 da bc 2e 3d 6f 9f c0 bd bc 4a 18 bd da 9c 1b 3c
       0.04266057 -0.094054095 -0.037180647 0.009497846
000380 5e 69 6e bd 74 8e 8d bd 37 02 75 bc 99 a8 7a 3d
       -0.058205955 -0.069119364 -0.014954141 0.061195944
000390 7b a5 af bc 06 b6 53 3d b9 20 2e 3d 47 17 0e 3d
       -0.021441212 0.051687263 0.042511676 0.034690168
0003a0 96 ee f3 3d d7 7b 3d 3d e5 ce 00 3d 1a 44 71 3d
       0.11910741 0.04626068 0.03144731 0.058902837
0003b0 a3 8c f5 bc 91 c4 08 bc 48 da 61 bc a2 ab 29 3c
       -0.029974287 -0.008347646 -0.013784952 0.010355862
0003c0 45 74 87 bc ee 50 3b 3d 84 90 99 bc 5e d4 27 bd
       -0.016534934 0.045731477 -0.018745668 -0.040974014
0003d0 23 f4 73 bc 62 18 18 3d 25 62 b0 3d 24 ea 97 bd
       -0.01488975 0.03713263 0.086124696 -0.07417706
0003e0 38 7c 76 bd e8 55 22 3d 9a bc 4a 3d f4 8a 87 bd
       -0.060177058 0.039632708 0.04949627 -0.066183
0003f0 c7 24 0d bd c0 3b 89 3d 2e a4 52 bd 88 b7 dc bc
       -0.0344589 0.067008495 -0.051426105 -0.026942983

linear.4.bias f4 [6]
000000 9c fe 22 bb 85 7e 8d bd 7e 63 a0 bc bb 76 42 3d
       -0.0024870997 -0.06908897 -0.019578692 0.04747651
000010 83 af f6 3b 80 bb 0c 3d
       0.007528247 0.0343585
