proj/Relu_neuro_net.pt (torch, 288727 bytes, 6 tensors)

linear.0.weight f4 [256, 16]
-0.14910355 0.074761815 0.12441001 -0.06919085 0.012640085 -0.27230924 0.019741494 -0.04284564
0.13938564 0.16675565 -0.28031975 -0.1868861 -0.061728723 0.064407185 -0.08717466 -0.1519477
0.08951205 -0.001024882 0.16281305 0.18650362 -0.20030072 -0.13314195 0.08391005 0.10720855
-0.21544255 0.25008562 0.23973791 -0.12840615 -0.16065235 -0.022261113 0.14896978 -0.0048939358
0.23722897 0.2589209 -0.043560226 0.068092145 0.14607115 -0.10722114 -0.082582705 0.34966844
0.012270792 -0.011206596 -0.043217663 -0.019681297 0.041760586 -0.020229047 0.1544384 0.18845832
-0.20478338 0.06412129 -0.19144088 -0.09341103 0.14175083 0.15805672 -0.14298202 -0.22785722
-0.13407 -0.15815972 -0.13069615 0.17159182 0.0067813243 -0.23869807 0.14701438 0.109719515
0.14912488 0.14389867 -0.05760747 -0.012142292 0.06371384 -0.14586256 0.16855204 -0.041887302
0.03208317 -0.11593515 -0.21816224 -0.14033718 0.16502866 -0.28247908 -0.21921998 -0.032141425
-0.22797613 -0.17317124 0.08885775 0.0914914 0.19464386 -0.28036386 0.03490937 -0.1984829
-0.21015298 0.06828617 0.028127372 0.17182118 -0.06307026 -0.07575744 0.07141958 -0.055239543
0.20809361 -0.01973104 0.23025237 0.03726196 -0.020941656 -0.03210297 0.16038528 0.13033691
0.15331075 -0.18149242 0.10199209 0.049062688 0.28705877 0.26553583 0.14837372 0.28329912
0.13004585 0.03584857 0.010041998 0.10538114 0.16512983 0.072176665 -0.10121409 0.029294712
-0.01851088 -0.10028031 0.114257924 -0.030497042 0.12709646 -0.15467115 0.047744777 0.17499667
-0.124714375 0.008283743 -0.019334586 0.03435493 -0.017427824 -0.09709931 -0.17482515 -0.21164814
0.041036163 0.21253185 -0.063892804 0.06927536 -0.1069112 -0.13463295 -0.07664054 -0.088416204
-0.047554646 0.028150747 -0.16126166 0.21481611 0.2485724 0.29920897 0.11898899 -0.18399514
-0.009155592 -0.19758476 0.12669414 0.26179922 -0.0489943 -0.022025459 -0.10692422 0.25089616
0.2715905 -0.16795331 -0.03674966 -0.1546224 0.040573854 -0.12356484 0.07083218 0.07116425
0.037181534 -0.27065468 -0.21676375 0.17693731 0.32363182 0.16555968 0.19667667 0.23182169
-0.14876194 0.100676425 -0.2056301 0.24767563 0.18577465 0.22576478 -0.016609509 0.11759238
0.25335562 -0.0072952285 0.05491008 -0.0042712432 -0.23725086 -0.2572578 0.078750014 0.037176758
-0.04726512 -0.05644363 0.19799654 0.24628028 0.16444746 0.033326305 0.08338318 -0.007765321
-0.075385995 -0.17745335 -0.042537 0.17730644 -0.08114079 0.13689809 -0.1275178 -0.16965401
-0.27845404 0.11297648 -0.11182325 -0.13655172 -0.17997587 0.15379387 -0.21992671 0.06271517
0.038747516 -0.04809412 -0.17717886 0.14717002 -0.21313071 0.16990016 0.047752336 -0.016325502
0.08096019 0.10668765 0.16198377 -0.15120229 0.22729823 -0.1409053 -0.21021476 0.038227275
0.07144936 -0.08096058 0.23263384 0.24746096 0.057096962 -0.08330077 0.26882324 -0.22189783
-0.10624573 -0.10457356 -0.12026589 0.10150868 0.06631052 -0.39720443 -0.09937724 0.104065806
0.090464845 0.23261495 -0.16165352 0.016530193 0.014737355 -0.13332887 0.14297219 0.015509772
00000000: 9aae 18be b91c 993d adca fe3d efb3 8dbd
00000010: 5c18 4f3c 1e6c 8bbe eab8 a13c e97e 2fbd
00000020: 1cbb 0e3e fec1 2a3e 1286 8fbe 125f 3fbe
00000030: 42d7 7cbd eae7 833d a188 b2bd 2e98 1bbe
00000040: 1852 b73d 5555 86ba 77b8 263e cefa 3e3e
00000050: a21b 4dbe 5d56 08be 08d9 ab3d 2890 db3d
00000060: f99c 5cbe 390b 803e db7d 753e e77c 03be
00000070: 0d82 24be f05c b6bc 898b 183e 4f5d a0bb
00000080: 27ec 723e 4891 843e 356c 32bd e573 8b3d
00000090: ad93 153e c296 dbbd 1f21 a9bd be07 b33e
000000a0: 6f0b 493c df9b 37bc 0105 31bd ac3a a1bc
000000b0: 260d 2b3d 63b7 a5bc 1a25 1e3e 38fb 403e
000000c0: bcb2 51be 0652 833d 1409 44be 484e bfbd
000000d0: 2127 113e 9fd9 213e e169 12be 6753 69be
000000e0: a549 09be 9ff4 21be 36d5 05be c4b5 2f3e
000000f0: df35 de3b 446d 74be f08a 163e a0b4 e03d
00000100: 31b4 183e 2c5a 133e cff5 6bbd 77f0 46bc
00000110: 677c 823d ff5c 15be e898 2c3e 0592 2bbd
00000120: a469 033d 686f edbd ec65 5fbe 8db4 0fbe
00000130: 46fd 283e 19a1 90be 347b 60be baa6 03bd
00000140: 9372 69be cd53 31be 0dfb b53d d85f bb3d
00000150: b850 473e da8b 8fbe 21fd 0e3d 1a3f 4bbe
00000160: 5832 57be 9fd9 8b3d 606b e63c e4f1 2f3e
00000170: fb2a 81bd b726 9bbd 6e44 923d dc42 62bd
00000180: 7e16 553e fda2 a1bc 47c7 6b3e ff9f 183d
00000190: d68d abbc 677e 03bd 0a3c 243e 0a77 053e
000001a0: 7efd 1c3e 26d9 39be 3be1 d03d f5f5 483d
000001b0: 5ef9 923e 50f4 873e 48ef 173e 950c 913e
000001c0: bd2a 053e f3d5 123d 3187 243c 11d2 d73d
000001d0: cb17 293e 5cd1 933d 5549 cfbd 77fb ef3c
000001e0: 21a4 97bc c35f cdbd 0f00 ea3d efd4 f9bc
000001f0: 9325 023e 1d62 1ebe 0790 433d 5432 333e
00000200: 406a ffbd 89b8 073c 9163 9ebc c1b7 0c3d
00000210: ccc4 8ebc 01dc c6bd 5d05 33be 4aba 58be
00000220: 8915 283d f3a1 593e 3bda 82bd 3de0 8d3d
00000230: 42f4 dabd 38dd 09be b7f5 9cbd 8e13 b5bd
00000240: a9c8 42bd 659c e63c c721 25be c1f8 5b3e
00000250: c389 7e3e eb31 993e 80b0 f33d 3969 3cbe
00000260: 5601 16bc a953 4abe 1cbc 013e 8c0a 863e
00000270: 3fae 48bd bc6e b4bc 16fb dabd 7675 803e
00000280: e90d 8b3e f4fb 2bbe d086 16bd 5655 1ebe
00000290: c530 263d 900f fdbd 7610 913d 90be 913d
000002a0: aa4b 183d 4093 8abe 51f7 5dbe 0e2f 353e
000002b0: 12b3 a53e 7a88 293e 9c65 493e aa62 6d3e
000002c0: 0d55 18be 712f ce3d b290 52be ae9e 7d3e
000002d0: b63b 3e3e e22e 673e aa10 88bc 46d4 f03d
000002e0: d4b7 813e d00c efbb 64e9 603d c9f5 8bbb
000002f0: e4f1 72be 4bb7 83be b047 a13d a846 183d
00000300: 1299 41bd 7031 67bd 9bbf 4a3e e630 7c3e
00000310: ea64 283e 2a81 083d cdc4 aa3d 3c74 febb
00000320: f963 9abd 55b6 35be 473b 2ebd d28f 353e
00000330: 242d a6bd 032f 0c3e 0794 02be c8b9 2dbe
00000340: 8791 8ebe 3660 e73d 9703 e5bd 37d4 0bbe
00000350: 984b 38be 247c 1d3e 7834 61be d070 803d
00000360: b7b5 1e3d 57fe 44bd 606e 35be bdb3 163e
00000370: f03e 5abe 4ffa 2d3e f497 433d 0fbd 85bc
00000380: 75ce a53d 0e7f da3d 13df 253e c6d4 1abe
00000390: dec0 683e 7b49 10be 8a42 57be 3494 1c3d
000003a0: 0b54 923d a9ce a5bd 9137 6e3e 6866 7d3e
000003b0: 81de 693d 9899 aabd 33a3 893e 2f39 63be
000003c0: 5c97 d9bd aa2a d6bd f74d f6bd c8e3 cf3d
000003d0: cfcd 873d 615e cbbe 4b86 cbbd 7420 d53d
000003e0: a245 b93d 9d32 6e3e 8088 25be 546a 873c
000003f0: f274 713c 5d87 08be 4d67 123e b31c 7e3c

linear.0.bias f4 [256]
-0.14741424 0.06092042 0.18826112 0.14600243 -0.21954527 -0.14194174 0.11041823 -0.06552801
0.23617181 0.061750855 -0.16745394 -0.117162704 0.2506259 -0.21880296 0.059375774 -0.17768782
-0.101980686 -0.089864686 -0.09827121 -0.14291449 0.19712067 0.18446204 -0.1884379 -0.21567833
0.19740306 -0.19651234 0.17615476 0.13742279 -0.16653296 0.052422576 -0.21719423 -0.025291774
-0.016403686 0.052217722 0.06944008 0.13914765 0.007047082 -0.23233776 -0.035439752 -0.093677424
0.06848012 0.25719416 -0.23840143 0.24387303 -0.14223659 0.22480616 0.14591663 -0.22395281
-0.22311369 -0.051721662 -0.0006849342 0.049830325 -0.035253 0.09342394 -0.042249564 0.058495846
0.16152844 0.1557305 0.123468 0.06220927 0.23973204 -0.11421198 0.03326088 0.12299086
-0.14467376 -0.007082432 0.04436669 -0.21156044 -0.10019461 0.14377123 0.06333388 0.13810247
0.17856726 0.21763757 -0.12700771 0.24763411 -0.17868079 -0.20053288 -0.01952047 0.020303098
-0.18896095 0.11283446 0.21249972 0.1283523 -0.046365723 -0.051599305 0.015698805 0.0075365975
0.1735588 0.18556087 0.10227803 0.06717908 0.058670934 -0.20418154 0.066671476 0.071199976
0.22614264 -0.2233649 0.23854251 0.098069936 -0.014850225 0.005578149 0.20005198 -0.19995181
0.23163375 -0.25105754 -0.13049488 -0.14413805 -0.035169538 0.16657919 -0.07639063 0.23124456
0.16016246 0.2230191 -0.25184083 0.21814378 0.018829977 -0.14473158 -0.101433724 -0.1120973
0.07854602 -0.03974877 -0.091672465 0.17919128 0.16192298 0.02130738 -0.15721527 -0.15093806
-0.09977994 0.01055927 0.119972154 0.17074187 -0.055357967 0.24658886 -0.11116335 -0.033910446
0.0658562 -0.10062803 0.1327206 0.17454354 0.120049484 -0.116063096 -0.0070484946 0.04452105
0.13773054 0.1447787 -0.025686814 -0.2567515 0.0965781 0.16644861 0.14526711 0.07913001
-0.20062286 0.02103731 0.08855526 0.1991275 0.22768198 -0.016168958 0.059433643 0.18001546
0.21065463 -0.014478274 -0.24768293 0.11816419 0.13447127 -0.15771474 -0.13088514 0.17273529
-0.15929514 -0.18420649 0.06622686 0.20431565 0.25869516 0.07216613 -0.10921178 -0.00939982
-0.12523657 -0.013735699 0.03925752 -0.13025875 0.034414563 0.11375389 0.09834872 -0.23467223
0.065721355 -0.26089853 -0.015858104 0.051059235 -0.0107813645 0.2821346 -0.058295663 -0.23651291
0.20603928 0.15840729 0.073405415 -0.042397406 -0.13420714 -0.114862666 0.26072732 -0.009580612
-0.1078155 -0.123968765 -0.0647841 0.12668586 -0.077352084 0.23213394 0.018021455 -0.021517964
-0.20460151 0.120125845 0.13478424 -0.22295725 -0.19114329 -0.093952715 -0.118984535 0.020268295
0.22430602 -0.1027862 -0.050972108 0.23409766 0.038018703 0.25482634 0.12167177 0.14452547
0.11757842 0.10653694 -0.106868565 0.1716889 0.18523355 -0.24716944 0.17308049 0.19186834
-0.054700535 0.029898642 0.1806608 -0.15149157 0.20082153 0.18829465 0.06021284 0.25007513
0.19910955 -0.12420382 -0.18492778 0.181832 -0.042260792 0.2608329 0.09376331 -0.029846838
-0.090312414 -0.12196455 -0.19534014 0.17846762 -0.088785894 -0.06662832 -0.15800926 0.10932581
00000000: c2f3 16be b187 793d 86c7 403e a981 153e
00000010: 7ad0 60be 2d59 11be f422 e23d 8d33 86bd
00000020: 06d7 713e 77ee 7c3d 0c79 2bbe 00f3 efbd
00000030: 0a52 803e e20d 60be 0334 733d ccf3 35be
00000040: 40db d0bd fa0a b8bd 6b42 c9bd 2d58 12be
00000050: 00da 493e 9ee3 3c3e ddf5 40be c8da 5cbe
00000060: 0724 4a3e 883a 49be ea61 343e 8fb8 0c3e
00000070: 9e87 2abe 0eb9 563d 2a68 5ebe b230 cfbc
00000080: 0661 86bc 40e2 553d 9a36 8e3d b97c 0e3e
00000090: 35eb e63b f3e9 6dbe 4629 11bd f3d9 bfbd
000000a0: 4e3f 8c3d f4ae 833e 811f 74be dab9 793e
000000b0: 78a6 11be 9633 663e 2b6b 153e e353 65be
000000c0: ea77 64be 18da 53bd 288d 33ba e21a 4c3d
000000d0: 7365 10bd 0d55 bf3d e10d 2dbd 5799 6f3d
000000e0: b667 253e d177 1f3e cadc fc3d 26cf 7e3d
000000f0: 517c 753e f8e7 e9bd 8f3c 083d a2e2 fb3d
00000100: 5c25 14be bf13 e8bb d9b9 353d 4da3 58be
00000110: d532 cdbd c438 133e 31b5 813d bc6a 0d3e
00000120: 56da 363e 62dc 5e3e 4f0e 02be cc93 7d3e
00000130: 19f8 36be 7e58 4dbe 65e9 9fbc af52 a63c
00000140: fb7e 41be c115 e73d 8799 593e c96e 033e
00000150: fce9 3dbd cb59 53bd c89a 803c 90f5 f63b
00000160: 66b9 313e ab03 3e3e 2577 d13d 2f95 893d
00000170: ef50 703d f714 51be 0e8b 883d 4bd1 913d
00000180: f091 673e c5b9 64be 7d44 743e e4d8 c83d
00000190: 5c4e 73bc e8c8 b63b 6dda 4c3e 2bc0 4cbe
000001a0: 6631 6d3e 9d8a 80be 73a0 05be ed98 13be
000001b0: ef0d 10bd bc93 2a3e b172 9cbd 60cb 6c3e
000001c0: a101 243e 1e5f 643e 48f1 80be 1561 5f3e
000001d0: 5341 9a3c 8434 14be 7cbc cfbd 4593 e5bd
000001e0: bcdc a03d 9bcf 22bd c6be bbbd eb7d 373e
000001f0: 23cf 253e d18c ae3c 0afd 20be 828f 1abe
00000200: 6d59 ccbd ca00 2d3c f6b3 f53d f5d6 2e3e
00000210: 09bf 62bd ca81 7c3e 9ca9 e3bd aee5 0abd
00000220: 9edf 863d 1216 cebd e9e7 073e 8bbb 323e
00000230: 81dc f53d 7db2 edbd 0ff7 e6bb b45b 363d
00000240: 3c09 0d3e de40 143e 276d d2bc ef74 83be
00000250: bdca c53d 8171 2a3e e7c0 143e ea0e a23d
00000260: 1470 4dbe 7056 ac3c 765c b53d 14e8 4b3e
00000270: 7725 693e c374 84bc b170 733d f955 383e
00000280: d9b5 573e 4836 6dbc 98a0 7dbe 1100 f23d
00000290: d6b2 093e f97f 21be c106 06be 85e1 303e
000002a0: 441e 23be a0a0 3cbe f3a1 873d 1f38 513e
000002b0: b173 843e d6cb 933d 6daa dfbd b401 1abc
000002c0: 043e 00be b20b 61bc 7ecc 203d 8d62 05be
000002d0: 49f6 0c3d cdf7 e83d 0e6b c93d eb4d 70be
000002e0: eb98 863d 7e94 85be dbe8 81bc 7d23 513d
000002f0: 52a4 30bc f273 903e 6fc7 6ebd 7130 72be
00000300: f6fb 523e 8535 223e 9455 963d e7a8 2dbd
00000310: 996d 09be 1e3d ebbd 0d7e 853e 00f8 1cbc
00000320: 5fce dcbd 56e3 fdbd 87ad 84bd f0b9 013e
00000330: c56a 9ebd 85b4 6d3e bba1 933c 7146 b0bc
00000340: 0f83 51be 8a04 f63d e104 0a3e e84e 64be
00000350: 11bb 43be 486a c0bd 2aae f3bd b209 a63c
00000360: 7ab0 653e 9281 d2bd 21c8 50bd 4cb7 6f3e
00000370: 80b9 1b3d 9978 823e 0d2f f93d 7cfe 133e
00000380: f4cc f03d 0a30 da3d e8dd dabd 37cf 2f3e
00000390: ddad 3d3e fc19 7dbe 033c 313e 2279 443e
000003a0: ab0d 60bd ffed f43c 25ff 383e 9b20 1bbe
000003b0: 29a4 4d3e 50d0 403e bda1 763d d909 803e
000003c0: 60e3 4b3e 935e febd b55d 3dbe 2b32 3a3e
000003d0: a719 2dbd e48b 853e fa06 c03d 5b81 f4bc
000003e0: b7f5 b8bd 8dc8 f9bd 3f07 48be 37c0 363e
000003f0: 61d5 b5bd 6e74 88bd 2ecd 21be 36e6 df3d

linear.2.weight f4 [256, 256]
0.02681638 0.054249004 0.050914124 -0.014669593 0.053740773 -0.063670814 -0.030268569 -0.0024012104
-0.05033515 -0.026796 -0.02213853 -0.037335914 0.024953645 0.019325603 0.02535045 -0.019366339
0.028883146 -0.05713432 0.04173451 -0.033249717 0.029309452 -0.03866136 -0.057553258 0.009730055
0.055734586 0.048730873 -0.051504605 0.0551194 -0.0489758 -0.01367588 0.0402678 -0.0131990155
-0.036738392 -0.057583597 0.0011580228 -0.03636046 0.05049483 -0.0149203995 -0.0057643633 -0.023028223
-0.060182158 -0.046743438 0.0360519 -0.0029893129 -0.002512466 -0.049018186 0.034090072 -0.0023403221
0.0232798 -0.048305683 -0.020873474 -0.007964006 -0.03769859 0.00024113235 0.006165891 0.046404168
-0.03776253 0.03823334 0.0010187827 0.018372012 -0.028073287 0.040518735 0.013912905 0.08885023
0.025286555 -0.027958384 -0.015633382 0.026657084 -0.009863763 0.048040625 0.010320692 -0.059763636
0.04651649 0.0050172633 0.014823642 0.060899075 -0.052601397 -0.018505923 0.036392078 -0.033412352
-0.0054944344 -0.040937312 -0.028878018 0.009491062 -0.074034564 -0.066201515 -0.01865657 -0.017037641
0.0068504075 -0.01842631 0.051529936 -0.044984158 -0.0245295 -0.048782 -0.045993377 0.03769995
0.058984485 -0.018568868 0.040794726 -0.027233288 -0.004487488 -0.018696029 -0.06858901 0.013151263
0.010330179 -0.010648464 0.04694281 0.04887153 -0.02515218 0.038552396 0.0124751935 0.018035421
0.0038634297 0.0046609207 -0.03827833 0.0344234 -0.019423433 -0.048686903 -0.0380193 -0.024210237
0.033790242 0.028881164 0.058844194 0.028135192 0.05156792 0.05975665 -0.038695645 -0.054356024
0.015024116 0.0031482258 -0.002784212 -0.025441939 -0.03375749 -0.01903047 0.034305632 0.006904495
-0.046073854 0.009142098 -0.0024620153 -0.05200242 0.031004095 -0.037302364 -0.024002843 0.043707877
-0.03784374 -0.042269602 -0.041426416 0.021020288 0.03547368 -0.023489032 0.0036862309 -0.010546541
0.040666655 -0.036700234 0.043250512 0.039998893 0.025445748 0.026488626 0.036047634 0.014108386
-0.011659975 -0.025714746 0.026578218 0.044036645 0.044600766 0.061030027 -0.03078348 -0.020407185
0.044884212 0.035562478 0.03300133 -0.0626926 -0.06591323 -0.031701855 -0.025221357 -0.027755538
0.03095763 -0.009021043 -0.013788529 0.011717531 -0.01113271 -0.021053072 -0.0148739945 -0.026038507
-0.01432559 -0.015992979 -0.05098443 0.041436974 -0.05087905 -0.0015073505 -0.063533105 -0.027488582
-0.059657887 0.024865579 -0.05950582 0.022084815 -0.04873288 0.013260833 0.049175575 0.04553756
-0.027952347 0.007903523 0.031897005 0.01343152 0.004014032 -0.04018496 0.018768005 0.032987814
0.024645837 0.034946617 -0.0055788998 0.009909628 -0.029518984 0.0585766 0.048452757 0.026152968
0.048128434 -0.0521014 -0.023431877 0.025189653 -0.0037593446 0.027379312 -0.017723946 0.040421188
0.015036678 0.0463666 0.023257034 -0.04587572 0.0144877415 -0.06627366 -0.0031780868 -0.045380086
0.02688464 -0.047851004 -0.05016803 0.02693772 -0.03477438 0.050804302 0.06032223 0.043231755
-0.035254564 -0.04858307 -0.05046718 0.0057311794 0.037009917 -0.061618753 0.04516056 -0.035650752
-0.048449956 -0.039219778 -0.0011262029 0.050188348 -0.050392795 -0.015798382 -0.01446395 0.054512274
00000000: 06ae db3c 3434 5e3d 548b 503d bc58 70bc
00000010: 491f 5c3d d865 82bd caf5 f7bc a05d 1dbb
00000020: 3b2c 4ebd 4983 dbbc dd5b b5bc 8bed 18bd
00000030: 966b cc3c ba50 9e3c bfab cf3c 28a6 9ebc
00000040: 599c ec3c ad05 6abd cef1 2a3d db30 08bd
00000050: 601a f03c 605b 1ebd f7bc 6bbd cf6a 1f3c
00000060: f349 643d 069a 473d 7ef6 52bd e1c4 613d
00000070: d99a 48bd cc10 60bc d9ef 243d af40 58bc
00000080: ff7a 16bd c7dc 6bbd ccc8 973a b5ee 14bd
00000090: abd3 4e3d b174 74bc fce2 bcbb afa5 bcbc
000000a0: 9181 76bd 0c76 3fbd 28ab 133d 59e8 43bb
000000b0: 2fa8 24bb 4bc7 48bd 08a2 0b3d 1760 19bb
000000c0: 47b5 be3c 2edc 45bd d9fe aabc 767b 02bc
000000d0: d669 1abd 79d8 7c39 3e0b ca3b 4c12 3e3d
000000e0: e2ac 1abd 909a 1c3d ad88 853a e780 963c
000000f0: f3f9 e5bc f9f6 253d f4f2 633c 1cf7 b53d
00000100: c025 cf3c fb08 e5bc 9411 80bc f55f da3c
00000110: 9f9b 21bc 3fc6 443d 1f18 293c b7ca 74bd
00000120: 1388 3e3d db67 a43b dcde 723c 4f71 793d
00000130: 9074 57bd bc99 97bc dc0f 153d 64db 08bd
00000140: a80a b4bb e2ad 27bd 9891 ecbc 6680 1b3c
00000150: 6f9f 97bd a994 87bd aad5 98bc 8692 8bbc
00000160: 6279 e03b c6f2 96bc 0e11 533d 4f41 38bd
00000170: 17f2 c8bc a2cf 47bd 8d63 3cbd 436b 1a3d
00000180: b799 713d bd1d 98bc 5f18 273d 5818 dfbc
00000190: c70b 93bb 6a28 99bc 6578 8cbd 6578 573c
000001a0: e93f 293c e576 2ebc 1b47 403d 832d 483d
000001b0: f20b cebc 1ee9 1d3d c164 4c3c 05bf 933c
000001c0: 9831 7d3b a3ba 983b bdc9 1cbd 8dff 0c3d
000001d0: e41d 9fbc eb6b 47bd 20ba 1bbd 8c54 c6bc
000001e0: a367 0a3d 3198 ec3c 9c06 713d c67b e63c
000001f0: e238 533d 64c3 743d 537f 1ebd 6ca4 5ebd
00000200: b627 763c 7752 4e3b 5377 36bb 9d6b d0bc
00000210: 4b45 0abd cae5 9bbc 1084 0c3d 1a3f e23b
00000220: f0b7 3cbd bdc8 153c c359 21bb 7d00 55bd
00000230: 4dfc fd3c 5dca 18bd 9ca1 c4bc 0807 333d
00000240: 0a02 1bbd e422 2dbd bfae 29bd bd32 ac3c
00000250: d94c 113d 126c c0bc b194 713b 66cb 2cbc
00000260: 1492 263d fc52 16bd 7327 313d e1d5 233d
00000270: 9a73 d03c adfe d83c afa6 133d dc26 673c
00000280: 7b09 3fbc bba7 d2bc 90ba d93c c55f 343d
00000290: 4baf 363d 9ffa 793d a32d fcbc f82c a7bc
000002a0: 82d8 373d f6a9 113d 672c 073d fa64 80bd
000002b0: 84fd 86bd ced9 01bd 059d cebc 955f e3bc
000002c0: db9a fd3c ffcc 13bc 48e9 61bc e3fa 3f3c
000002d0: f865 36bc 7e77 acbc 0eb2 73bc b54e d5bc
000002e0: e1b5 6abc b503 83bc 0dd5 50bd d1b9 293d
000002f0: 8d66 50bd 4a92 c5ba a51d 82bd bc2f e1bc
00000300: d45b 74bd e6b2 cb3c 60bc 73bd 37eb b43c
00000310: 219c 47bd f743 593c 546c 493d 9885 3a3d
00000320: 52fc e4bc c77d 013c 6fa6 023d e10f 5c3c
00000330: 2488 833b fc98 24bd 5cbf 993c 3b1e 073d
00000340: 11e6 c93c 2f24 0f3d 34cf b6bb fe5b 223c
00000350: ccd1 f1bc 04ee 6f3d 6676 463d c03e d63c
00000360: 5222 453d 4768 55bd 35f4 bfbc 885a ce3c
00000370: 565f 76bb 944a e03c cf31 91bc b090 253d
00000380: 665c 763c e7ea 3d3d 8985 be3c 2ee8 3bbd
00000390: fe5d 6d3c 7cba 87bd 7347 50bb 78e0 39bd
000003a0: 2d3d dc3c 6aff 43bd fe7c 4dbd 7eac dc3c
000003b0: 956f 0ebd 2c18 503d 7114 773d c813 313d
000003c0: 1767 10bd 0bff 46bd acb6 4ebd 9ecc bb3b
000003d0: b697 173d f263 7cbd 48fa 383d 8606 12bd
000003e0: 7673 46bd eba4 20bd 199d 93ba 4c92 4d3d
000003f0: ad68 4ebd 9c6b 81bc 34fa 6cbc 4348 5f3d

linear.2.bias f4 [256]
0.05512853 -0.016291756 0.046062738 0.047690086 -0.006714404 -0.029273048 0.010734109 0.00040791443
0.03249167 0.028788844 0.011268779 -0.047930654 0.042145327 -0.012124232 0.012731831 -0.010100549
0.03751163 -0.033797827 -0.00048687303 -0.038815588 0.04921643 -0.1538582 0.050122354 -0.016499309
0.018483242 0.012901449 0.017708385 0.011079863 -0.056163408 0.025106532 -0.05384802 -0.018173207
0.05173695 -0.009167601 -0.053306364 0.00069324666 0.0075731375 0.035640053 0.028584259 -0.021877568
0.02082249 0.020824667 0.055606797 -0.020183766 0.015395362 0.045386042 -0.034133863 -0.06174276
-0.05702184 0.02060056 0.04357112 0.012552747 -0.019835293 -0.00772278 0.018759115 -0.06001865
0.0430082 0.034401383 -0.025853468 0.00845216 -0.06657685 -0.037378833 0.055555154 0.05390779
-0.0011052917 -0.029485488 0.021839531 0.046150904 -0.016115991 -0.008932606 -0.031812586 0.023546549
-0.02966078 0.013953511 0.07428367 -0.051620472 -0.040968332 -0.015463059 -0.006504152 -0.042663634
-0.014862463 0.036943924 0.050273944 -0.019299231 0.012511297 -0.04102005 0.017543146 -0.026666546
-0.031795926 -0.0352058 0.047186464 0.041122545 0.041652884 0.0031409825 0.057041228 -0.056771208
-0.036813382 -0.019309422 0.018284015 0.035389088 0.016100055 -0.022398632 0.016486498 -0.033300318
0.049871635 0.017924052 -0.0365914 -0.060878936 0.061993618 0.030573117 0.06200058 -0.015060777
-0.04514715 0.0412999 -0.05205163 -0.0461057 0.017409343 0.037833054 -0.05598119 -0.055121683
0.0245189 0.05688109 -0.03653105 0.030986473 0.022002224 0.029250113 0.026793238 -0.027059106
0.0010676365 0.0038978385 -0.004124385 0.012396311 0.016494265 0.0015663913 -0.008655369 -0.05588077
-0.033888645 -0.04347242 -0.042207986 -0.028366167 -0.012606081 -0.04705705 0.009956906 -0.025689902
0.054910984 -0.019103752 0.03894857 -0.044627935 -0.058191355 0.05371919 -0.046611324 0.006144548
-0.017226577 -0.08396041 -0.061694495 -0.10280912 -0.027204879 0.02707393 0.03197033 0.05488033
-0.0088115735 -0.02899887 -0.059503805 0.008418353 -0.04639713 0.006259097 -0.040061325 -0.016170098
-0.03637031 -0.026583077 -0.019588478 0.030035341 0.051400688 0.034266062 0.044262443 0.044439856
0.0046162847 0.010526118 -0.0033175258 0.049537692 -0.0035713743 0.048085738 -0.020224983 0.016757151
0.05234067 0.01404637 -0.057697978 0.056640457 -0.06073435 0.0018507857 0.0052358154 0.021937206
0.012929257 -0.03165044 -0.017832892 -0.0013905403 -0.062490445 0.05087037 -0.024352921 0.064234056
0.029916935 0.023538463 -0.023475055 0.027764784 -0.03856704 0.016515052 -0.050914943 -0.017435579
0.05582121 -0.040118247 -0.04695111 0.025174432 0.034688123 0.049651455 -0.044254366 0.045619715
0.04802739 -0.00078461645 -0.02601671 0.015701696 -0.08045663 -0.019656444 0.03844028 -0.03844929
-0.008416015 -0.048345946 0.005016015 -0.05255366 -0.012417128 -0.0030022983 -0.054899476 -0.06043613
0.062110074 -0.0016363772 -0.052490685 0.04882628 0.009818178 0.058244873 -0.006420645 0.021058802
0.025671871 0.009206929 0.023170648 0.041687097 -0.031370383 0.05739462 -0.034100804 -0.049571794
0.040616214 -0.044299763 0.067810565 -0.00754895 0.008428254 -0.015619083 0.030318053 -0.016125366
00000000: 74ce 613d 4a76 85bc 48ac 3c3d ae56 433d
00000010: 8104 dcbb 08ce efbc 1ede 2f3c 59dd d539
00000020: fc15 053d 95d6 eb3c afa0 383c ef52 44bd
00000030: 94a0 2c3d b7a4 46bc 2b99 503c c67c 25bc
00000040: cca5 193d 976f 0abd fe42 ffb9 18fd 1ebd
00000050: 2b97 493d 018d 1dbe 194d 4d3d 8f29 87bc
00000060: 2b6a 973c 9960 533c 2d11 913c 5088 353c
00000070: 9a0b 66bd 37ac cd3c be8f 5cbd fadf 94bc
00000080: 20ea 533d b533 16bc c657 5abd ffba 353a
00000090: 1528 f83b 4efb 113d 8929 ea3c 9638 b3bc
000000a0: ed93 aa3c 7e98 aa3c f4c3 633d 6d58 a5bc
000000b0: d43c 7c3c b7e6 393d f3cf 0bbd fae5 7cbd
000000c0: bc8f 69bd 81c2 a83c a177 323d 09aa 4d3c
000000d0: a07d a2bc 600f fdbb b7ac 993c 1ed6 75bd
000000e0: 5e29 303d 77e8 0c3d a7ca d3bc ee7a 0a3c
000000f0: 7259 88bd 8c1a 19bd cd8d 633d 6ace 5c3d
00000100: 6fdf 90ba 8d8b f1bc d1e8 b23c bb08 3d3d
00000110: af05 84bc 115a 12bc ea4d 02bd b1e4 c03c
00000120: 2afb f2bc 449d 643c 0922 983d fd6f 53bd
00000130: 69ce 27bd c558 7dbc c820 d5bb 10c0 2ebd
00000140: b081 73bc 8352 173d 0dec 4d3d 6c19 9ebc
00000150: 2ffc 4c3c a404 28bd a5b6 8f3c cd73 dabc
00000160: 723c 02bd f533 10bd 9846 413d 1d70 283d
00000170: 379c 2a3d f1d8 4d3b 10a4 693d ed88 68bd
00000180: a1c9 16bd cb2e 9ebc 5cc8 953c 26f4 103d
00000190: 43e4 833c 567d b7bc b10e 873c ea65 08bd
000001a0: 3346 4c3d 76d5 923c dde0 15bd 315c 79bd
000001b0: 05ed 7d3d 7974 fa3c 52f4 7d3d 7ac1 76bc
000001c0: 38ec 38bd 152a 293d 1734 55bd 55d9 3cbd
000001d0: 0a9e 8e3c d5f6 1a3d 884c 65bd 46c7 61bd
000001e0: dcdb c83c 25fc 683d 95a1 15bd 58d7 fd3c
000001f0: 023e b43c ef9d ef3c 7e7d db3c 0fab ddbc
00000200: f0ef 8b3a e172 7f3b d925 87bb e619 4b3c
00000210: fb1e 873c 5f4f cd3a 40cf 0dbc 3ce3 64bd
00000220: d2ce 0abd 2310 32bd 48e2 2cbd 2a60 e8bc
00000230: bc89 4ebc e5be 40bd 4a22 233c a173 d2bc
00000240: 57ea 603d 797f 9cbc 8988 1f3d c8cb 36bd
00000250: 0f5a 6ebd a708 5c3d 84eb 3ebd 3458 c93b
00000260: c01e 8dbc 6ff3 abbd 5eb3 7cbd 978d d2bd
00000270: c4dc debc 25ca dd3c 52f3 023d 32ca 603d
00000280: 6b5e 10bc 0a8f edbc 43ba 73bd 22ed 093c
00000290: eb0a 3ebd 1c19 cd3b 5817 24bd 2777 84bc
000002a0: 09f9 14bd c1c4 d9bc 0478 a0bc ad0c f63c
000002b0: 8789 523d 925a 0c3d 894c 353d 9106 363d
000002c0: 3444 973b bd75 2c3c d96a 59bb 09e8 4a3d
000002d0: b80d 6abb 8df5 443d ddae a5bc 4b46 893c
000002e0: 2c63 563d bf22 663c b754 6cbd d3ff 673d
000002f0: 95c4 78bd 1096 f23a 3491 ab3b a8b5 b33c
00000300: 3cd5 533c e4a3 01bd 4916 92bc ca42 b6ba
00000310: fbf5 7fbd 735d 503d c77f c7bc 258d 833d
00000320: 5c14 f53c bcd3 c03c c24e c0bc f972 e33c
00000330: 79f8 1dbd 934a 873c 308c 50bd 0fd5 8ebc
00000340: c8a4 643d 0853 24bd cf4f 40bd 9c3a ce3c
00000350: 2215 0e3d 535f 4b3d 1144 35bd bddb 3a3d
00000360: 5eb8 443d b8ae 4dba ff20 d5bc d8a0 803c
00000370: 72c6 a4bd 8d06 a1bc 8e73 1d3d 017d 1dbd
00000380: 53e3 09bc 6606 46bd 625d a43b 8242 57bd
00000390: 3671 4bbc 35c2 44bb 46de 60bd e08b 77bd
000003a0: 2267 7e3d b57b d6ba 7900 57bd 11fe 473d
000003b0: 6cdc 203c 2d92 6e3d 4664 d2bb 8283 ac3c
000003c0: d14d d23c a9d8 163c 5fd0 bd3c 17c0 2a3d
000003d0: 3b7e 00bd 9f16 6b3d 49ad 0bbd cb0b 4bbd
000003e0: 305d 263d ab73 35bd 44e0 8a3d 2f5d f7bb
000003f0: a916 0a3c 2fe7 7fbc 915d f83c 5819 84bc

linear.4.weight f4 [6, 256]
-0.046891626 -0.0063874647 0.040980134 0.015273262 -0.063462004 -0.05119205 0.057162568 -0.08164951
0.027717385 0.008395444 -0.008429031 0.0616095 0.0068508107 0.048505887 0.005283055 0.06437419
0.050662056 0.065892965 -0.05172579 0.011788425 0.04946331 -0.11202181 0.015923286 -0.061508525
-0.0012787041 0.05327279 0.014027085 0.011375157 -0.045971774 -0.030397564 0.020483192 0.053768326
0.00064708665 -0.0074453265 0.012836711 0.039935917 -0.053934153 -0.041948084 0.03572557 -0.05876825
-0.1171097 -0.01626973 -0.055905394 0.029639544 0.011566881 0.0212877 -0.057598095 0.009383744
-0.025773466 -0.011775977 0.0067748004 0.014468031 -0.062124286 0.00094387383 0.005460304 0.046603337
-0.021829914 -5.9404832e-05 -0.016730772 -0.00927405 0.05297151 0.05026056 0.030084053 -0.05187869
0.052502435 -0.055896614 0.010091092 -0.016161943 0.057529353 -0.0029586367 0.033221 0.008697764
-0.07862787 0.028610159 0.03566818 -0.08079253 0.02851923 -0.024576252 -0.037060205 0.03672352
-0.00031227985 0.04384378 0.08740313 -0.01922273 -0.05209619 0.06362573 0.052626155 0.05321638
-0.0052881604 -0.048037272 0.034628574 0.03981287 -0.050006203 -0.040953245 0.033064663 0.01956237
0.023029374 -0.053846486 0.06515751 0.04739214 -0.02559837 0.022697363 0.018588101 -0.06038058
0.06307024 -0.0156187955 -0.009888921 -0.06959773 -0.024355236 0.058241814 0.044444133 0.038547244
-0.054510646 -0.0035903703 0.05165013 0.043080498 0.062774144 -0.020375596 -0.04999329 -0.05198208
0.05269714 0.00061635853 0.03083245 -0.03544777 -0.05588786 0.036288086 -0.019507281 0.0438603
0.061488237 -0.03745568 -0.035358444 -0.01979565 -0.0055772816 -0.03448026 0.0236413 -0.01928646
0.0397346 0.03183166 0.029931484 0.0698482 -0.003909532 -0.015313377 -0.050724313 -0.045355346
0.039122917 -0.050569966 0.026760513 0.06803488 0.0483597 -0.0369739 0.028750133 0.050705135
0.044773165 -0.06578768 0.038388416 -0.059001002 -0.038954407 -0.03954436 -0.030891819 -0.028005682
-0.028088575 0.04190705 0.01111597 0.025903177 0.056274436 0.052923314 -0.025557889 -0.03622833
-0.10005364 -0.05414317 0.05323113 0.064472355 0.04031502 -0.055845268 0.03538064 0.0076748244
-0.016835243 -0.026065651 -0.03232635 -0.003849995 0.06620265 -0.0016670706 -0.0037530244 0.05339553
0.0352698 0.044179212 0.0322755 0.06104235 -0.038643528 -0.03154131 -0.068792194 0.043070827
-0.057138592 0.038684 0.037061848 0.014085245 -0.027794106 0.031416755 -0.004889617 0.056109097
-0.021963945 0.063785836 0.038795393 -0.018662388 -0.029922003 0.04847066 -0.019938294 -0.013480607
-0.057984844 0.057302367 0.0123739755 0.029719593 0.028205687 0.066706754 -0.06584805 -0.03763775
-0.04823704 0.052677263 -0.019372178 0.04022227 -0.09003356 0.049463645 0.011558127 -0.013877604
0.049759343 0.027741125 -0.02671525 -0.012254942 0.055450123 -0.02171998 -0.09217096 0.0043805144
0.013410037 0.02844051 -0.04563051 0.013019639 0.052380163 0.048734453 0.018293794 -0.019969165
-0.04883114 -0.09328495 0.016886182 0.025580771 0.02138489 -0.0032080242 -0.034860753 0.011687978
-0.04487899 0.038558286 0.035498325 -0.01132827 -0.022437781 -0.01467553 -0.030969463 -0.03086568
00000000: 6f11 40bd f04d d1bb c9da 273d b43c 7a3c
00000010: 5ef8 81bd c1ae 51bd 4c23 6a3d dc37 a7bd
00000020: 920f e33c 0b8d 093c eb19 0abc 3e5a 7c3d
00000030: c47c e03b 1cae 463d 7a1d ad3b 9ed6 833d
00000040: 0483 4f3d e4f2 863d 6cde 53bd 3d24 413c
00000050: 0a9a 4a3d b16b e5bd 8d71 823c 5df0 7bbd
00000060: 319a a7ba 9234 5a3d dcd1 653c de5e 3a3c
00000070: e64c 3cbd 5004 f9bc 5ecc a73c 2d3c 5c3d
00000080: 40a1 293a edf7 f3bb 1151 523c d893 233d
00000090: 0fea 5cbd c1d1 2bbd fa54 123d fab6 70bd
000000a0: 36d7 efbd 1948 85bc 0efd 64bd a1ce f23c
000000b0: 0483 3d3c 8b63 ae3c fbeb 6bbd 46be 193c
000000c0: e022 d3bc 07f0 40bc 25ff dd3b 520b 6d3c
000000d0: 0976 7ebd 4d6e 773a 5aec b23b 24e3 3e3d
000000e0: a6d4 b2bc 7429 79b8 f90e 89bc 2ff2 17bc
000000f0: a7f8 583d 04de 4d3d d572 f63c c07e 54bd
00000100: cb0c 573d d9f3 64bd 1c55 253c 0d66 84bc
00000110: e6a3 6b3d b0e5 41bb be12 083d 1181 0e3c
00000120: a607 a1bd da5f ea3c cc18 123d 8e76 a5bd
00000130: 29a1 e93c 2354 c9bc 71cc 17bd 676b 163d
00000140: 7eb9 a3b9 8995 333d 6a00 b33d fd78 9dbc
00000150: d162 55bd 354e 823d 868e 573d 6bf9 593d
00000160: 4e48 adbb bbc2 44bd b1d6 0d3d d212 233d
00000170: 4ed3 4cbd 97be 27bd d06e 073d 4341 a03c
00000180: 19a8 bc3c 228e 5cbd 4d71 853d 431e 423d
00000190: acb3 d1bc d2ef b93c 1346 983c a151 77bd
000001a0: f82a 813d fae5 7fbc 2405 22bc 4189 8ebd
000001b0: a284 c7bc f88e 6e3d 0d0b 363d b7e3 1d3d
000001c0: 8e46 5fbd 6b4c 6bbb 168f 533d 2d75 303d
000001d0: bb8f 803d b9ea a6bc c4c5 4cbd 29eb 54bd
000001e0: f5d8 573d 1f93 213a 5694 fc3c ae31 11bd
000001f0: abea 64bd d1a2 143d bccd 9fbc dca6 333d
00000200: 17db 7b3d 216b 19bd 04d4 10bd 7d2a a2bc
00000210: a1c1 b6bb 2c3b 0dbd 66ab c13c a3fe 9dbc
00000220: bfc0 223d ea61 023d df32 f53c 930c 8f3d
00000230: 881b 80bb f5e4 7abc 4cc4 4fbd 87c6 39bd
00000240: 5a3f 203d 7422 4fbd dd38 db3c df55 8b3d
00000250: d214 463d f271 17bd 6685 eb3c 30b0 4f3d
00000260: 1164 373d b1bb 86bd 2c3d 1d3d 09ab 71bd
00000270: a88e 1fbd 44f9 21bd d710 fdbc 2c6c e5bc
00000280: 031a e6bc baa6 2b3d c21f 363c e632 d43c
00000290: 0680 663d 1ec6 583d c75e d1bc 2864 14bd
000002a0: ece8 ccbd 3bc5 5dbd e308 5a3d 150a 843d
000002b0: 5d21 253d 02be 64bd 4aeb 103d 187d fb3b
000002c0: 10ea 89bc a287 d5bc a368 04bd 3350 7cbb
000002d0: 4195 873d 9b81 daba 4df5 75bb 45b5 5a3d
000002e0: 1177 103d 43f5 343d 5133 043d 8b07 7a3d
000002f0: ad48 1ebd 7631 01bd ece2 8cbd 096b 303d
00000300: 280a 6abd 1d73 1e3d 2ace 173d cdc5 663c
00000310: 77b0 e3bc dbae 003d 1539 a0bb a7d2 653d
00000320: bbed b3bc 26a2 823d ebe7 1e3d dde1 98bc
00000330: fd1e f5bc 2c89 463d a255 a3bc c4dd 5cbc
00000340: 8481 6dbd e3b5 6a3d 37bc 4a3c 8176 f33c
00000350: 9d0f e73c 8d9d 883d 58db 86bd 0b2a 1abd
00000360: 3494 45bd 1dc4 573d 67b2 9ebc 1bc0 243d
00000370: 8463 b8bd 649a 4a3d 4c5e 3d3c e45e 63bc
00000380: 74d0 4b3d 5b41 e33c f1d9 dabc f4c8 48bc
00000390: ab1f 633d 19ee b1bc 21c4 bcbd 6b8a 8f3b
000003a0: c6b5 5b3c 13fc e83c 0fe7 3abd 5350 553c
000003b0: 958c 563d c79d 473d dedc 953c 6096 a3bc
000003c0: 2903 48bd 2e0c bfbd e454 8a3c c48e d13c
000003d0: 5d2f af3c b73d 52bb 26ca 0ebd ef7e 3f3c
000003e0: 08d3 37bd 4bef 1d3d b166 113d 359a 39bc
000003f0: 70cf b7bc a271 70bc acb3 fdbc 06da fcbc

linear.4.bias f4 [6]
-0.029263351 0.067255765 0.057157125 -0.029002657 0.00984723 -0.0386108
00000000: b2b9 efbc 64bd 893d 971d 6a3d fb96 edbc
00000010: 4756 213c 5c26 1ebd
