proj/Relu_neuro_net.pt (torch, 288727 bytes, 6 tensors)

linear.0.weight f4 [256, 16]
-0.12563252 -0.10070765 -0.21219401 -0.2738463 -0.022723936 0.19475974 0.20111696 -0.17584626
-0.11990844 -0.1846369 0.18667392 -0.0561258 0.006134338 0.05824667 -0.022187086 -0.16238908
0.11202074 0.055485558 0.01119551 -0.06979936 0.08469817 -0.14991508 -0.06535083 -0.07640123
-0.13457298 0.08206923 0.050515365 0.17989163 -0.34008282 0.11827531 0.027277445 -0.06915545
0.12041803 -0.21342565 0.22271983 -0.16085711 -0.18910378 0.02069929 -0.056185268 0.05490286
-0.0059139077 0.112446144 0.06964956 -0.0318052 0.13562326 0.30586648 -0.23749487 0.1417053
-0.1649272 -0.1050771 0.019078625 -0.07546455 -0.1314615 0.101780444 -0.16405399 0.13408117
-0.11196032 0.02546525 0.17050718 0.00012590356 -0.23033565 -0.036579777 0.06858075 0.1761361
-0.09137574 0.22691567 0.07727164 0.20736721 -0.0498109 0.18514419 0.083177164 -0.1859616
-0.01295397 0.023079252 0.0030396534 0.13230869 -0.23509371 0.12980065 -0.034529746 -0.016223691
-0.11627624 0.0032693474 -0.09486787 -0.118140854 0.03849889 0.06296315 -0.21288638 0.14629984
-0.029651962 0.15746547 -0.04673312 0.14552404 -0.08124734 0.14065124 0.040400527 -0.07375982
0.20299937 0.23227592 0.0785907 0.017581683 -0.22903761 -0.23875408 0.14202061 -0.009141703
-0.18296306 0.18242715 0.021207428 0.16380122 0.016253462 -0.21940249 -0.0019896813 -0.19521669
0.1866174 -0.17593984 -0.065139234 0.048022516 -0.12630215 0.09454207 0.016611274 -0.07126377
0.07047768 -0.10234565 0.09366201 -0.19146065 0.026452605 -0.22564092 0.24463959 -0.2387515
-0.23279278 0.2171396 -0.063150086 -0.19337812 0.004800587 0.0926511 -0.0033551436 -0.18616001
-0.19400427 0.16468313 0.11553046 -0.026891898 0.0057458812 0.04185695 0.26694477 -0.22206394
0.09333815 0.20720266 0.17230089 -0.26632905 0.20561668 0.105467685 0.029462053 -0.13745968
-0.2391516 0.13568312 0.093992375 -0.13573001 0.021790525 -0.10585576 0.07422494 -0.015878348
-0.0986804 -0.18423559 0.039800145 0.15932667 -0.063909024 0.09330054 -0.06949244 0.22026823
-0.107011855 -0.09142139 -0.022105953 0.040024146 -0.17182925 -0.14023492 -0.033403426 0.0064092726
-0.046238262 0.18721594 -0.20724356 0.09594721 0.23327473 -0.066663995 0.14492716 0.10877583
0.19936188 0.12357709 0.042564422 0.15418257 -0.1559286 0.14758776 -0.1094397 -0.036297534
0.14869528 0.07604691 0.13833839 -0.017400147 0.053690635 -0.0840598 -0.2855116 0.13605915
-0.100029945 -0.03703596 -0.20643057 0.08040286 -0.09597418 -0.18372636 -0.070273735 0.14986464
-0.102681726 0.15616399 0.21818796 0.15321282 0.072994314 -0.109230444 0.21842498 -0.1282293
0.08700757 0.2245839 -0.004417557 -0.11169155 -0.16822949 -0.100354224 -0.16993815 0.1523145
-0.117096916 -0.046390064 -0.13160633 0.12246076 0.14962593 0.18845256 -0.17434089 -0.16014346
-0.20133652 -0.08760836 0.20062138 -0.12972754 0.17754772 -0.09318041 0.13061711 0.28954303
0.1951333 -0.15903395 0.097369306 -0.0532728 0.17281248 -0.1550691 -0.060122408 0.20813523
-0.008459394 0.013531021 -0.12803009 -0.22897723 -0.27391225 0.13271692 -0.23300323 -0.1805279
00000000: d0a5 00be d03f cebd 6349 59be 9535 8cbe
00000010: 8c27 babc 196f 473e 9bf1 4d3e 0b11 34be
00000020: 8e92 f5bd 7511 3dbe 7327 3f3e 2be4 65bd
00000030: 8f02 c93b 0f94 6e3d b1c1 b5bc 5349 26be
00000040: 216b e53d d344 633d 5f6d 373c f8f2 8ebd
00000050: 3c76 ad3d 5783 19be a8d6 85bd 4078 9cbd
00000060: 80cd 09be ea13 a83d 33e9 4e3d 8335 383e
00000070: 561f aebe 533a f23d f374 df3c 5fa1 8dbd
00000080: ba9d f63d 418c 5abe ab10 643e bab7 24be
00000090: 6ca4 41be 8f91 a93c 8622 66bd d2e1 603d
000000a0: 74c9 c1bb 2a4a e63d 6ea4 8e3d 2b46 02bd
000000b0: d3e0 0a3e 889a 9c3e db31 73be 321b 113e
000000c0: ade2 28be aa32 d7bd c74a 9c3c 288d 9abd
000000d0: d89d 06be 4472 d03d c5fd 27be 934c 093e
000000e0: 744b e5bd 809c d03c 6f99 2e3e fb04 0439
000000f0: 1cdd 6bbe add4 15bd 1074 8c3d 065d 343e
00000100: 3423 bbbd 955c 683e 9840 9e3d 1258 543e
00000110: 8406 4cbd 7096 3d3e ca58 aa3d b86c 3ebe
00000120: e33c 54bc b310 bd3c ec34 473b ee7b 073e
00000130: 68bc 70be 76ea 043e 106f 0dbd 8ce7 84bc
00000140: 3d22 eebd 8c42 563b 164a c2bd d5f3 f1bd
00000150: 03b1 1d3d d3f2 803d e3fe 59be a0cf 153e
00000160: ace8 f2bc a13e 213e 3a6b 3fbd 4104 153e
00000170: 0165 a6bd e106 103e 067b 253d 630f 97bd
00000180: 11df 4f3e bdd9 6d3e 29f4 a03d 7607 903c
00000190: d688 6abe f37b 74be da6d 113e 15c7 15bc
000001a0: ab5a 3bbe 2fce 3a3e 33bb ad3c 82bb 273e
000001b0: fb25 853c 0cab 60be 5065 02bb e2e6 47be
000001c0: a218 3f3e 9329 34be b867 85bd 42b3 443d
000001d0: 5a55 01be 469f c13d 5e14 883c bdf2 91bd
000001e0: 9a56 903d 999a d1bd ded1 bf3d 430e 44be
000001f0: 22b3 d83c 6a0e 67be cd82 7a3e 467b 74be
00000200: 3b61 6ebe d859 5e3e d554 81bd ea04 46be
00000210: 3e4e 9d3b dcbf bd3d f8e1 5bbb bba0 3ebe
00000220: 0ea9 46be b2a2 283e 3c9b ec3d 664c dcbc
00000230: f247 bc3b 3172 2b3d fcac 883e bb64 63be
00000240: 1228 bf3d ef2c 543e a56f 303e 485c 88be
00000250: 2e8d 523e 71ff d73d 675a f13c 3bc2 0cbe
00000260: 28e4 74be 84f0 0a3e 137f c03d cffc 0abe
00000270: 0b82 b23c e8ca d8bd 3f03 983d 4f13 82bc
00000280: f318 cabd 41a8 3cbe 7a05 233d 8826 233e
00000290: bce2 82bd 5a14 bf3d 0d52 8ebd ff8d 613e
000002a0: 0829 dbbd 233b bbbd 8b17 b5bc 5cf0 233d
000002b0: 02f4 2fbe be99 0fbe 08d2 08bd e004 d23b
000002c0: 5564 3dbd 89b5 3f3e a837 54be f97f c43d
000002d0: 92df 6e3e 2287 88bd c967 143e ddc5 de3d
000002e0: 8525 4c3e fc15 fd3d 0858 2e3d 09e2 1d3e
000002f0: bfab 1fbe 3f21 173e ec21 e0bd b9ac 14bd
00000300: 9343 183e 7bbe 9b3d 94a8 0d3e c18a 8ebc
00000310: b6ea 5b3d 8b27 acbd 942e 92be 1753 0b3e
00000320: 80dc ccbd 05b3 17bd 8962 53be 41aa a43d
00000330: 1c8e c4bd c322 3cbe adeb 8fbd 1e76 193e
00000340: cc4a d2bd 74e9 1f3e aa6c 5f3e d2e3 1c3e
00000350: 0b7e 953d 36b4 dfbd ccaa 5f3e 8b4e 03be
00000360: 0631 b23d 52f9 653e 27c1 90bb 8abe e4bd
00000370: 5a44 2cbe 8486 cdbd 4404 2ebe 55f8 1b3e
00000380: 82d0 efbd 8203 3ebd cfc3 06be b5cc fa3d
00000390: 8a37 193e b5f9 403e 6b86 32be a6fc 23be
000003a0: 292b 4ebe 036c b3bd b16f 4d3e 4cd7 04be
000003b0: 12cf 353e 5fd5 bebd 7ec0 053e fc3e 943e
000003c0: 06d1 473e ccd9 22be 8f69 c73d 9434 5abd
000003d0: c1f5 303e 6fca 1ebe ea42 76bd 6721 553e
000003e0: 4599 0abc 37b1 5d3c 521a 03be 0279 6abe
000003f0: 3a3e 8cbe f2e6 073e 6698 6ebe 4edc 38be

linear.0.bias f4 [256]
-0.12810987 0.009510423 -0.04799094 0.17593224 0.21053204 -0.0534373 -0.11651781 -0.06649456
0.092346735 -0.24694775 0.24106054 0.19443388 -0.30964926 0.13822797 0.13451205 -0.22277024
-0.02481663 -0.1050861 0.11408704 0.12946537 -0.13570286 0.22209026 0.20472787 -0.13331148
0.14204934 0.07221931 -0.23987982 -0.2264159 0.08652259 0.23321435 0.20162503 -0.024095345
-0.22095387 0.18374045 -0.033138957 0.021546215 -0.050680507 -0.015558473 0.21801467 0.25958225
-0.1516434 0.2290153 0.026486604 -0.12562624 0.12416094 -0.117078155 -0.104728095 -0.3578875
0.21548136 -0.03219804 -0.07274039 -0.10617906 -0.123675846 -0.13082266 -0.20846395 0.21862936
-0.2008633 -0.08158898 -0.10045405 -0.09303281 0.019207971 -0.17614655 0.1968186 0.23587386
-0.15158391 -0.043549895 0.13601305 -0.27369702 -0.15679574 -0.17771032 -0.016408574 -0.23581801
0.14784627 0.15310729 0.22487338 -0.062420942 -0.0005887247 0.18265794 0.1755628 -0.21340139
-0.17595316 0.20914337 0.15264498 0.2114363 0.04006997 -0.14622875 -0.0027656092 -0.060870405
0.26779404 -0.04781897 0.10076999 -0.069619186 0.20750628 -0.016251257 -0.17506564 0.13597976
-0.13030387 -0.06939594 0.2798541 0.24313608 -0.06295676 -0.008802728 0.11761837 0.001265202
-0.007657024 0.09065519 0.1705468 -0.037618145 -0.16338038 0.22377989 0.17253073 0.062309332
-0.09752697 -0.05805488 -0.07337721 0.23879889 -0.20710911 0.07109565 -0.008924517 0.002392455
-0.06710478 -0.06964008 -0.018284194 -0.111000635 0.21265659 0.003959199 0.21995878 -0.17066222
-0.25982872 -0.023886226 -0.025016153 0.010468693 0.1703718 0.24475525 -0.15759884 0.034006085
-0.25578374 -0.27868688 -0.253422 -0.1609608 0.09274986 -0.215035 -0.032836106 0.05641597
-0.18561149 0.13470218 0.23136868 -0.0204572 -0.24460618 -0.16407554 0.16348268 0.07993436
0.035692986 -0.16190292 -0.28416947 -0.0012748424 -0.026759967 0.043912143 -0.15506645 0.21256809
0.2424196 -0.08392021 -0.18153249 0.11220185 -0.10773626 -0.12589534 0.18923405 -0.093563706
-0.04267786 0.18135332 0.19784056 0.19155505 -0.09417609 0.23614404 -0.1698583 0.024694031
-0.20283799 0.28232595 0.19407338 0.26146308 -0.30732372 -0.2609293 -0.17667142 0.108296804
-0.28242353 0.25511888 -0.24708037 -0.11660855 0.0018170835 -0.14632227 0.19255018 -0.27112117
-0.16795258 0.06555623 -0.22235319 0.13032608 -0.18050055 -0.097616754 0.0017590107 -0.050490964
-0.21141054 0.17887713 -0.10175567 -0.04629035 0.13220811 0.046187647 -0.099708736 -0.04718915
-0.05347909 0.16727869 0.018651657 0.1929402 -0.10964663 -0.15581177 0.22725122 -0.010849539
0.098114036 -0.17771675 -0.040025562 0.1499299 -0.00853295 -0.22108532 -0.050719324 -0.02111929
0.13919221 0.18372004 0.13417733 0.14443386 0.13064186 0.1299821 0.1660732 0.0663194
0.2192076 0.17800684 -0.25535962 -0.14473939 -0.055624884 -0.07216668 0.085159235 -0.008338686
-0.12263046 0.19821389 -0.22429727 -0.13047107 -0.30874386 -0.13593613 0.19477169 0.0348206
0.24898554 -0.08112292 -0.062567875 -0.24068402 -0.22464332 0.23721547 -0.07768746 -0.08283411
00000000: 3c2f 03be 9bd1 1b3c 2692 44bd 9527 343e
00000010: b695 573e 12e1 5abd e4a0 eebd 4d2e 88bd
00000020: 4920 bd3d dfdf 7cbe 93d8 763e ad19 473e
00000030: 598a 9ebe a28b 0d3e 87bd 093e e21d 64be
00000040: 3f4c cbbc 6237 d7bd 77a6 e93d 9292 043e
00000050: b1f5 0abe a16b 633e 2fa4 513e ce82 08be
00000060: 6275 113e b8e7 933d 0ea3 75be 92d9 67be
00000070: c132 b13d becf 6e3e cb76 4e3e 9a63 c5bc
00000080: bb41 62be 7526 3c3e b7bc 07bd b081 b03c
00000090: 5d96 4fbd f7e8 7ebc 3d3f 5f3e f7e7 843e
000000a0: 6848 1bbe fd82 6a3e 6ffa d83c 2aa4 00be
000000b0: 1748 fe3d acc6 efbd af7b d6bd 083d b7be
000000c0: 25a7 5c3e 18e2 03bd eaf8 94bd 6874 d9bd
000000d0: c349 fdbd 60f6 05be 9377 55be 60e0 5f3e
000000e0: 1caf 4dbe 2018 a7bd daba cdbd fc87 bebd
000000f0: 095a 9d3c c35f 34be d18a 493e eb88 713e
00000100: d038 1bbe 6061 32bd 0147 0b3e 0422 8cbe
00000110: 108f 20be b2f9 35be 466b 86bc 477a 71be
00000120: 0365 173e 28c8 1c3e 3545 663e 1aad 7fbd
00000130: a554 1aba af0a 3b3e bcc6 333e e585 5abe
00000140: 112d 34be ae29 563e f74e 1c3e c282 583e
00000150: 6920 243d fdbc 15be 393f 35bb 3f53 79bd
00000160: 4d1c 893e d3dd 43bd 7f60 ce3d 8194 8ebd
00000170: 877c 543e 5b21 85bc 6844 33be 473e 0b3e
00000180: 616e 05be 751f 8ebd 0949 8f3e aaf8 783e
00000190: 79ef 80bd 5139 10bc e6e1 f03d 22d5 a53a
000001a0: c6e7 fabb 6ea9 b93d d2a3 2e3e 7c15 1abd
000001b0: 304d 27be 8e26 653e e5ab 303e 1238 7f3d
000001c0: 38bc c7bd f4ca 6dbd ca46 96bd b287 743e
000001d0: 6914 54be 999a 913d 2338 12bc bcca 1c3b
000001e0: 3b6e 89bd 759f 8ebd bcc8 95bc 4d54 e3bd
000001f0: a6c2 593e 2bbc 813b e03c 613e 14c2 2ebe
00000200: 4508 85be 0cad c3bc adee ccbc e284 2b3c
00000210: f275 2e3e 1fa1 7a3e 9761 21be f749 0b3d
00000220: 16f6 82be 0cb0 8ebe 87c0 81be e8d2 24be
00000230: a3f3 bd3d 2332 5cbe 277f 06bd 6f14 673d
00000240: f010 3ebe 5eef 093e e9eb 6c3e dc95 a7bc
00000250: 0b7a 7abe 6b03 28be 0168 273e a0b4 a33d
00000260: cf32 123d e1c9 25be a97e 91be 9d18 a7ba
00000270: b837 dbbc 38dd 333d bdc9 1ebe 73ab 593e
00000280: d83c 783e 5cde abbd a7e3 39be 15ca e53d
00000290: d4a4 dcbd b5ea 00be 92c6 413e 549e bfbd
000002a0: fbce 2ebd afb4 393e b796 4a3e 0227 443e
000002b0: 65df c0bd becf 713e 56ef 2dbe 234b ca3c
000002c0: c3b4 4fbe 078d 903e 2cbb 463e 7dde 853e
000002d0: 8959 9dbe 8698 85be 5ae9 34be b7ca dd3d
000002e0: d199 90be f19e 823e a302 7dbe 77d0 eebd
000002f0: 342b ee3a 81d5 15be e02b 453e 65d0 8abe
00000300: c3fb 2bbe 5842 863d 8eb0 63be 3374 053e
00000310: 23d5 38be 4beb c7bd 9b8e e63a 9dcf 4ebd
00000320: 017c 58be 912b 373e 4765 d0bd f39a 3dbd
00000330: 9061 073e 422f 3d3d 1834 ccbd 6949 41bd
00000340: e40c 5bbd 1b4b 2b3e 5ccb 983c 1e92 453e
00000350: 6a8e e0bd 1f8d 1fbe 8bb4 683e 44c2 31bc
00000360: 03f0 c83d 61fb 35be d8f1 23bd 3987 193e
00000370: c9cd 0bbc 3164 62be 11bf 4fbd 5c02 adbc
00000380: 6788 0e3e 1b21 3c3e c865 093e 78e6 133e
00000390: fbc6 053e 071a 053e 180f 2a3e 77d2 873d
000003a0: f577 603e 6d47 363e 7fbe 82be 9036 14be
000003b0: ebd6 63bd 20cc 93bd f767 ae3d fc9e 08bc
000003c0: ae25 fbbd 95f8 4a3e 2fae 65be 359a 05be
000003d0: ad13 9ebe d732 0bbe 3b72 473e 0ca0 0e3d
000003e0: 11f6 7e3e c623 a6bd 9623 80bd df75 76be
000003f0: e608 66be 9de8 723e 9a1a 9fbd eea4 a9bd

linear.2.weight f4 [256, 256]
0.005692636 0.00949497 -0.00019902785 0.022884527 -0.039526522 -0.023130126 -0.063076645 0.014074976
-0.051197343 -0.05299091 0.037060753 -0.043567646 0.0413392 -0.015591373 0.0043209004 -0.050188176
-0.06895322 -0.053628694 -0.05662192 -0.04954141 -0.049519278 0.045468565 -0.044185866 0.0331845
-0.037897117 -0.009546337 -0.043220032 -0.012761072 -0.05176901 -0.001392067 -0.050986364 0.00049640157
0.04205648 0.010352408 -0.01965001 -0.047856063 -0.016617265 0.017834902 -0.0105421655 0.02813233
0.013264547 -0.054303024 0.06708742 -0.061756603 -0.029332897 -0.055528294 -0.030188533 -0.039938316
-0.037280757 0.0008418087 -0.029651044 0.07396806 -0.013161169 -0.0005061538 -0.008412408 -0.017084844
0.037382454 0.060372043 0.007675729 -0.034638528 -0.015502906 -0.03528077 0.026042467 -0.00826078
-0.046973962 -0.03623523 -0.0045138677 -0.1338211 -0.03102029 0.034383845 -0.033795852 0.010909335
-0.05698328 0.0070815817 -0.018749047 0.020103106 0.009744251 -0.07994045 -0.04607062 -0.06422023
0.058809854 0.033868745 -0.014805089 0.018531773 0.029071542 -0.07691596 -0.020785756 0.008836254
0.010566326 -0.042819727 0.037893042 -0.02283659 0.015506749 -0.021431584 -0.006319576 0.02539107
-0.044574685 0.035152685 -0.07085196 0.051181607 -0.045504056 0.02232137 0.019639619 0.041375108
-0.028369453 -0.009803642 0.0182387 -0.041455213 -0.043358438 -0.063372806 -0.04896357 -0.061831083
-0.006016895 -0.004790771 0.041212104 0.04163325 0.009566834 0.032172173 0.014503685 -0.06990677
-0.053184457 -0.01605741 -0.0034321614 0.0098902825 -0.03006121 -0.021463549 0.0029781046 -0.039811324
-0.024822181 -0.031870585 -0.02713149 -0.04934939 -0.054431506 -0.055198472 -0.019204576 0.015455424
0.08824746 0.030395182 -0.02595421 -0.025782228 -0.041382615 0.018140178 -0.06931526 0.039561342
-0.07888603 -0.038490757 -0.019730126 0.012783597 -0.028792141 0.013617379 0.05528986 -0.011173453
-0.0889856 0.035849363 0.029434822 -0.015212224 -0.016097916 0.011674458 -0.013526284 -0.0152100725
0.016110715 0.0018594696 -0.00367209 -0.0077319047 -0.01064459 -0.0022721093 0.016784098 0.004102247
0.037435893 0.04859911 -0.06290571 0.029735552 0.066266686 -0.010877318 -0.01076821 0.0612763
0.01976646 0.005070832 -0.04311653 -0.023401953 -0.0941014 -0.11378405 0.06825346 -0.027768156
-0.01715523 -0.021706294 -0.0024946437 -0.050410457 -0.023308583 0.000942428 -0.04318152 -0.024467384
-0.062664725 0.010184723 -0.008293417 -0.029621061 0.04592326 -0.042626962 -0.034389183 -0.034269556
-0.039598163 0.020697756 0.044936165 0.010467471 0.032448314 0.06630989 -0.0050281114 0.016962178
-0.040230684 0.021848813 0.009596265 0.021837825 0.049134266 -0.059996054 0.061885525 -0.046759047
-0.05053469 -0.008928125 -0.021267261 -0.048635673 -0.005594732 0.049224928 0.027559409 -0.023836967
0.016709337 -0.10044551 0.028396579 -0.00855093 -0.078881435 -0.010649262 0.0376037 0.039034236
0.02495312 0.028908655 -0.019359475 0.01997423 0.088094816 -0.01014027 -0.060713872 -0.025527604
-0.055639815 -0.0010833711 -0.016738081 0.014853385 -0.033822406 -0.0015056083 0.016308032 -0.037405483
-0.02704792 0.012853543 0.004539686 0.021087376 -0.04416001 -0.06547212 0.017363247 -0.08558303
00000000: 4b89 ba3b ca90 1b3c 22b2 50b9 5578 bb3c
00000010: 90e6 21bd 647b bdbc 542e 81bd ba9a 663c
00000020: 4eb4 51bd ff0c 59bd 04cd 173d fd73 32bd
00000030: 4b53 293d f572 7fbc 5796 8d3b 1e92 4dbd
00000040: 5937 8dbd c3a9 5bbd 63ec 67bd efeb 4abd
00000050: bad4 4abd 3f3d 3a3d 3dfc 34bd 78ec 073d
00000060: 023a 1bbd 3d68 1cbc 7d07 31bd d113 51bc
00000070: be0b 54bd 0476 b6ba 14d7 50bd f220 023a
00000080: 6a43 2c3d 259d 293c 0ff9 a0bc b804 44bd
00000090: ee20 88bc 801a 923c 0cb9 2cbc c675 e63c
000000a0: 8b53 593c d96c 5ebd 2165 893d 7ef4 7cbd
000000b0: 8b4b f0bc a371 63bd f14d f7bc 5c96 23bd
000000c0: b5b3 18bd d3ac 5c3a bfe6 f2bc 917c 973d
000000d0: f2a1 57bc 68af 04ba 32d4 09bc 84f5 8bbc
000000e0: 581e 193d ad48 773d af84 fb3b 21e1 0dbd
000000f0: e7ff 7dbc 9282 10bd 0357 d53c 3958 07bc
00000100: c567 40bd 646b 14bd 11e9 93bb 6608 09be
00000110: 431e febc 13d6 0c3d 856d 0abd 11bd 323c
00000120: 4d67 69bd 9d0c e83b 9a97 99bc 45af a43c
00000130: 5aa6 1f3c d2b7 a3bd 8cb4 3cbd e585 83bd
00000140: 9ae2 703d f4b9 0a3d 0b91 72bc f2cf 973c
00000150: 7127 ee3c 1d86 9dbd e446 aabc efc5 103c
00000160: 621e 2d3c bd63 2fbd bc35 1b3d cd13 bbbc
00000170: 0510 7e3c 4a91 afbc 7214 cfbb ef00 d03c
00000180: f293 36bd 43fc 0f3d d51a 91bd cea3 513d
00000190: 7662 3abd 4edb b63c 44e3 a03c f278 293d
000001a0: 0e67 e8bc 749f 20bc 5469 953c f1cc 29bd
000001b0: 9e98 31bd 9ac9 81bd 068e 48bd 9742 7dbd
000001c0: 6029 c5bb e6fb 9cbb 06ce 283d a087 2a3d
000001d0: 36be 1c3c f8c6 033d dda0 6d3c 482b 8fbd
000001e0: f2d7 59bd d48a 83bc 1dee 60bb da0a 223c
000001f0: ed42 f6bc 53d4 afbc 4e2c 433b 3311 23bd
00000200: e357 cbbc bb8a 02bd dc42 debc 9622 4abd
00000210: 92f3 5ebd cb17 62bd ea52 9dbc bf38 7d3c
00000220: 16bb b43d 51ff f83c ec9d d4bc 4035 d3bc
00000230: d180 29bd b69a 943c 29f5 8dbd 130b 223d
00000240: 008f a1bd 7ca8 1dbd 13a1 a1bc 4b72 513c
00000250: 7fdd ebbc 6d1b 5f3c 9f77 623d dc10 37bc
00000260: 153e b6bd c8d6 123d 4c21 f13c b13c 79bc
00000270: c7df 83bc 3a46 3f3c 599d 5dbc ab33 79bc
00000280: 9efa 833c 72b9 f33a 72a7 70bb eb5b fdbb
00000290: a566 2ebc abe7 14bb ce7e 893c 246c 863b
000002a0: 6156 193d dc0f 473d b5d4 80bd f997 f33c
000002b0: d4b6 873d c736 32bc 256d 30bc dcfc 7a3d
000002c0: 45ed a13c 3929 a63b f59a 30bd 74b5 bfbc
000002d0: 3cb8 c0bd 9d07 e9bd 78c8 8b3d 0b7a e3bc
000002e0: 2089 8cbc 66d1 b1bc 2d7d 23bb 327b 4ebd
000002f0: a4f1 bebc 460d 773a 1bdf 30bd d36f c8bc
00000300: 5d56 80bd d3dd 263c 1de1 07bc dea7 f2bc
00000310: 071a 3c3d 9c99 2ebd acdb 0cbd 3c5e 0cbd
00000320: af31 22bd 578e a93c fc0e 383d c17f 2b3c
00000330: 86e8 043d 7bcd 873d dbc2 a4bb 44f4 8a3c
00000340: eec8 24bd 48fc b23c a739 1d3c 3de5 b23c
00000350: 0341 493d 6cbe 75bd ad7b 7d3d 6a86 3fbd
00000360: 77fd 4ebd 4547 12bc ae38 aebc 3336 47bd
00000370: 0354 b7bb 14a0 493d 45c4 e13c be45 c3bc
00000380: 05e2 883c 60b6 cdbd f19f e83c 3319 0cbc
00000390: 978c a1bd 3e7a 2ebc 5606 1a3d 5de2 1f3d
000003a0: 7c6a cc3c d8d1 ec3c c397 9ebc ffa0 a33c
000003b0: 0e6b b43d 6023 26bc 1caf 78bd 441f d1bc
000003c0: 93e6 63bd e7ff 8dba 4d1e 89bc 9d5b 733c
000003d0: 5d89 0abd d557 c5ba 6c98 853c 7e36 19bd
000003e0: 9993 ddbc ab97 523c a5c1 943b 6fbf ac3c
000003f0: 20e1 34bd 3f16 86bd 5e3d 8e3c 2846 afbd

linear.2.bias f4 [256]
0.019224258 0.022051953 0.030504541 -0.029704351 -0.024357822 0.029329685 -0.011246749 0.06919826
-0.036565322 0.020686112 -0.06140724 0.016844835 0.014360738 -0.037742335 -0.04444425 -0.011043666
0.0022780723 -0.051608182 -0.04770975 0.046807863 0.015736764 -0.026648149 -0.067676455 0.047893535
-0.0064400216 0.033962466 -0.057197448 -0.02683436 0.013425707 -0.046684988 0.04752784 0.022441866
0.0070916475 -0.021798927 0.026361223 0.044601787 0.044496804 0.04140033 0.035394706 0.061690986
-0.072420605 0.043960944 0.061761737 0.10039526 -0.022475589 0.025396897 -0.020048032 0.016017571
0.06778595 0.0038346886 0.010491409 -0.05431611 0.14364895 -0.03955849 0.008262698 0.02959081
-0.028580595 -0.029122423 0.0007015427 0.09849726 0.012436295 0.023547994 -0.06741787 -0.040752172
0.006952117 -0.064262636 0.008283782 -0.0019314878 -0.0040149316 0.047307935 0.032185722 -0.006789997
0.03528784 0.0007499797 0.044531506 -0.0042370954 0.008940831 -0.03260622 0.0061677746 0.06387589
-0.0063470714 0.09193265 0.065120876 -0.034279916 0.055319563 -0.047961507 0.0305867 0.020834068
0.0036253857 -0.027157715 -0.024474904 -0.0454993 0.030459723 0.048770167 0.0059440527 -0.048635155
-0.032390997 0.018245596 -0.06640173 -0.021789735 -0.020971814 -0.0607898 -0.027027903 -0.06410587
0.08935897 -0.06406091 -0.03412126 -0.0500274 -0.07121832 -0.0638448 0.045388486 -0.1280902
-0.015053986 0.057224553 -0.030449582 -0.020121021 -0.020002136 0.07966151 0.056147214 -0.041074242
0.032695524 -0.08352773 -0.011058766 0.06383113 0.03647478 -0.033596206 -0.034358244 -0.07560068
0.024121337 0.030708598 0.044981185 0.012630781 0.041728303 -0.029427739 -0.050899312 0.04587515
-0.0008943799 0.03048015 0.06082229 -0.0064413515 -0.05933239 -0.066436335 0.011647134 -0.018406475
-0.008655586 0.027172243 0.01176979 -0.021060023 0.07527332 -0.05241138 0.02125057 -0.07228493
-0.023944577 -0.14511393 0.055720482 0.008274216 0.04341774 0.008805411 0.07142917 -0.041185025
0.017200293 -0.07548807 0.0020219286 0.05480458 -0.009714574 -0.039202146 0.024645403 0.08427924
0.0056050764 0.01631015 0.070732884 0.0037688736 0.005007264 0.03176186 -0.012657542 -0.06970492
0.02733277 -0.038855325 -0.0472204 0.013877795 0.045329306 0.013528627 0.08934605 -0.059249666
-0.011741824 -0.045904692 -0.032647297 0.029312978 -0.0068094325 0.043146804 -0.0033516434 0.10285632
-0.028319132 0.07838009 -0.020354709 0.05325654 -0.045715142 0.00917576 0.034623828 -0.06564922
0.05898225 -0.04343797 0.019108294 -0.07311554 -0.042151578 0.041204814 -0.018485816 -0.067997836
-0.0051759603 -0.022814572 0.039704308 -0.055686407 0.037777353 -0.020614263 0.06237979 0.035154372
-0.030164853 0.04595562 0.030396875 -0.037406705 -0.018955538 -0.026101204 -0.03857077 -0.0440932
0.030012649 -0.028684286 -0.045316245 -0.0016230118 0.025226833 0.056501765 -0.025757771 -0.059394088
-0.015741503 0.012840779 -0.045918923 -0.05981892 -0.046230394 -0.057070218 0.05437402 -0.04161135
0.086581506 0.06066216 0.07192115 0.07718119 0.05538563 0.020255886 -0.010025536 0.08491567
0.057930093 0.033241976 -0.019751702 0.0035297105 -0.028063573 0.048657708 -0.028293144 0.06511822
00000000: 317c 9d3c 4ca6 b43c a9e4 f93c 8a56 f3bc
00000010: 0e8a c7bc cf44 f03c 4944 38bc d1b7 8d3d
00000020: 85c5 15bd ec75 a93c 2886 7bbd 2efe 893c
00000030: 4d49 6b3c b597 1abd 2d0b 36bd 7ef0 34bc
00000040: b64b 153b 1a63 53bd 4c6b 43bd 9ab9 3f3d
00000050: 63ea 803c 384d dabc f499 8abd 032c 443d
00000060: d106 d3bb 3a1c 0b3d df47 6abd bbd3 dbbc
00000070: 7ff7 5b3c c238 3fbd 8dac 423d 01d8 b73c
00000080: 0d61 e83b aa93 b2bc 7ef3 d73c 5db0 363d
00000090: 4842 363d 6493 293d 0afa 103d b0af 7c3d
000000a0: 4151 94bd 6410 343d e0f9 7c3d 089c cd3d
000000b0: ba1e b8bc 270d d03c c53b a4bc 4837 833c
000000c0: 5cd3 8a3d 664f 7b3b 29e4 2b3c 927a 5ebd
000000d0: b618 133e 1508 22bd 4460 073c 6d68 f23c
000000e0: da21 eabc 2692 eebc bce7 373a eeb8 c93d
000000f0: 9ac1 4b3c b9e7 c03c 6112 8abd c0eb 26bd
00000100: 96ce e33b 219c 83bd b3b8 073c fa29 fdba
00000110: b08f 83bb f7c5 413d 2dd5 033d a07e debb
00000120: fb89 103d 499a 443a ab66 363d 55d7 8abb
00000130: 907c 123c 1a8e 05bd 0b1b ca3b 5dd1 823d
00000140: 18fb cfbb 2f47 bc3d 185e 853d 1969 0cbd
00000150: c496 623d 4973 44bd f690 fa3c 35ac aa3c
00000160: e197 6d3b db79 debc 987f c8bc 795d 3abd
00000170: ab86 f93c 3ac3 473d 54c6 c23b a835 47bd
00000180: 6cac 04bd ca77 953c a1fd 87bd 6380 b2bc
00000190: 15cd abbc bafe 78bd 9f69 ddbc f049 83bd
000001a0: d601 b73d 5e32 83bd bcc2 0bbd 88e9 4cbd
000001b0: e9da 91bd 10c1 82bd 47e9 393d 142a 03be
000001c0: fea4 76bc 4b64 6a3d 6771 f9bc d7d4 a4bc
000001d0: 85db a3bc 9325 a33d 9ffa 653d 773d 28bd
000001e0: beeb 053d 9610 abbd d42f 35bc e5b9 823d
000001f0: 9466 153d 2d9c 09bd 3bbb 0cbd 88d4 9abd
00000200: 1c9a c53c 9990 fb3c 313e 383d 56f1 4e3c
00000210: 4ceb 2a3d 7112 f1bc cc7b 50bd 95e7 3b3d
00000220: d274 6aba 82b1 f93c cb20 793d f911 d3bb
00000230: 8506 73bd c60f 88bd 9fd3 3e3c 2dc9 96bc
00000240: 29d0 0dbc 5398 de3c 14d6 403c 1286 acbc
00000250: e628 9a3d 51ad 56bd ad15 ae3c 1f0a 94bd
00000260: 6b27 c4bc bf98 14be 293b 643d 9490 073c
00000270: cdd6 313d 9244 103c 7549 923d a1b1 28bd
00000280: a1e7 8c3c 7d99 9abd 5582 043b c47a 603d
00000290: e029 1fbc 6e92 20bd 28e5 c93c 989a ac3d
000002a0: caaa b73b dd9c 853c 67dc 903d 35ff 763b
000002b0: fa13 a43b b918 023d 9461 4fbc 74c1 8ebd
000002c0: f9e8 df3c c326 1fbd 2e6a 41bd b15f 633c
000002d0: 39ab 393d 2da7 5d3c 10fb b63d c7af 72bd
000002e0: c860 40bc 8f06 3cbd 2cb9 05bd c521 f03c
000002f0: a921 dfbb b4ba 303d 3fa7 5bbb 56a6 d23d
00000300: 86fd e7bc be85 a03d ebbe a6bc 8823 5a3d
00000310: cd3f 3bbd ed55 163c b7d1 0d3d 1973 86bd
00000320: 5f97 713d 03ec 31bd ff88 9c3c 9abd 95bd
00000330: 22a7 2cbd 61c6 283d 916f 97bc 7342 8bbd
00000340: 1a9b a9bb a0e5 babc fca0 223d 6e17 64bd
00000350: 6dbc 1a3d 3edf a8bc f381 7f3d 08fe 0f3d
00000360: 481c f7bc f63b 3c3d de02 f93c c637 19bd
00000370: a548 9bbc 31d2 d5bc 62fc 1dbd 129b 34bd
00000380: 16dd f53c 4ffb eabc 879d 39bd 3dbb d4ba
00000390: 81a8 ce3c 656e 673d f601 d3bc 3747 73bd
000003a0: 53f4 80bc 2162 523c 7b15 3cbd af04 75bd
000003b0: 155c 3dbd 76c2 69bd 4bb7 5e3d aa70 2abd
000003c0: a551 b13d e378 783d 654b 933d 2c11 9e3d
000003d0: 0bdc 623d acef a53c 2542 24bc 44e8 ad3d
000003e0: 1b48 6d3d bd28 083d 52ce a1bc b752 673b
000003f0: 94e5 e5bc 4e4d 473d 06c7 e7bc b45c 853d

linear.4.weight f4 [6, 256]
0.053257003 0.012398377 0.022090584 0.010990216 0.0107783675 -0.0036496893 0.0038896496 0.040894087
0.04409841 0.0059683714 -0.03057493 0.016283708 -0.014898965 -0.03566601 0.01867925 0.031796552
-0.032815907 -0.014101248 0.019368792 0.039505534 -0.044142034 0.035965845 -0.042739123 -0.031926338
0.02123083 0.029333152 0.011854968 0.063310884 0.007206185 -0.03704341 0.03347652 0.0035954176
0.052023828 0.050206188 -0.041152652 0.02705831 0.051973745 -0.034063738 -0.022878047 -0.039661705
-0.012927555 0.05978095 -0.084473446 0.07633887 -0.033059612 -0.022840641 -0.054980304 -0.027850388
-0.018616762 -0.011779497 0.058679044 0.017632458 0.10663455 -0.022358933 -0.048087228 -0.0012373389
0.04644819 -0.020112442 -0.029942693 0.0713306 0.007859968 -0.015564756 0.036385383 -0.011945886
-0.013575288 -0.029977571 0.0044431337 0.039803665 -0.042254362 0.005040171 -0.04511526 -0.031612977
0.008514618 0.051247824 -0.0370541 0.059560545 -0.044273615 0.085601315 -0.040604062 0.033931818
0.028875692 0.00821611 0.042593107 0.037351392 0.07201849 -0.080357574 0.047086388 0.030993668
-0.010431704 -0.042018022 0.053266924 -0.030729719 0.02016108 -0.03276156 0.0085622 -0.054541457
0.036065653 0.04569024 -0.020328918 -0.017534485 -0.03371488 -0.031415746 0.015736792 0.031684313
-0.01369915 0.06429868 -0.06822832 -0.0766582 -0.021659719 -0.04046121 -0.03534604 -0.08322959
0.0028669527 0.039219186 0.03227517 0.026162507 0.010405095 -0.0038907982 -0.054939717 0.036817003
-0.077264965 0.024043052 -0.00520318 0.017804965 0.06254553 -0.04148353 0.031909544 0.07663286
-0.03626908 0.07224309 0.040236417 -0.02033333 -0.034894176 0.0087661175 -0.05302689 -0.09287498
0.022138195 -0.02592458 0.057130318 -0.0014437095 0.04658102 0.05740927 -0.018507445 -0.00427447
-0.057877347 -0.0071267425 0.06412122 0.0069099427 -0.048727438 -0.06838004 -0.030557426 -0.0114757335
0.09324103 -0.0697208 -0.022789117 0.040380903 -0.028407851 0.036770646 0.018887024 -0.031185595
-0.044605162 -0.026813863 0.0348395 -0.015213281 0.000648057 -0.045475215 0.06628314 -0.052144695
0.05337128 -0.06690754 0.031383824 -0.009882398 0.06294656 0.037659954 0.058477085 0.02423847
-0.02251219 0.005845332 0.053214617 -0.031674236 0.013923169 0.025370685 0.03145947 0.06781856
-0.015901627 -0.026256755 -0.05576322 0.035484377 -0.004217493 -0.022453122 -0.0026438963 -0.0025930384
0.046117872 -0.014586291 -0.030653264 -0.034752015 -0.025419598 0.02368968 0.0018385214 -0.047822736
-0.037328713 0.025764992 -0.044403113 -0.05640145 -0.0037979067 -0.026606824 -0.043663852 -0.06561162
0.040005624 0.01994685 -0.06587677 0.008816317 0.046216276 0.051868487 0.062534004 -0.047096446
-0.0012622181 -0.030975224 -0.057615355 -0.07066647 0.010480832 -0.0053335596 -0.023049826 -0.018857677
-0.028298587 -0.009987881 -0.047820564 0.07809502 0.035766687 -0.008816795 0.039589588 0.026302055
0.02065362 0.0039447867 -0.045462403 -0.014658022 -0.015618327 -0.00062328234 -0.0059476546 0.004653444
0.03585289 0.023936743 -0.06885426 0.032781325 0.028239485 0.011829922 0.01514651 -0.026736181
-0.002784098 0.0046384754 0.015805358 -0.057103552 -0.04085131 -0.0055235545 -0.02761362 0.0417044
00000000: 0424 5a3d 9022 4b3c 50f7 b43c 4f10 343c
00000010: c097 303c a02f 6fbb 7ee9 7e3b 8f80 273d
00000020: 89a0 343d 5492 c33b 4778 fabc 6965 853c
00000030: ca1a 74bc 8616 12bd 3a05 993c 1a3d 023d
00000040: f969 06bd ec08 67bc 4dab 9e3c 8ed0 213d
00000050: 47ce 34bd ec50 133d 380f 2fbd 31c5 02bd
00000060: 47ec ad3c 144c f03c 573b 423c 23a9 813d
00000070: dc21 ec3b d5ba 17bd ad1e 093d 19a1 6b3b
00000080: f016 553d 01a5 4d3d af8f 28bd 64a9 dd3c
00000090: 6ce2 543d 6b86 0bbd be6a bbbc 5074 22bd
000000a0: 18ce 53bc dfdc 743d 6a00 adbd 8e57 9c3d
000000b0: 8469 07bd 4c1c bbbc 0733 61bd 7f26 e4bc
000000c0: 2e82 98bc cbfe 40bc 7059 703d f271 903c
000000d0: 3763 da3d 152a b7bc 1df7 44bd 342e a2ba
000000e0: 7540 3e3d d9c2 a4bc 614a f5bc c715 923d
000000f0: 18c7 003c 5103 7fbc d708 153d adb8 43bc
00000100: e26a 5ebc 8693 f5bc b597 913b 2b09 233d
00000110: e912 2dbd 0528 a53b c7ca 38bd 9c7c 01bd
00000120: e580 0b3c 3de9 513d 0ac6 17bd c2f5 733d
00000130: 4058 35bd be4f af3d 7250 26bd 17fc 0a3d
00000140: b78c ec3c dd9c 063c 1c76 2e3d c6fd 183d
00000150: 6e7e 933d 8392 a4bd a8dd 403d 6fe6 fd3c
00000160: bde9 2abc 171b 2cbd 6b2e 5a3d e4bc fbbc
00000170: d928 a53c fc30 06bd 7848 0c3c dd66 5fbd
00000180: 94b9 133d b025 3b3d d588 a6bc 7ba4 8fbc
00000190: 9d18 0abd ccad 00bd 72ea 803c 69c7 013d
000001a0: 6672 60bc 07af 833d 4abb 8bbd f9fe 9cbd
000001b0: b96f b1bc a7ba 25bd 02c7 10bd 4674 aabd
000001c0: 7ce3 3b3b 4ca4 203d f832 043d c152 d63c
000001d0: 227a 2a3c c3fc 7ebb 7808 61bd 6dcd 163d
000001e0: 183d 9ebd eff5 c43c 707f aabb b8db 913c
000001f0: df17 803d a2ea 29bd 95b3 023d b0f1 9c3d
00000200: e38e 14bd 2ff4 933d f1ce 243d 1592 a6bc
00000210: 32ed 0ebd c39f 0f3c b932 59bd 3d35 bebd
00000220: 295b b53c c95f d4bc 7b01 6a3d da3a bdba
00000230: bdcb 3e3d fc25 6b3d ed9c 97bc da10 8cbb
00000240: cc10 6dbd 7387 e9bb fc51 833d cd6c e23b
00000250: 6c96 47bd d60a 8cbd 9153 fabc b704 3cbc
00000260: 27f5 be3d c7c9 8ebd 3eb0 babc 7266 253d
00000270: 95b7 e8bc d19c 163d f6b8 9a3c ef78 ffbc
00000280: e7b3 36bd bfa8 dbbc ddb3 0e3d 2041 79bc
00000290: 5ee2 293a 3844 3abd 74bf 873d ad95 55bd
000002a0: d89b 5a3d d206 89bd 538c 003d c8e9 21bc
000002b0: 20ea 803d 5341 1a3d ab85 6f3d c18f c63c
000002c0: 7c6b b8bc 338a bf3b 92f7 593d d8bc 01bd
000002d0: 011e 643c 2fd6 cf3c a5db 003d 75e4 8a3d
000002e0: 2144 82bc 6818 d7bc f967 64bd 1158 113d
000002f0: e532 8abb 9cef b7bc 3845 2dbb f7ef 29bb
00000300: 18e6 3c3d 57fb 6ebc 8e1c fbbc 2158 0ebd
00000310: c33c d0bc dc10 c23c 8bfa f03a c6e1 43bd
00000320: fee5 18bd 1b11 d33c 0ae0 35bd 3505 67bd
00000330: 4de6 78bb 8ef6 d9bc ded8 32bd 635f 86bd
00000340: f0dc 233d 9467 a33c 66ea 86bd 5072 103c
00000350: 474d 3d3d 0d74 543d d411 803d 34e8 40bd
00000360: 0371 a5ba c1bf fdbc 14fe 6bbd 95b9 90bd
00000370: ccb7 2b3c 24c5 aebb fdd2 bcbc 6a7b 9abc
00000380: 70d2 e7bc 36a4 23bc 7fdf 43bd 48f0 9f3d
00000390: 1780 123d 5274 10bc b128 223d 6877 d73c
000003a0: c831 a93c 4543 813b c936 3abd 3328 70bc
000003b0: 03e4 7fbc c563 23ba 8be4 c2bb eb7b 983b
000003c0: 7bda 123d fd16 c43c 7603 8dbd b645 063d
000003d0: 7e56 e73c 4ad2 413c 1129 783c d605 dbbc
000003e0: 6a75 36bb 5afe 973b 3d7a 813c 6ae5 69bd
000003f0: b453 27bd effe b4bb f535 e2bc 3cd2 2a3d

linear.4.bias f4 [6]
0.0791254 0.026134884 -0.0018732778 -0.024795108 0.053391732 0.005464936
00000000: 7f0c a23d d318 d63c c688 f5ba 1c1f cbbc
00000010: 4ab1 5a3d 3513 b33b
