proj/Tanh_neuro_net.pt (torch, 288727 bytes, 6 tensors)

linear.0.weight f4 [256, 16]
-0.15260291 -0.004047279 0.10269403 0.11482577 -0.34229058 -0.16157453 0.022354871 -0.16037506
-0.20148556 0.23799539 0.1491411 -0.09960807 -0.025106808 -0.112328775 -0.14307864 0.028825907
-0.12324224 0.03900785 0.020876389 -0.19432344 0.18799292 0.21712491 -0.036940813 0.3119875
0.26861092 0.122053534 0.25245503 -0.011619316 -0.34223953 -0.31149754 -0.19134447 -0.23596762
-0.1620242 0.029604876 0.13531418 0.23503852 0.19892007 0.24184056 -0.11889221 -0.26078525
-0.29329765 0.20116796 -0.04007892 0.21554166 0.08596663 -0.008291975 -0.20245776 -0.15824912
-0.15549167 -0.0073173423 0.10153627 0.04666606 -0.16256167 0.20499554 -0.031947177 -0.093043685
0.22328213 0.059510097 -0.07362252 0.31810373 0.20092656 -0.11835966 0.34156448 -0.32335484
0.118858 -0.054347 0.25880194 0.3296997 -0.21758384 0.013232893 -0.14187105 0.12392537
0.18451977 -0.23545465 0.18006857 0.08236494 0.1773591 0.22119185 -0.1899769 -0.074779436
-0.17720316 -0.06755591 -0.23462717 -0.17463438 0.21473555 -0.17546576 -0.23488064 0.123822
0.109986305 0.033085395 -0.03768908 0.0366147 -0.045408733 -0.33299592 0.18237811 -0.264982
0.26049703 0.19889824 -0.10630151 -0.026123663 -0.028162876 -0.2694466 -0.027420271 -0.18313529
-0.14731327 -0.1373148 -0.10837511 0.08992201 -0.11651299 0.19954316 0.12932175 0.009719234
-0.25933442 0.22709553 -0.17210166 -0.014319102 0.23300639 0.06422596 -0.034289435 -0.027408348
-0.08941525 0.1188916 -0.016490363 -0.099236816 0.1728862 0.0076506 0.082564294 0.18307951
-9.241451e-05 -0.010412093 -0.16333352 0.08937209 -0.23271416 0.25023594 -0.0004685416 0.03810719
-0.111152895 -0.2356554 -0.23674749 -0.031969924 -0.17889276 -0.012431967 -0.0819137 0.24329793
0.2488845 0.2102428 0.2376684 -0.10052238 -0.31895375 -0.12901273 0.029928233 0.14304043
0.13616277 -0.141588 0.06511934 -0.26239723 -0.0076659936 -0.03445889 0.20527604 0.07258521
0.064181596 0.2503316 -0.12338151 0.051522467 0.19107725 -0.002920462 -0.04281115 0.1337069
-0.2240672 -0.08065736 -0.13454612 0.033315267 -0.15686241 -0.09649518 -0.08919289 0.017345343
-0.14722393 0.066646606 0.24859354 0.047953337 0.0015267768 -0.16575375 0.11330634 -0.2637569
0.03751709 -0.022257762 0.08812622 -0.05718707 -0.30577397 -0.12999293 -0.20274223 -0.1508897
0.064492404 -0.19199927 -0.07416033 -0.007050056 -0.22670792 -0.015642395 -0.06460035 -0.18746983
-0.0802564 -0.21701324 -0.20125711 -0.036145113 0.11900102 0.005370344 -0.12865885 -0.13962913
0.0035921258 -0.16689318 0.19521867 -0.08501202 -0.0806077 -0.13889933 -0.20490183 -0.08279078
0.077632345 0.18449256 0.13140765 -0.12298312 0.2981013 -0.05104603 -0.13410303 0.2189868
0.11755497 0.19989346 -0.12055075 0.13099883 0.20615126 -0.022799077 0.17048295 -0.18260269
0.25973517 0.27918825 0.051700298 0.082320414 -0.18271798 0.017565195 -0.18183453 -0.19827475
-0.021268317 -0.19120507 -0.18849322 0.020482408 0.08433818 0.16636744 -0.04490875 -0.06544347
-0.017386116 -0.14696488 0.06768207 0.10507844 0.020911457 0.25153008 -0.20709525 0.08305251
00000000: f043 1cbe 099f 84bb 3f51 d23d c629 eb3d
00000010: b640 afbe cb73 25be 9021 b73c 5c39 24be
00000020: 3b52 4ebe 10b5 733e 72b8 183e 51ff cbbd
00000030: cbac cdbc a10c e6bd 3583 12be 4f24 ec3c
00000040: 6d66 fcbd b2c6 1f3d f604 ab3c b9fc 46be
00000050: 3781 403e fe55 5e3e 404f 17bd d3bc 9f3e
00000060: 5f87 893e 34f7 f93d c941 813e f25e 3ebc
00000070: 053a afbe 9b7c 9fbe ceef 43be 7fa1 71be
00000080: ace9 25be ed85 f23c cd8f 0a3e f0ad 703e
00000090: b4b1 4b3e 0da5 773e c27d f3bd a585 85be
000000a0: 1c2b 96be f9fe 4d3e cb29 24bd f4b6 5c3e
000000b0: 460f b03d 10db 07bc 1651 4fbe 0f0c 22be
000000c0: 3539 1fbe 51c6 efbb 3ff2 cf3d e924 3f3d
000000d0: 9176 26be 5aea 513e 0bdb 02bd b08d bebd
000000e0: 12a4 643e dcc0 733d 67c7 96bd 7ede a23e
000000f0: b1bf 4d3e 8d66 f2bd 8ae1 ae3e c48e a5be
00000100: d36b f33d f69a 5ebd b081 843e 66ce a83e
00000110: 4cce 5ebe c7ce 583c a546 11be 96cc fd3d
00000120: c0f2 3c3e 061b 71be e563 383e f3ae a83d
00000130: a09d 353e 1e80 623e 4e89 42be f625 99bd
00000140: bf74 35be c15a 8abd 1b42 70be 5bd3 32be
00000150: a3e3 5b3e 4cad 33be 8d84 70be 6496 fd3d
00000160: 8040 e13d 8d84 073d dd5f 1abd 4cf9 153d
00000170: 82fe 39bd 717e aabe 54c1 3a3e b9ab 87be
00000180: de5f 853e fbab 4b3e 9bb4 d9bd 4b01 d6bc
00000190: d5b5 e6bc e8f4 89be 7aa0 e0bc d187 3bbe
000001a0: 4ad9 16be 409c 0cbe c5f3 ddbd 0829 b83d
000001b0: 5d9e eebd 0b55 4c3e ec6c 043e 6c3d 1f3c
000001c0: 7bc7 84be bb8b 683e 6b3b 30be ab9a 6abc
000001d0: 3a99 6e3e e688 833d 1473 0cbd 7987 e0bc
000001e0: 581f b7bd 707d f33d cc16 87bc ac3c cbbd
000001f0: 1409 313e e2b1 fa3b 7817 a93d 3279 3b3e
00000200: aace c1b8 7c97 2abc e740 27be b708 b73d
00000210: 9f4c 6ebe ed1e 803e 97a6 f5b9 4916 1c3d
00000220: 21a4 e3bd a64f 71be ef6d 72be e5f2 02bd
00000230: aa2f 37be 73af 4bbc 5fc2 a7bd 1823 793e
00000240: 94db 7e3e e349 573e 585f 733e adde cdbd
00000250: e84d a3be ea1b 04be 0e2c f53c 3179 123e
00000260: 416e 0b3e 72fc 10be 4a5d 853d ee58 86be
00000270: 0433 fbbb c424 0dbd e233 523e 8ea7 943d
00000280: a471 833d 772b 803e 72af fcbd 3909 533d
00000290: c1a9 433e 3965 3fbb bf5a 2fbd 76ea 083e
000002a0: df71 65be b02f a5bd 75c6 09be 9775 083d
000002b0: 8aa0 20be 449f c5bd c3aa b6bd d217 8e3c
000002c0: dfc1 16be 047e 883d 4e8f 7e3e b86a 443d
000002d0: 211e c83a 5abb 29be 280d e83d 250b 87be
000002e0: 85ab 193d e955 b6bc 857b b43d fd3c 6abd
000002f0: 688e 9cbe de1c 05be a99b 4fbe d482 1abe
00000300: 9814 843d 759b 44be 5fe1 97bd 2804 e7bb
00000310: 1f26 68be 7b24 80bc 304d 84bd 17f8 3fbe
00000320: 785d a4bd b838 5ebe 5816 4ebe e60c 14bd
00000330: cfb6 f33d b6f9 af3b 25bf 03be f0fa 0ebe
00000340: df69 6b3b 0ce6 2abe 67e7 473e c81a aebd
00000350: a615 a5bd a03b 0ebe c9d1 51be 368e a9bd
00000360: b5fd 9e3d 9eeb 3c3e ba8f 063e 93de fbbd
00000370: bca0 983e a415 51bd 4e52 09be 133e 603e
00000380: a9c0 f03d dfb0 4c3e 50e3 f6bd 8f24 063e
00000390: 5119 533e 21c5 babc 1593 2e3e 33fc 3abe
000003a0: 02fc 843e c3f1 8e3e b1c3 533d 9b97 a83d
000003b0: 6c1a 3bbe e2e4 8f3c d532 3abe 8908 4bbe
000003c0: e53a aebc 43cb 43be 5e04 41be b9ca a73c
000003d0: 7fb9 ac3d 3a5c 2a3e 3df2 37bd 3a07 86bd
000003e0: 546d 8ebc f67d 16be e69c 8a3d 5d33 d73d
000003f0: 814e ab3c 8dc8 803e c710 54be 6f17 aa3d

linear.0.bias f4 [256]
-0.14889866 -0.0075315065 -0.19488692 -0.19860697 -0.015079397 -0.0113704195 -0.13836136 -0.2253188
-0.18608066 0.18680793 -0.17269099 -0.054284565 0.09994415 -0.2153529 -0.057979483 -0.0459338
0.21908967 -0.24621382 -0.030310802 -0.09075337 -0.18249325 -0.26276404 0.08007373 -0.048680976
-0.127698 -0.03898674 0.102246694 0.20313086 0.14864916 -0.06212962 -0.010350339 0.061282348
-0.08975144 0.038832042 -0.11670965 0.07999059 0.18793927 -0.18728174 0.19310193 0.019261274
0.18747897 0.14316072 0.12759835 -0.08543407 0.0231641 -0.10129739 -0.2566341 -0.02481454
0.19226804 0.17624217 -0.24581105 -0.04885238 -0.090211086 0.20211008 0.061054703 0.008736059
0.17528185 -0.12277853 0.046690743 0.19306336 -0.085315414 0.05931847 0.09832551 0.16561286
-0.25395316 -0.25656483 0.08161603 -0.16246206 -0.07833266 -0.20040613 0.15396601 -0.05145138
0.012970466 0.023039296 0.21620427 -0.2723079 0.09856175 0.10155693 0.09613201 0.025663326
-0.11167342 0.0036753237 -0.17804989 0.17955592 -0.057696592 0.22559184 -0.10059424 0.07797553
0.19416918 0.10278277 0.18246393 -0.15306292 -0.25554708 -0.13242623 -0.20888792 -0.25101942
-0.3025153 -0.122620955 -0.20637858 -0.11870479 -0.04270258 -0.0846834 -0.18897268 -0.2367295
0.19800533 0.14912738 -0.078797445 -0.19759375 -0.11033772 0.12356383 -0.038644087 0.023635289
-0.008891789 0.08100177 -0.0021207698 0.116283044 0.19252354 -0.10807989 -0.22933371 0.23203763
0.13598523 -0.21736613 -0.1673652 0.042814884 -0.09592886 0.121895455 -0.09701716 0.15606953
-0.1272928 -0.023408394 0.2410078 -0.13477616 0.14373061 -0.0017255287 0.1903683 -0.071912736
-0.08642422 -0.13656051 0.15940209 0.054621637 0.046778694 0.18886104 0.21544835 -0.2038537
0.0050644884 -0.17364384 0.10184656 -0.29107964 -0.1896784 0.042334672 -0.3073572 -0.1672453
0.021413201 0.16302569 -0.2079365 -0.09290764 0.06076922 0.07640007 0.13164347 0.04355147
-0.25217643 -0.21894123 -0.31636557 0.22469327 0.034686707 -0.13140315 -0.03312285 0.112081215
0.14345928 0.016312959 -0.011529394 -0.25253907 -0.15173009 0.13772559 0.22627832 -0.17738046
-0.033270974 -0.22957252 0.097971536 0.04075669 -0.25579208 -0.08771096 -0.13165303 0.032841507
-0.072036974 -0.2726821 0.038186118 0.08040451 0.12536466 0.16869888 -0.22535124 0.12814443
-0.2259832 0.09311938 0.10280402 0.23529494 0.13977823 -0.07766689 0.091941886 -0.043691497
-0.21663211 -0.1407524 -0.11192112 0.022744184 -0.12887879 -0.20652664 0.00060442486 -0.055441152
0.12958844 -0.1800133 0.11007071 0.16753817 -0.25429863 -0.027964666 -0.07440614 0.05595179
0.19236176 0.17029949 0.20237245 0.116972126 0.0043108203 -0.10596627 -0.25300565 0.059143264
-0.11862569 0.18377128 -0.011205026 -0.18472302 -0.06568238 0.16102703 -0.020847287 -0.16672198
0.23977114 0.011831984 -0.08684416 -0.18040587 -0.036395036 0.099584326 0.12952995 -0.28020918
-0.02632539 0.032348543 -0.13920094 -0.072893694 -0.06686116 0.17621326 0.058576867 0.063761875
0.06291615 -0.017304374 -0.21708876 0.04327944 -0.0016481653 0.16328827 -0.19695324 0.038893625
00000000: e478 18be dbca f6bb 7090 47be a05f 4bbe
00000010: 930f 77bc ff4a 3abc 9aae 0dbe f9b9 66be
00000020: ee8b 3ebe 944a 3f3e e8d5 30be 7e59 5ebd
00000030: 85af cc3d 7885 5cbe e57b 6dbd 1525 3cbd
00000040: 0b59 603e 7a1f 7cbe 5c4e f8bc e7dc b9bd
00000050: 83df 3abe 0289 86be b2fd a33d b465 47bd
00000060: 44c3 02be 8fb0 1fbd b766 d13d 8901 503e
00000070: 7c37 183e a17b 7ebd 7894 29bc 3303 7b3d
00000080: 9acf b7bd 590e 1f3d 7805 efbd 1bd2 a33d
00000090: 2773 403e c9c6 3fbe 83bc 453e d2c9 9d3c
000000a0: 7dfa 3f3e b998 123e 24a9 023e 0ff8 aebd
000000b0: a3c2 bd3c 0275 cfbd 8b65 83be dd47 cbbc
000000c0: eae1 443e d478 343e e4b5 7bbe 6f19 48bd
000000d0: 97c0 b8bd f2f5 4e3e 7f14 7a3d b021 0f3c
000000e0: 167d 333e 4f73 fbbd cb3e 3f3d 67b2 453e
000000f0: d9b9 aebd edf7 723d e35e c93d 6b96 293e
00000100: 2606 82be 775c 83be 4e26 a73d 745c 26be
00000110: e06c a0bd 4437 4dbe 44a9 1d3e afbe 52bd
00000120: 1482 543c e8bc bc3c a764 5d3e f16b 8bbe
00000130: beda c93d 14fd cf3d dce0 c43d e53b d23c
00000140: 09b5 e4bd b3dd 703b b652 36be 82dd 373e
00000150: 4353 6cbd 8c01 673e 5a04 cebd a2b1 9f3d
00000160: 49d4 463e c67f d23d d3d7 3a3e 87bc 1cbe
00000170: 11d7 82be be9a 07be b7e6 55be 9e85 80be
00000180: 49e3 9abe b220 fbbd e854 53be 7f1b f3bd
00000190: e7e8 2ebd 7e6e adbd 0e82 41be 3869 72be
000001a0: e9c1 4a3e d9b4 183e 8e60 a1bd 0456 4abe
000001b0: bef8 e1bd 090f fd3d 4349 1ebd cb9e c13c
000001c0: deae 11bc 42e4 a53d 9dfc 0abb ce25 ee3d
000001d0: e424 453e fd58 ddbd 75d6 6abe 469b 6d3e
000001e0: b63f 0b3e 3a95 5ebe c861 2bbe a95e 2f3d
000001f0: 5a76 c4bd 53a4 f93d efb0 c6bd b1d0 1f3e
00000200: 0b59 02be f6c2 bfbc c0ca 763e c302 0abe
00000210: 1e2e 133e 232b e2ba e8ef 423e fc46 93bd
00000220: 2eff b0bd 85d6 0bbe 4d3a 233e f0ba 5f3d
00000230: 049b 3f3d ca64 413e 7e9e 5c3e 06bf 50be
00000240: 02f4 a53b b1cf 31be ee94 d03d 6408 95be
00000250: 0e3b 42be 1f67 2d3d ec5d 9dbe 5a42 2bbe
00000260: bd6a af3c 35f0 263e 4eed 54be 5c46 bebd
00000270: 25e9 783d a477 9c3d 8ccd 063e 0763 323d
00000280: 451d 81be 2132 60be abfa a1be fe15 663e
00000290: a613 0e3d 8c8e 06be d3ab 07bd d68a e53d
000002a0: fde6 123e c1a2 853c c9e5 3cbc cd4c 81be
000002b0: 225f 1bbe f007 0d3e 81b5 673e 39a3 35be
000002c0: 2547 08bd 0f15 6bbe 4da5 c83d 7df0 263d
000002d0: 2ef7 82be cea1 b3bd 0dd0 06be d184 063d
000002e0: 1f88 93bd fd9c 8bbe 0c69 1c3d 1fab a43d
000002f0: 985f 003e 66bf 2c3e 7ac2 66be 4b38 033e
00000300: 2468 67be 60b5 be3d ea8a d23d 28f1 703e
00000310: 0622 0f3e d20f 9fbd 074c bc3d dbf5 32bd
00000320: cfd4 5dbe 6621 10be e636 e5bd 0352 ba3c
00000330: cdf8 03be b87b 53be 4472 1e3a 4316 63bd
00000340: d5b2 043e 6855 38be c16c e13d 208f 2b3e
00000350: 6e33 82be 2816 e5bc 3f62 98bd b42d 653d
00000360: 7bfa 443e fd62 2e3e b93a 4f3e 158f ef3d
00000370: c841 8d3b d804 d9bd f589 81be 3540 723d
00000380: 07f2 f2bd 8a2e 3c3e 4995 37bc 0828 3dbe
00000390: 7c84 86bd 45e4 243e eec7 aabc 2bb9 2abe
000003a0: 9186 753e f0da 413c 5adb b1bd 51bc 38be
000003b0: f612 15bd def2 cb3d 80a3 043e 9477 8fbe
000003c0: 58a8 d7bc e87f 043d b18a 0ebe 4a49 95bd
000003d0: 81ee 88bd 4071 343e 4cee 6f3d 9695 823d
000003e0: 2fda 803d e7c1 8dbc 844c 5ebe c845 313d
000003f0: 4007 d8ba 0a35 273e 1cae 49be ec4e 1f3d

linear.2.weight f4 [256, 256]
-0.0739921 -0.029903892 -0.051941004 0.04454896 -0.00026273014 -0.08232807 0.083226256 0.0114657935
-0.12257251 -0.008487286 -0.09043363 0.018224569 -0.055582114 0.016110778 -0.05076786 -0.018580018
0.027448751 -0.00822189 0.051836886 0.08354852 0.037936296 0.030387156 0.018918645 -0.055716038
-0.052975148 -0.037671246 0.07521778 -0.019151378 0.03502918 -0.003048391 0.018092677 0.040382378
0.063415 -0.074362144 -0.060388632 0.043303292 -0.026690418 0.04036931 0.033893537 0.0068317847
-0.004723805 0.035767857 -0.043725517 0.003087697 -0.06400408 -0.087298 0.0005327745 -0.032045048
-0.029850785 -0.0373486 -0.030086366 -0.11689499 -0.12253262 -0.009749275 0.01691158 0.056334965
-0.046755698 -0.034592118 0.062118456 -0.021939328 -0.068576604 0.010633641 0.037807416 -0.05906068
0.025063032 0.05557223 0.06846395 0.035215706 -0.035000674 -0.06845883 -0.015796334 -0.016520653
0.012620953 0.027664782 -0.06203401 0.013122962 0.014916612 0.05165824 -0.15057233 -0.029650515
0.046034295 0.016208898 -0.15829404 -0.050299995 -0.015791602 -0.05070209 -0.038009137 -0.07674204
-0.017589197 -0.0030686823 0.007521607 -0.0130241355 -0.09263964 0.03676479 -0.022945298 -0.063477196
0.048305437 -0.047762673 -0.050636463 0.03304876 0.005978596 -0.071754605 0.006941821 -0.056647036
-0.050531324 -0.0027569497 -0.03914128 -0.0725142 0.01487703 -0.054891035 -0.15340781 0.056958277
-0.03158316 0.029380852 0.0137118725 0.0072096656 -0.09047442 -0.037391204 -0.104073174 -0.11451776
0.013055553 0.041942243 -0.06872547 0.042656835 0.038070552 -0.063311316 0.0009219523 0.05477972
-0.00904035 -0.00078505394 0.043698825 0.054568738 0.036262903 -0.047025923 -0.05831351 -0.01738747
-0.010703477 -0.065431386 -0.036246482 0.021409435 -0.0583308 0.0037273045 0.030856617 -0.056638543
0.010683282 -0.04601675 -0.034570307 0.052169636 -0.05692035 -0.008164522 -0.055575963 -0.0788732
0.032415174 -0.024058748 -0.0056257467 0.029703194 -0.018166967 -0.03206141 -0.045930292 -0.044705458
-0.013461914 -0.04566615 0.01902422 0.038082466 -0.008241293 0.0715534 -0.009989369 -0.0038695773
-0.048246764 0.020864936 -0.017616391 -0.02822886 0.032183297 0.019369492 -0.042175304 0.060461555
-0.019659312 0.041184425 0.048763685 -0.04120135 -0.055645797 0.035193652 0.036891427 0.0032192725
-0.048194867 0.0064542308 0.04892432 -0.059996866 -0.016032487 -0.021520242 0.050047107 0.03741773
-0.024048539 -0.0027049785 0.0014777866 0.042920627 0.022432014 -0.011020811 0.02519595 0.020044873
-0.03170736 0.0014628933 -0.04107556 -0.041690182 0.06429555 -0.055108123 -0.06933543 -0.053273264
0.064297736 -0.03396016 0.014019357 -0.048576303 -0.06706919 0.06923744 0.055147603 -0.12786062
-0.04729731 -0.022326896 -0.03568733 -0.022242995 -0.03290281 -0.050256077 0.010755759 -0.018867377
0.012230547 -0.0592712 -0.059360914 0.043746665 -0.04205592 -0.071316615 -0.031337664 0.091905184
0.068424016 -0.00497198 -0.14246415 0.06802485 -0.058728807 0.039620254 -0.023217937 0.0029423854
-0.0050713443 -0.049632665 -0.053253792 0.009745897 0.04834251 -0.015160896 0.023333557 0.003553663
0.03788011 -0.05269381 -0.05389785 0.003694536 -0.01832744 -0.027057493 -0.046376225 -0.048827846
00000000: 2c89 97bd 02f9 f4bc 17c0 54bd f878 363d
00000010: 0bbf 89b9 9f9b a8bd 8772 aa3d 06db 3b3c
00000020: 4c07 fbbd 420e 0bbc 4435 b9bd b14b 953c
00000030: 12aa 63bd c0fa 833c f6f1 4fbd 1f35 98bc
00000040: 34dc e03c 1bb5 06bc ea52 543d 7d1b ab3d
00000050: 1763 1b3d 7cee f83c 46fb 9a3c 8036 64bd
00000060: 78fc 58bd 2a4d 1abd c80b 9a3d 5ae3 9cbc
00000070: c27a 0f3d 84c7 47bb 1837 943c fe67 253d
00000080: b9df 813d 2e4b 98bd 125a 77bd cb5e 313d
00000090: dda5 dabc 4a5a 253d f3d3 0a3d 2add df3b
000000a0: 26ca 9abb 5181 123d 8719 33bd f65a 4a3b
000000b0: 9214 83bd 4bc9 b2bd e4a9 0b3a ab41 03bd
000000c0: a289 f4bc d8fa 18bd af77 f6bc a466 efbd
000000d0: 62f2 fabd 6cbb 1fbc 278a 8a3c 7ebf 663d
000000e0: e782 3fbd 77b0 0dbd ec6f 7e3d 1bba b3bc
000000f0: e471 8cbd b938 2e3c f3db 1a3d 9de9 71bd
00000100: fd50 cd3c b59f 633d d436 8c3d 583e 103d
00000110: de5c 0fbd 2534 8cbd 5067 81bc 5256 87bc
00000120: 1dc8 4e3c 41a1 e23c 6017 7ebd b101 573c
00000130: ce64 743c 9797 533d a22f 1abe a3e5 f2bc
00000140: 758e 3c3d 86c8 843c d517 22be 5e07 4ebd
00000150: 645d 81bc ffac 4fbd 78af 1bbd ee2a 9dbd
00000160: 3817 90bc f21b 49bb d077 f63b 2f63 55bc
00000170: dab9 bdbd ad96 163d c7f7 bbbc 5500 82bd
00000180: ecdb 453d cba2 43bd 2e68 4fbd 235e 073d
00000190: 19e8 c33b 14f4 92bd 3778 e33b b906 68bd
000001a0: eff9 4ebd f1ad 34bb 9b52 20bd 5382 94bd
000001b0: c9be 733c 6cd5 60bd f016 1dbe 154d 693d
000001c0: 585d 01bd 1db0 f03c c3a7 603c 0f3f ec3b
000001d0: a74a b9bd 8527 19bd 5124 d5bd 4a88 eabd
000001e0: f5e6 553c a1cb 2b3d f0bf 8cbd efb8 2e3d
000001f0: deef 1b3d 5da9 81bd 2caf 713a b360 603d
00000200: fa1d 14bc 14cc 4dba 8afd 323d 7883 5f3d
00000210: 6988 143d 419e 40bd 26da 6ebd 2b70 8ebc
00000220: a35d 2fbc e400 86bd 3177 14bd d762 af3c
00000230: 47ec 6ebd cb45 743b 04c7 fc3c d1fd 67bd
00000240: ef08 2f3c 0f7c 3cbd 9899 0dbd d4af 553d
00000250: 5025 69bd 7dc4 05bc 9fa3 63bd 4688 a1bd
00000260: c6c5 043d da16 c5bc 2f58 b8bb 1d54 f33c
00000270: e4d2 94bc d352 03bd 6721 3cbd 121d 37bd
00000280: 5c8f 5cbc 6e0c 3bbd aed8 9b3c 5cfc 1b3d
00000290: 7d06 07bc 978a 923d 73aa 23bc bc98 7dbb
000002a0: 669e 45bd f1ec aa3c 4050 90bc 3640 e7bc
000002b0: a2d2 033d c5ac 9e3c 03c0 2cbd 89a6 773d
000002c0: 910c a1bc 00b1 283d 6ebc 473d bfc2 28bd
000002d0: d9ec 63bd 3827 103d 771b 173d 6efa 523b
000002e0: fb67 45bd 037e d33b de64 483d 46bf 75bd
000002f0: 9056 83bc 384b b0bc 32fe 4c3d 5543 193d
00000300: 7101 c5bc 0246 31bb 4ab2 c13a 8acd 2f3d
00000310: 58c3 b73c a290 34bc bd67 ce3c 2535 a43c
00000320: 94df 01bd 8ebe bf3a d93e 28bd 53c3 2abd
00000330: 63ad 833d 0eb9 61bd bcff 8dbd 1135 5abd
00000340: 88ae 833d cf19 0bbd 72b1 653c f2f7 46bd
00000350: 925b 89bd 5ccc 8d3d 74e2 613d e5ed 02be
00000360: d3ba 41bd e5e6 b6bc e12c 12bd f136 b6bc
00000370: 19c5 06bd 51d9 4dbd ec38 303c c28f 9abc
00000380: a262 483c 5cc6 72bd 6e24 73bd b42f 333d
00000390: d442 2cbd 720e 92bd ec5b 00bd c938 bc3d
000003a0: e421 8c3d feeb a2bb 1fe2 11be 9d50 8b3d
000003b0: 9e8d 70bd d948 223d 8b33 bebc 09d5 403b
000003c0: 852d a6bb 9f4b 4bbd a620 5abd 41ad 1f3c
000003d0: cc02 463d 6865 78bc 0426 bf3c 92e4 683b
000003e0: 2d28 1b3d 77d5 57bd fec3 5cbd 0720 723b
000003f0: 6d23 96bc ada7 ddbc fff4 3dbd b5ff 47bd

linear.2.bias f4 [256]
0.015243144 -0.024080256 -0.022712847 0.009760042 0.008352949 -0.024016798 -0.038685724 0.03471909
0.04595129 0.053475454 -0.017707441 0.03414592 0.060865123 -0.020914115 0.017929684 -0.048933033
0.035995513 -0.00043129167 -0.027545111 0.018466506 -0.061184585 0.016928049 -0.03674247 0.038123813
-0.048928156 -0.023474725 0.0024316285 0.03284274 -0.020873457 -0.0057250625 -0.009627251 0.036644783
-0.011465622 -0.061460502 0.052050084 -0.032894697 -0.023974141 0.045414068 -0.036075193 0.008475342
0.027586145 0.049471833 0.053566165 0.03726774 0.061397683 -0.011886975 0.01174535 -0.022738047
0.003547779 0.063682415 -0.024309069 0.06370755 -0.012462901 0.040816925 0.016465414 -0.04710974
0.051438335 -0.05983983 -0.024313055 0.022006463 0.06463843 0.024364023 -0.00938765 0.04872675
0.0058365804 0.06089473 -0.032344043 -0.034058888 0.00866868 0.0031898252 0.007011528 0.015087381
0.004807112 -0.007766352 0.029599538 0.0436695 -0.011759827 0.062153615 -0.06340465 -0.0016419922
0.014537546 -0.061177943 0.013558604 -0.03630167 -0.023905357 -0.03411556 0.020419013 0.024343772
0.009049797 -0.034043085 -0.019195046 0.037932035 0.035451766 -0.0064945095 0.05370466 -0.07178406
-0.039157048 0.051661856 0.017603563 -0.033160716 0.02057441 -0.006969121 -0.025921233 0.0113095455
0.06494282 0.047824558 -0.017555973 -0.028796522 0.00020420153 0.020005053 -0.010831983 0.050127584
0.03821281 0.0054812534 -0.02230528 -0.044877872 0.06368665 0.019995512 0.025129115 -0.057895
0.031753216 0.0053135245 0.069489524 -0.043534216 -0.039029326 0.036580153 0.0057574487 0.064200364
0.058540143 0.040113423 0.005319731 0.011442749 0.026913386 -0.012012958 -0.023162238 -0.0161934
0.061537668 0.03249164 0.044766534 -0.041727435 0.021467146 0.004542597 -0.0015782882 0.040922966
0.03356359 -0.050318643 -0.0053412574 0.058313437 0.039666697 0.046345707 -0.055294916 0.056599997
0.015445125 0.017668352 -0.038992137 0.04820384 0.02259566 -0.016694974 -0.024982892 0.020957913
0.047095057 -0.016575653 -0.05057421 0.0148714855 0.011210219 -0.0128473025 -0.048068766 -0.0352742
0.033737283 -0.021051861 -0.051296104 0.018733898 -0.07919891 0.020119453 0.053854138 -0.07759879
0.031285573 0.021051563 0.029235601 -0.013916503 0.0064504263 -0.019037627 -0.0588328 -0.044110242
-0.06025637 -0.0077324817 -0.057545334 0.03348988 -0.025130143 -0.06309397 0.053272348 -0.044540107
-0.03475694 0.017593635 0.000490521 0.029913872 -0.035539202 0.024975315 0.050957426 -0.059130233
-0.017922439 0.06663403 -0.05054598 0.013980357 -0.058565296 -0.041536372 0.028167741 0.032715037
0.027370222 -0.061789565 0.00306921 0.050823208 -0.05306563 0.021853587 0.044860315 0.03553416
-0.06072758 -0.0680655 -0.026950877 0.02971142 0.020912759 -0.023213277 -0.028237555 -0.019554233
0.024239529 0.017236302 0.049489036 -0.0036334186 0.049487423 0.06412975 0.03637378 0.006091088
-0.06380144 -0.02024535 -0.015045939 -0.05180516 0.05245984 -0.04398338 -0.016196273 0.012049452
0.00991388 -0.050762728 0.03048362 0.054188505 0.0055288076 -0.008873716 0.015575848 -0.06216086
-0.020704612 -0.00034611442 0.059948884 -0.049635563 -0.023497352 -0.053931274 0.043834917 -0.048914686
00000000: 61be 793c f543 c5bc 4b10 babc 95e8 1f3c
00000010: cfda 083c e0be c4bc ec74 1ebd 9b35 0e3d
00000020: 6b37 3c3d 1409 5b3d 320f 91bc 98dc 0b3d
00000030: b54d 793d 1454 abbc 46e1 923c 016e 48bd
00000040: 0870 133d fd1e e2b9 49a6 e1bc 1247 973c
00000050: b09c 7abd b1ac 8a3c 467f 16bd b727 1c3d
00000060: e468 48bd 114e c0bc f55b 1f3b 1c86 063d
00000070: d0fe aabc 4e99 bbbb 9ebb 1dbc d718 163d
00000080: 4eda 3bbc 02be 7bbd 7832 553d 97bc 06bd
00000090: 6b65 c4bc 1a04 3a3d 95c3 13bd 29dc 0a3c
000000a0: 57fc e13c faa2 4a3d 3268 5b3d 0fa6 183d
000000b0: 237c 7b3d 96c1 42bc 926f 403c 2445 babc
000000c0: db81 683b ed6b 823d d023 c7bc 1b79 823d
000000d0: 3231 4cbc a62f 273d 7ae2 863c 25f6 40bd
000000e0: 01b1 523d 9c1a 75bd 2c2c c7bc e646 b43c
000000f0: 2761 843d 0f97 c73c a8ce 19bc b395 473d
00000100: c940 bf3b c16c 793d 307b 04bd 5581 0bbd
00000110: 1407 0e3c 630c 513b f6c0 e53b 1031 773c
00000120: fa84 9d3b e27c febb bb7a f23c cade 323d
00000130: 4aac 40bc ca94 7e3d 4cda 81bd 1e38 d7ba
00000140: e32e 6e3c b995 7abd e824 5e3c 0fb1 14bd
00000150: 2bd5 c3bc c2bc 0bbd c645 a73c 976c c73c
00000160: 9a45 143c c370 0bbd ee3e 9dbc 9f5e 1b3d
00000170: df35 113d e5cf d4bb 6bf9 5b3d 8503 93bd
00000180: 2463 20bd 629b 533d 5935 903c 88d3 07bd
00000190: aa8b a83c 395d e4bb c458 d4bc ac4b 393c
000001a0: be00 853d afe3 433d 8bd1 8fbc afe6 ebbc
000001b0: ee1e 5639 a3e1 a33c a178 31bc 9552 4d3d
000001c0: 0985 1c3d 169c b33b 90b9 b6bc dcd1 37bd
000001d0: 256e 823d a1cd a33c 93db cd3c 4f23 6dbd
000001e0: a90f 023d 131d ae3b 8650 8e3d ef50 32bd
000001f0: 37dd 1fbd 12d5 153d fba8 bc3b 7b7b 833d
00000200: cac7 6f3d f94d 243d 2351 ae3b 5e7a 3b3c
00000210: 7679 dc3c ffd1 44bc bcbe bdbc 05a8 84bc
00000220: ec0e 7c3d f415 053d 1d5d 373d 63ea 2abd
00000230: dedb af3c 11da 943b 90de ceba d79e 273d
00000240: fa79 093d ec1a 4ebd b705 afbb 12da 6e3d
00000250: 8c79 223d ffd4 3d3d ec7c 62bd 66d5 673d
00000260: 8d0d 7d3c 38bd 903c 38b6 1fbd 6471 453d
00000270: 891a b93c e6c3 88bc eca8 ccbc eeaf ab3c
00000280: bfe6 403d aac9 87bc e726 4fbd 88a7 733c
00000290: 11ab 373c 7e7d 52bc c1e3 44bd ae7b 10bd
000002a0: 1b30 0a3d f474 acbc dd1b 52bd d577 993c
000002b0: 0a33 a2bd 8dd1 a43c 2896 5c3d 1dec 9ebd
000002c0: 4d25 003d 5474 ac3c 807f ef3c 0b02 64bc
000002d0: 195e d33b ccf4 9bbc a9fa 70bd f1ac 34bd
000002e0: 62cf 76bd c260 fdbb a8b4 6bbd af2c 093d
000002f0: bbdd cdbc 6937 81bd 1b34 5a3d b06f 36bd
00000300: 4b5d 0ebd 8720 903c 4f96 003a f00d f53c
00000310: 8e91 11bd 0899 cc3c bcb8 503d 8b32 72bd
00000320: 14d2 92bc 6c77 883d 4d09 4fbd de0d 653c
00000330: 2ae2 6fbd 0b22 2abd 09c0 e63c 3400 063d
00000340: 8437 e03c 0e17 7dbd cd24 493b ff2b 503d
00000350: 595b 59bd 4b06 b33c 73bf 373d 448c 113d
00000360: 7cbd 78bd ed65 8bbd 16c8 dcbc 5d65 f33c
00000370: 3c51 ab3c c529 bebc 7252 e7bc 3330 a0bc
00000380: fa91 c63c 2533 8d3c 04b5 4a3d a61e 6ebb
00000390: 53b3 4a3d 7556 833d acfc 143d c097 c73b
000003a0: 54aa 82bd 94d9 a5bc 3e83 76bc a631 54bd
000003b0: 21e0 563d eb27 34bd 0cae 84bc 116b 453c
000003c0: d46d 223c 94ec 4fbd c9b8 f93c c4f4 5d3d
000003d0: 002b b53b 1063 11bc d731 7f3c 639c 7ebd
000003e0: b89c a9bc b176 b5b9 f68c 753d a94e 4bbd
000003f0: 857d c0bc 0ae7 5cbd 3e8c 333d c45a 48bd

linear.4.weight f4 [6, 256]
0.032174967 -0.00047188933 0.040684536 0.02880658 -0.053505503 -0.020061014 0.037800774 -0.022495741
-0.04712406 0.025373247 0.136634 0.06822999 0.010396707 -0.0007431358 0.023355218 -0.05031391
-0.0074118264 -0.020973327 0.048549168 -0.008629435 0.019566827 0.04439655 -0.04510301 0.059697974
0.07267573 -0.047409937 0.0086359 -0.030723987 0.053833947 0.030443788 -0.022254027 -0.010686182
0.09083067 -0.0036915943 -0.0036651108 0.005439026 -0.06790243 0.066426285 0.017910605 -0.09172015
0.051458098 -0.064814396 -0.01563218 0.0015689516 -0.042006034 0.0704217 -0.20792137 0.031913824
0.042055354 0.03391762 0.015240298 -0.030887462 0.07512797 0.04599598 -0.045443952 0.0346719
0.06424872 -0.06531779 0.023016883 -0.13895746 -0.0017839065 0.055343073 0.016581401 -0.025545528
0.013022381 0.015619742 0.046490695 0.0528828 0.014035753 -0.0045796894 -0.022368962 0.058949508
0.008549585 0.03796338 0.034848653 0.07691252 0.003824012 0.0040135914 0.026666977 -0.0021594274
-0.085749306 -0.022693748 0.02352077 0.044722773 0.011995342 0.126555 -0.038115636 0.059717298
-0.001747674 -0.08044494 -0.0018053362 -0.025134768 -0.02429954 0.011921544 0.026677955 0.014640041
-0.054860946 -0.036913574 0.0488025 -0.0693411 0.026294436 0.008798068 0.028609633 0.012477944
0.16447034 -0.0069757197 -0.03382196 -0.078677386 0.008871567 0.05025334 -0.067588374 -0.008746179
-0.022563783 -0.048753314 -0.0034444388 -0.0049331305 -0.040007144 0.016731272 0.034163874 0.040513355
-0.011501479 0.075238355 -0.051448897 0.012024638 0.022700591 0.007695203 0.04622585 -0.03560189
-0.029435398 0.04574694 -0.024258586 -0.045509074 -0.0204579 0.013047979 0.025847834 -0.037458643
-0.11767192 -0.059947554 -0.053532217 0.03515754 -0.015301177 -0.05199108 -0.033072207 -0.037201583
0.059202813 -0.026242254 -0.014072783 -0.033327535 -0.054842576 0.017350396 -0.037376694 -0.034374874
-0.047251903 -0.0074215406 -0.0025026896 -0.084800884 -0.038274597 0.003311407 0.04401627 -0.017381161
-0.054066047 0.041342236 -0.046506546 -0.0059911483 0.040513154 -0.04422181 -0.05339196 -0.021203673
-0.040590163 0.025941579 -0.0422413 0.055561468 -0.06425281 -0.05569821 -0.01743164 0.0052328245
-0.06521539 -0.018675707 0.04791887 -0.021443982 0.03163451 0.07549503 -0.030640176 0.059728984
-0.0049407827 0.020430963 -0.05795307 0.057477914 -0.056733675 -0.038933113 -0.060355328 -0.016532628
-0.004521871 0.05868708 -0.10022791 -0.023621164 -0.04992871 -0.032346804 -0.0042958865 0.0077530355
0.07547636 0.0045212703 0.04427739 0.025331028 -0.054108102 -0.050622612 0.05432069 -0.028656656
-0.040364515 -0.016318409 0.030402832 0.019885944 0.024656089 0.021425346 0.00406992 -0.004564263
0.04557452 -0.030919846 0.02346573 0.08245714 0.057505947 -0.051533654 0.05684146 -0.03477162
0.041685984 -0.009055928 -0.029916992 0.02253026 -0.04354529 -0.06445059 -0.0358934 -0.0018248067
-0.039040547 -0.008878013 -0.022033792 0.060995307 -0.010228262 -0.040368296 0.16630408 -0.036940567
0.068372495 -0.07384124 -0.06949366 -0.014816006 -0.043652896 -0.020847585 0.0108497385 0.04161137
0.053097714 0.12607294 -0.052752014 0.046964902 -0.030137435 0.026216576 -0.01518259 -0.056820158
00000000: e6c9 033d ea67 f7b9 d4a4 263d c7fb eb3c
00000010: 9628 5bbd ff56 a4bc fcd4 1a3d fd48 b8bc
00000020: 2905 41bd 8edb cf3c c9e9 0b3e 2abc 8b3d
00000030: f356 2a3c 00cf 42ba 7153 bf3c f515 4ebd
00000040: e8de f2bb 41d0 abbc 7edb 463d 7962 0dbc
00000050: 9c4a a03c 28d9 353d efbd 38bd dd85 743d
00000060: 03d7 943d ec30 42bd 977d 0d3c dfb0 fbbc
00000070: fc80 5c3d 4065 f93c 144e b6bc 1915 2fbc
00000080: 6e05 ba3d adee 71bb 5b32 70bb db39 b23b
00000090: 6e10 8bbd 810a 883d 43b9 923c c6d7 bbbd
000000a0: bac5 523d 69bd 84bd 0f0f 80bc 48a5 cd3a
000000b0: 850e 2cbd 4139 903d 57e9 54be 12b8 023d
000000c0: 3c42 2c3d 34ed 0a3d 71b2 793c b407 fdbc
000000d0: b1dc 993d 4866 3c3d 7023 3abd 1f04 0e3d
000000e0: d594 833d 55c5 85bd e78d bc3c dd4a 0ebe
000000f0: f8d1 e9ba 6baf 623d b8d5 873c db44 d1bc
00000100: d35b 553c f2e9 7f3c 076d 3e3d a39b 583d
00000110: 37f6 653c 3811 96bb 1d3f b7bc 0a75 713d
00000120: 8f13 0c3c 7d7f 1b3d 76bd 0e3d 5084 9d3d
00000130: 469c 7a3b 7284 833b b474 da3c 2e85 0dbb
00000140: 559d afbd 3de8 b9bc a1ae c03c 3a2f 373d
00000150: 1c88 443c a297 013e 241f 1cbd 209a 743d
00000160: 3512 e5ba 51c0 a4bd 08a1 ecba 6ee7 cdbc
00000170: d40f c7bc 9452 433c ba8b da3c c8dc 6f3c
00000180: dfb5 60bd b032 17bd 21e5 473d b502 8ebd
00000190: 6e67 d73c c625 103c c05e ea3c 4a70 4c3c
000001a0: ea6a 283e 9494 e4bb e588 0abd 9c21 a1bd
000001b0: 0d5a 113c 72d6 4d3d c66b 8abd 224c 0fbc
000001c0: afd7 b8bc 8eb1 47bd 18bc 61bb 19a6 a1bb
000001d0: 88de 23bd 0510 893c 6bef 0b3d 55f1 253d
000001e0: b370 3cbc 9116 9a3d 14bc 52bd fd02 453c
000001f0: 97f6 b93c 0b28 fc3b 5157 3d3d 4ad3 11bd
00000200: 8122 f1bc 2561 3b3d f1b9 c6bc b967 3abd
00000210: 5397 a7bc 31c7 553c d6be d33c 3c6e 19bd
00000220: fafd f0bd 918b 75bd 9944 5bbd 5a01 103d
00000230: cab1 7abc 99f4 54bd b976 07bd b060 18bd
00000240: a67e 723d fff9 d6bc 8891 66bc 7482 08bd
00000250: 9ca2 60bd 6b22 8e3c 4e18 19bd abcc 0cbd
00000260: 368b 41bd 6530 f3bb 2a04 24bb 16ac adbd
00000270: d3c5 1cbd 3104 593b 684a 343d f062 8ebc
00000280: 5c74 5dbd 7a56 293d a67d 3ebd 6551 c4bb
00000290: 1ff1 253d ee21 35bd 87b1 5abd 53b3 adbc
000002a0: df41 26bd 6f83 d43c 3705 2dbd 6c94 633d
000002b0: fa96 83bd ce23 64bd cccc 8ebc 1d78 ab3b
000002c0: a58f 85bd ccfd 98bc 9446 443d 4aab afbc
000002d0: 3093 013d 239d 9a3d 1b01 fbbc 61a6 743d
000002e0: 4ae6 a1bb d65e a73c 3360 6dbd f66d 6b3d
000002f0: 9261 68bd 5478 1fbd 2637 77bd 6f6f 87bc
00000300: 342c 94bb dd61 703d 4a44 cdbd 2c81 c1bc
00000310: 0c82 4cbd 157e 04bd 82c4 8cbb 2d0d fe3b
00000320: 5a93 9a3d 2a27 943b 355c 353d 0483 cf3c
00000330: 75a0 5dbd a859 4fbd 5f7f 5e3d 5dc1 eabc
00000340: 4355 25bd 2fae 85bc 5c0f f93c d9e7 a23c
00000350: 91fb c93c 3584 af3c f75c 853b d08f 95bb
00000360: 59ac 3a3d 9e4b fdbc 343b c03c 4adf a83d
00000370: 5b8b 6b3d f414 53bd 97d2 683d b06c 0ebd
00000380: ecbe 2a3d 515f 14bc 7b14 f5bc 6191 b83c
00000390: 8c5c 32bd acfe 83bd f504 13bd 5a2e efba
000003a0: fbe8 1fbd 1675 11bc 3680 b4bc 37d6 793d
000003b0: 7194 27bc 3a59 25bd 9e4b 2a3e fe4e 17bd
000003c0: e106 8c3d 133a 97bd b152 8ebd d5be 72bc
000003d0: 61cd 32bd 8ec8 aabc 1ac3 313c af70 2a3d
000003e0: fd7c 593d 4419 013e 7f12 58bd 455e 403d
000003f0: c8e2 f6bc 25c4 d63c 66c0 78bc 41bc 68bd

linear.4.bias f4 [6]
0.011869117 0.051878598 -0.02608852 -0.0009877819 -0.012399901 -0.046471693
00000000: af76 423c a77e 543d 98b7 d5bc 7678 81ba
00000010: f428 4bbc 1a59 3ebd
